Assets/6. Results/F_Staff_Stage2_V5_2.onnx (onnx, 290784 bytes, 9 tensors)

action_model._discrete_distribution.branches.0.bias f4 [2]
0	0xbd1b27ce	-0.037879758
1	0x3d1b2831	0.037880126

action_model._discrete_distribution.branches.0.weight f4 [2, 256]
0	0xbaadd681	-0.001326278
1	0x3d90dc74	0.07073298
2	0x3bcb3032	0.0062008137
3	0x3caade8b	0.02085807
4	0x3d8e0bc0	0.06935835
5	0x3d629bf9	0.05532453
6	0x3d2728d5	0.040810425
7	0x3d368899	0.044563863
8	0x3cf42855	0.029804388
9	0x3d8494ea	0.064737156
10	0x3c216dd7	0.009852848
11	0x3dd51b28	0.1040557
12	0xbd8fa319	-0.0701353
13	0xbd173fd5	-0.03692611
14	0xbe03132d	-0.12800284
15	0x3ccef519	0.025263356
16	0xbcad28c4	-0.021137603
17	0xbdf07f96	-0.11743085
18	0x3d8440f1	0.06457699
19	0xbe0220ae	-0.12707779
20	0x3dbd659c	0.09247896
21	0xbc22521d	-0.009907273
22	0x3d05fe53	0.032713246
23	0x3d87bb2a	0.066274956
24	0x3ca33fa4	0.019927807
25	0xbc338819	-0.010957741
26	0x3ccd7fc3	0.025085336
27	0x3d4c5618	0.049886793
28	0x3d5ead60	0.054364562
29	0xbd52cdbb	-0.05146573
30	0x3d86d02d	0.06582675
31	0x3d72840c	0.05920796
32	0x3d271ebd	0.0408008
33	0xbdb4f8b8	-0.08836502
34	0xbd5cae26	-0.05387702
35	0x3db015e8	0.08597928
36	0x3ddafee3	0.10693147
37	0x3ca60b96	0.020269196
38	0xba3f0eb1	-0.0007288261
39	0x3d750e09	0.059827838
40	0x3d39e961	0.045388583
41	0x3de07283	0.109593414
42	0x3b7c5661	0.0038503634
43	0xbcbd89b0	-0.023136944
44	0xbe4bb97e	-0.19894978
45	0xbdf9810c	-0.12182817
46	0x3d0d1b1f	0.034449693
47	0x3d009d34	0.03139992
48	0xbdb63dcc	-0.088985056
49	0x3d944edf	0.07241606
50	0xbdd617cd	-0.104537584
51	0xbd973d89	-0.07384784
52	0x3db61c89	0.088921614
53	0x3dbc5e2a	0.09197648
54	0x3d24f248	0.04027012
55	0x3dc03a5d	0.09386132
56	0xbde2a65b	-0.11066886
57	0xbbecadc6	-0.007222864
58	0xbd6f2c9e	-0.05839216
59	0xbdc41171	-0.09573639
60	0x3c522f55	0.012828668
61	0xbe42f082	-0.19037059
62	0x3b163484	0.0022919485
63	0x3c10f697	0.008847854
64	0x3db4f591	0.088359006
65	0xbd4b1858	-0.049583763
66	0x3da03cf1	0.07824124
67	0xbda7df0e	-0.08196841
68	0xba820eb3	-0.0009922594
69	0x3d090519	0.033452127
70	0xbd8ec82e	-0.06971775
71	0x3d80031b	0.06250592
72	0x3de6b0ab	0.112641655
73	0x3d7224bb	0.05911706
74	0x3dcf1ad8	0.10112542
75	0xbde441c2	-0.11145355
76	0xbdb0a673	-0.08625498
77	0x3d086b47	0.033305433
78	0x3d14c4fe	0.03632068
79	0x3d0519ec	0.032495424
80	0xbdafd45c	-0.08585426
81	0xbdd1fda3	-0.102534555
82	0x3b65b1ea	0.0035048672
83	0xbdd2538b	-0.10269841
84	0x3d314c41	0.043285612
85	0x3d1e90bb	0.038712244
86	0xbd728b24	-0.059214726
87	0x3d5aa1b7	0.05337688
88	0x3d33f957	0.04393896
89	0x3d8ed697	0.069745235
90	0x3d0eb380	0.034839153
91	0xbdf62c25	-0.12020139
92	0x3db4aa86	0.08821587
93	0xbe1b2239	-0.15149774
94	0xbc46cd0e	-0.01213385
95	0x3cc193b4	0.02363
96	0xbe1d642e	-0.15370247
97	0x3d5b0293	0.05346925
98	0x3db5f631	0.08884848
99	0x3bea8ec2	0.0071581313
100	0x3dbd66d1	0.09248126
101	0x3dc6c602	0.09705736
102	0xbe2f9bb7	-0.17149244
103	0xbdd6e11e	-0.104921564
104	0xbcff605a	-0.031173874
105	0x3d78978f	0.060691413
106	0x3d87a16b	0.06622585
107	0xbc0538ba	-0.0081312
108	0x3d033619	0.032034013
109	0xbde4e18a	-0.11175831
110	0xbd984ae9	-0.07436163
111	0x3d2dc628	0.042425305
112	0xbd87378d	-0.06602392
113	0xbca3b030	-0.019981474
114	0x3d85d5fc	0.06534955
115	0xbe2aa8d2	-0.16665962
116	0x3d1aa12e	0.03775137
117	0xbda16b44	-0.078817874
118	0xbcdfe26b	-0.027329644
119	0x3d367512	0.04454524
120	0x3d18f8ee	0.037346773
121	0x3c72127e	0.014774917
122	0x3d3717bd	0.044700373
123	0xbc46c7b9	-0.0121325785
124	0x3d08ee27	0.033430245
125	0x3d297c0d	0.04137807
126	0x3d54cc93	0.05195291
127	0x3d8141ef	0.06311404
128	0x3c885fe5	0.016647289
129	0xbe2c2e47	-0.16814528
130	0x3d0e1a25	0.034692902
131	0xbe235249	-0.15949358
132	0x3d756f89	0.05992082
133	0xbd1c9e52	-0.038236924
134	0x3de89bbb	0.11357828
135	0x3d8174b0	0.063210845
136	0x3d6a7bff	0.05724716
137	0x3d5c47ba	0.05377934
138	0x3daf9c9e	0.08574794
139	0xbc41dc95	-0.011832376
140	0x3dd16505	0.10224346
141	0x3d1046f4	0.035223916
142	0xbd812916	-0.06306665
143	0x3d57995e	0.052636497
144	0x3db28a5b	0.087177955
145	0x3cb486da	0.022036958
146	0x3da2b2f0	0.07944286
147	0x3ce3a0d3	0.027786648
148	0xbbf23b17	-0.007392298
149	0x3dc0f8fd	0.09422491
150	0xbe036f13	-0.1283534
151	0x3d923643	0.07139256
152	0xbbcf7d8c	-0.006332105
153	0x3df84b36	0.1212372
154	0x3de5c22d	0.11218677
155	0xbd286604	-0.041112915
156	0x3d227f07	0.039671924
157	0x3dc6e57c	0.097117394
158	0x3d77f024	0.06053175
159	0x3cd5ce92	0.026099477
160	0x3daf6959	0.08565015
161	0xbe3c83c9	-0.18409647
162	0x3dadc2f5	0.08484451
163	0x3d9aa3d9	0.07550783
164	0x3cf67696	0.030085843
165	0xbc81ddad	-0.015852774
166	0x3c5aa5b4	0.013345171
167	0x3d792d21	0.060834054
168	0xbd912ca5	-0.070885934
169	0xbe749dd8	-0.23888338
170	0xbd5e29b9	-0.05423901
171	0x3dcac8a0	0.099015474
172	0x3dab4ca3	0.08364227
173	0xbdc9af60	-0.09847903
174	0xbd853edb	-0.06506129
175	0xbbbe4cfa	-0.005807516
176	0xbbe7f0d6	-0.0070782704
177	0xbbe97590	-0.0071246102
178	0xbcae7fb6	-0.021301132
179	0xbd8d3fb4	-0.06896916
180	0xbb14e1fb	-0.0022717703
181	0xb81181f6	-3.469173e-05
182	0xbcc20c59	-0.023687528
183	0x3c30257a	0.010751123
184	0xbb969cf0	-0.004596345
185	0x3dac37c4	0.08409074
186	0x3dd5112f	0.10403668
187	0x3d192bd7	0.037395325
188	0x3da1a29a	0.07892342
189	0xbc967fa7	-0.018371416
190	0xbdcf2e30	-0.101162314
191	0x3d6ae8c1	0.057350878
192	0xbdd7faa2	-0.10545851
193	0x3d03d331	0.03218383
194	0x3d8b11a4	0.06790474
195	0x3d62d6c0	0.055380583
196	0xbccd5f48	-0.025069848
197	0xbe3aa84f	-0.18228267
198	0x3d9527c9	0.07282979
199	0xbb894213	-0.004188785
200	0xbd813509	-0.06308944
201	0x3d90d059	0.07070989
202	0xbb678a35	-0.003533018
203	0x3d94f780	0.072737694
204	0xbdbd352a	-0.09238656
205	0xbe7ca822	-0.24673513
206	0xbd0c350a	-0.03423027
207	0xbdfc8d8a	-0.12331684
208	0x3d565b06	0.0523329
209	0x3d0db8ec	0.034600183
210	0x3d1390f2	0.036026902
211	0xbdbd8f69	-0.09255869
212	0xbc3e8f67	-0.0116308695
213	0x3c5b8ecb	0.013400744
214	0x3dbc2938	0.09187549
215	0x3c95795d	0.018246347
216	0x3c870b43	0.016484862
217	0x3d39f965	0.045403857
218	0x3c770fa1	0.01507941
219	0xbd59e7b0	-0.05319947
220	0xbcbe3052	-0.0232164
221	0x3d8713d2	0.06595577
222	0xbb8a8f73	-0.0042285263
223	0x3d40f208	0.04710582
224	0xbca6fcbc	-0.020384185
225	0x3caa7409	0.020807283
226	0x3d5e14c3	0.05421902
227	0x3d176db5	0.03696986
228	0xbd66f9ba	-0.0563905
229	0xbd4dbd64	-0.050229445
230	0x3d8ba128	0.068178475
231	0x3d996316	0.07489602
232	0xbe0349fd	-0.12821193
233	0x3da96e21	0.082729585
234	0xbc4498a4	-0.011999283
235	0x3d46a286	0.04849484
236	0xbdc25c03	-0.09490206
237	0x3c5c9ab9	0.013464623
238	0x3c97ebf8	0.018545136
239	0x3d9c2bb7	0.076255254
240	0x3d6b80d0	0.057495892
241	0x3d7cbb0f	0.06170183
242	0x3d1cae2d	0.038252044
243	0x3dc995de	0.09843038
244	0x3cdec2b9	0.02719246
245	0xbdc3f6b1	-0.09568537
246	0x3c85beac	0.016326271
247	0xbe25563a	-0.16146174
248	0x3c82926e	0.015938964
249	0xbcea920b	-0.028634092
250	0x3d06cdab	0.032910984
251	0xbdf59342	-0.11990978
252	0x3cb9065e	0.022586044
253	0x3cf2be4d	0.029631758
254	0xbe3844d2	-0.17995003
255	0xbe4e4e97	-0.20147167

action_model._discrete_distribution.branches.1.bias f4 [3]
0	0xba8db2a3	-0.0010810684
1	0x3cbe7621	0.023249688
2	0xbcf4d3bb	-0.029886117

action_model._discrete_distribution.branches.1.weight f4 [3, 256]
0	0x3c12851d	0.0089428695
1	0x3cd17365	0.02556772
2	0xbc78e1e4	-0.015190575
3	0xbd3c847f	-0.046024796
4	0xbe0a81c3	-0.13526063
5	0xbdb6e5d4	-0.08930555
6	0xbd158afb	-0.036509495
7	0xbd053432	-0.03252048
8	0xbcc73178	-0.02431558
9	0xbc8a022c	-0.016846739
10	0x3cbc5fee	0.022994962
11	0xbcc75d54	-0.024336495
12	0xbd530825	-0.05152144
13	0xbdc3c030	-0.09558141
14	0x3da5150d	0.08060656
15	0xbd25ae46	-0.040449403
16	0xbb4a88e0	-0.0030904338
17	0x3d66cb34	0.056346133
18	0x3b70c894	0.0036740648
19	0x3a460a41	0.00075546285
20	0xbd660083	-0.05615283
21	0x3cc882b0	0.02447638
22	0x3ddc6343	0.1076112
23	0xbc480d10	-0.012210146
24	0x3c9629aa	0.018330414
25	0x3bd810c9	0.006593798
26	0x3d587bbe	0.052852385
27	0x3aa3bb81	0.0012491794
28	0xbd0b3617	-0.03398713
29	0xbd8e32d3	-0.06943288
30	0xbd8fb00a	-0.07015999
31	0x3c7b577a	0.01534068
32	0x3c8e3c8d	0.017362857
33	0x3d3f8a44	0.04676272
34	0x3db4c691	0.08826936
35	0x3b9a9f7b	0.0047187186
36	0xbdcc0202	-0.099613205
37	0x3ced3eab	0.028960546
38	0x3c8a12d3	0.01685468
39	0xbb62868f	-0.0034565066
40	0xbbfdb2c4	-0.007742258
41	0x3b2a24cd	0.0025961876
42	0x3c92a73f	0.017902015
43	0x3de51e00	0.11187363
44	0xbbb5ca93	-0.0055478304
45	0xbc7600e4	-0.015014861
46	0xbc8cd857	-0.017193003
47	0xbaf146a6	-0.0018407896
48	0x3c903d02	0.017607216
49	0xbd5912ad	-0.052996326
50	0xbdab087f	-0.0835123
51	0x3dd87eb5	0.105710424
52	0x3c145c8d	0.009055269
53	0x3cac6b42	0.021047238
54	0xbab77e9d	-0.0013999526
55	0x3c05808e	0.008148326
56	0xbcea6f21	-0.028617444
57	0x3bb3af4c	0.0054835435
58	0x3babad00	0.005239129
59	0x3d75a512	0.059971876
60	0x3d0a1f91	0.03372151
61	0x3d5ced65	0.053937335
62	0xbb5bec2f	-0.0033557524
63	0x3c8baa5f	0.017049013
64	0x3cbbd133	0.022926902
65	0xbdacabec	-0.08431229
66	0xbc73cdd5	-0.014880617
67	0x3d726889	0.059181724
68	0xbc9f3bf6	-0.019437771
69	0xb9b664d6	-0.00034788874
70	0x3d48e923	0.04905046
71	0xbd589424	-0.052875653
72	0xbc86cbb0	-0.016454548
73	0x3d2f98dc	0.042870387
74	0x3ce0e2a0	0.027451813
75	0xbba63dd1	-0.005073287
76	0x3c654221	0.013992817
77	0x3c659cf1	0.0140144685
78	0x3d18b50e	0.037282042
79	0xbcca56f8	-0.024699673
80	0x3d415200	0.047197342
81	0xbd94f5e4	-0.072734624
82	0x3d0c9896	0.034325205
83	0x3d646e69	0.055769358
84	0xbc8b8752	-0.0170323
85	0xbc7e8219	-0.015533947
86	0xbaebb13e	-0.00179819
87	0x3c2e66ad	0.010644597
88	0x3cc04eb5	0.02347503
89	0xbdfad18a	-0.12246998
90	0xbd09e54e	-0.033665948
91	0x3dd3f270	0.10348976
92	0xbde46144	-0.111513644
93	0xbc9115ea	-0.017710645
94	0x3cc404d5	0.023928085
95	0xbb71a5cb	-0.0036872502
96	0x3dd1157c	0.10209176
97	0xbbe2aa56	-0.0069172783
98	0x3d69c93a	0.05707667
99	0x3bd43c7f	0.0064769383
100	0x3d83d290	0.06436646
101	0xbc99081a	-0.018680621
102	0xba94b41d	-0.0011345182
103	0xbd87bf81	-0.06628323
104	0xbd005908	-0.031334907
105	0x3d150374	0.036380246
106	0x3d33050e	0.043705992
107	0xbd1a193c	-0.03762172
108	0x3c7b2985	0.015329723
109	0xbbd0227d	-0.0063517676
110	0xbb09440a	-0.0020945095
111	0x3b427d55	0.0029676754
112	0x3c1ba453	0.009499627
113	0x3da21332	0.079138175
114	0xbd7ac135	-0.061219413
115	0x3d5ec7df	0.05438983
116	0x3d57cddb	0.052686553
117	0x3d64f91d	0.055901635
118	0x3dbb53bd	0.09146831
119	0xbc90269b	-0.017596534
120	0xbce2c5a7	-0.027682139
121	0xbc77b7d2	-0.01511951
122	0xbcd27565	-0.025690744
123	0xbca2b7a4	-0.019862957
124	0xbc803199	-0.01564865
125	0x3bd47f48	0.0064848997
126	0xbcd9910e	-0.026558425
127	0xbd87c4dd	-0.066293456
128	0xbe1702ad	-0.14747114
129	0xbc08ca9f	-0.00834909
130	0xbc11fd6e	-0.00891052
131	0x3d9602e3	0.07324769
132	0x3cf93343	0.030419951
133	0x3d7f284e	0.062294297
134	0x3c5e8427	0.013581312
135	0xbd9ef1ce	-0.07760964
136	0x3b96a8b7	0.004597749
137	0xbccbfd0a	-0.024900932
138	0xbceb7b96	-0.028745454
139	0xbccee5b8	-0.025256023
140	0x3cb1405a	0.02163713
141	0xbc68e0ea	-0.01421378
142	0x3c3a1057	0.011356435
143	0x3cca6448	0.024706021
144	0xbdfc903e	-0.123321995
145	0x3c29044c	0.010315966
146	0xbdcb57f0	-0.09928882
147	0xbc999bc7	-0.018751038
148	0xbd19096b	-0.037362497
149	0xbcf07b32	-0.02935562
150	0x3db22581	0.086985596
151	0xbdf4d245	-0.11954168
152	0x3cf947a8	0.030429676
153	0xbbe00699	-0.006836724
154	0x3c4a85d5	0.01236101
155	0xbdb222cd	-0.08698044
156	0xbc2bfb19	-0.010496878
157	0xbdd59a9d	-0.10429881
158	0xbc94ac61	-0.018148603
159	0x3bfe40e0	0.0077591985
160	0xbdce8cb9	-0.100854345
161	0x3cad7792	0.02117518
162	0xbde75bc2	-0.11296798
163	0xbdfd46ad	-0.12366996
164	0xbd2a3681	-0.041555885
165	0xbbda9d27	-0.006671566
166	0xbb02e660	-0.001997374
167	0x3d2dd51f	0.042439576
168	0x3d90a5d1	0.07062877
169	0x3d3189d3	0.04334433
170	0xbd1c36de	-0.038138263
171	0xbdaf65d1	-0.08564342
172	0xbe102c78	-0.14079463
173	0x3ccdbab1	0.025113435
174	0xbdb65330	-0.089025855
175	0x3c17bbda	0.009261096
176	0x3c483b23	0.012221131
177	0xbb09f120	-0.0021048263
178	0xbb8f353a	-0.004370359
179	0x3d81062b	0.063000046
180	0x3b83955f	0.004015609
181	0x3b9c4b35	0.0047697076
182	0x3c3ac243	0.011398855
183	0xbbb5cde1	-0.0055482243
184	0xbcfe5857	-0.031047983
185	0x3d517131	0.05113334
186	0xbc26d43f	-0.010182439
187	0x3c8a478a	0.016879816
188	0xbe092f80	-0.13397026
189	0x3c9fa9cd	0.019490147
190	0xbd4b0286	-0.049562953
191	0xbd64210c	-0.05569558
192	0xbd988819	-0.074478336
193	0x3adf5311	0.0017038306
194	0x3d3c2f5f	0.045943614
195	0x3d6bfab0	0.05761212
196	0x3d104a0a	0.03522686
197	0x3cb79e94	0.022414483
198	0x3cc96abe	0.024587031
199	0xbb148386	-0.0022661402
200	0xbc7c24b4	-0.01538961
201	0xbc516d84	-0.012782458
202	0xbd201b4c	-0.039088532
203	0x3d8280b2	0.06372203
204	0x3d2b69c6	0.04184892
205	0x3d52c91e	0.05146133
206	0xbdf4b6fe	-0.119489655
207	0xbd9d87f4	-0.076919466
208	0x3c6afaa2	0.014341982
209	0x3c4fdb4a	0.01268656
210	0xbbee7460	-0.0072770566
211	0x3c8e7791	0.017390998
212	0x3c39a2b9	0.0113303
213	0x3d33e09a	0.04391537
214	0xbb7963e0	-0.0038053915
215	0xbd8d93d8	-0.069129646
216	0xbbd8c008	-0.006614689
217	0xbdbe0ebe	-0.092801556
218	0xbc6c9392	-0.01443948
219	0x3dbe0ffb	0.09280392
220	0x3c5ac6fa	0.013353104
221	0xbe111029	-0.14166321
222	0xbc73ae92	-0.014873164
223	0xbd0cd79c	-0.03438531
224	0x3c5e33b5	0.013562133
225	0xbca3dcdb	-0.020002773
226	0xbdc7d87d	-0.09758089
227	0xbc3496d5	-0.011022289
228	0xbdd5fd80	-0.10448742
229	0xbdb3470e	-0.08753787
230	0xbd85ff47	-0.06542831
231	0xbd4e9c6f	-0.050442155
232	0xbcdb2f3c	-0.026755922
233	0xbdb82495	-0.089913525
234	0xbb2d2497	-0.0026419514
235	0xbcdea2aa	-0.027177174
236	0x3d2d9205	0.042375583
237	0x3b55687f	0.0032563505
238	0x3d567aae	0.05236309
239	0x3d9fbf7d	0.07800195
240	0x3bf88944	0.0075847227
241	0xbc0af43d	-0.0084810825
242	0x3da5e773	0.08100786
243	0x3c5a08c9	0.013307759
244	0x3ca28aff	0.01984167
245	0xbca1b291	-0.019738467
246	0x3bfc7980	0.0077049136
247	0x3d84cf66	0.064848706
248	0xbc78ccf8	-0.015185587
249	0x3cd5b3c8	0.026086703
250	0x3da6d576	0.08146183
251	0x3dffcde9	0.12490446
252	0x3b350ba3	0.0027625344
253	0x3c8c15ba	0.017100204
254	0xbd62a708	-0.055335075
255	0xbce8c358	-0.02841346

discrete_action_output_shape f4 [1, 2]
0	0x40000000	2.0
1	0x40400000	3.0

network_body._body_endoder.seq_layers.0.bias f4 [256]
0	0xbda2c439	-0.07947583
1	0x3d81e9b5	0.06343404
2	0xbd813bd7	-0.06310242
3	0x3db2bfff	0.087280266
4	0x3c58b938	0.013227753
5	0x3d2bd9bf	0.041955706
6	0x3d9bf4a1	0.07615019
7	0xbbb88463	-0.005631016
8	0xbd0dd027	-0.034622338
9	0x3cb8ce0d	0.02255919
10	0x3cbf6e3a	0.02336799
11	0xbd47ebef	-0.04880899
12	0xb96fa07b	-0.000228526
13	0xbc198b94	-0.009371657
14	0x3d59a996	0.053140245
15	0xbe03a069	-0.1285416
16	0xbd3e9d74	-0.046536878
17	0x3ca030b7	0.019554479
18	0xbd8eddf8	-0.06975931
19	0x3d757bd4	0.059932545
20	0xbd1ca902	-0.038247116
21	0xbd425d7b	-0.04745243
22	0x3c94504b	0.018104693
23	0xbc23baa7	-0.009993232
24	0x3cfe99e6	0.031079244
25	0xbcdfda79	-0.027325856
26	0x3d9ca6dc	0.076490134
27	0x3d955a8c	0.07292661
28	0xbccbf74a	-0.02489819
29	0x3d80ca2d	0.06288562
30	0xbd1ae4dc	-0.037815914
31	0x3bf07e5e	0.007339283
32	0x3c77b107	0.01511789
33	0xbce7b7d2	-0.028285895
34	0x3d980044	0.07421926
35	0x3cd45692	0.025920186
36	0x3d779d86	0.06045296
37	0xbd6e0c90	-0.05811745
38	0xbc767de7	-0.015044666
39	0xbdcab178	-0.09897131
40	0x3d8aae0a	0.067714766
41	0xbd1ac750	-0.037787735
42	0xbd27f52f	-0.04100531
43	0x3d10a0ca	0.03530959
44	0x3cd072ad	0.025445307
45	0xbce8ea6d	-0.028432095
46	0xbc67bac3	-0.014143649
47	0x3d0e479b	0.034736257
48	0xbd93ff77	-0.072264604
49	0x3d7da790	0.06192738
50	0x3bb9ae7a	0.005666551
51	0xbdc4637c	-0.09589288
52	0xbc243d5d	-0.010024396
53	0x3d3f5edc	0.046721324
54	0x3d47c611	0.048772875
55	0x3e07a4b0	0.13246417
56	0x3d8b671b	0.06806775
57	0xbd30d828	-0.043174893
58	0xbcd2e1b0	-0.025742382
59	0x3c8ce97f	0.017201183
60	0xbb0d5f7c	-0.0021571806
61	0x3ccc9676	0.02497409
62	0x3dcd8fe2	0.10037209
63	0x3d365c3c	0.044521555
64	0x3d7d1579	0.061788056
65	0x3e000471	0.12501694
66	0xbda8e2cb	-0.08246382
67	0x3bbddcbb	0.0057941354
68	0xbcfaf606	-0.030634891
69	0x3cac93be	0.021066543
70	0xbdc10715	-0.09425179
71	0xbd89d5ee	-0.06730257
72	0xbd1931d8	-0.03740105
73	0xbc5e4334	-0.013565827
74	0xbde91cd2	-0.1138245
75	0xbc4cc958	-0.012499176
76	0x3dfb20fa	0.12262149
77	0x3e00a17d	0.12561603
78	0xbdad03ee	-0.08448015
79	0xbd096696	-0.0335451
80	0xbd093220	-0.03349507
81	0x3c2e995f	0.010656684
82	0xbdb5261b	-0.08845159
83	0xbd158f90	-0.036513865
84	0xbda9cbd1	-0.08290828
85	0x3cf8cac3	0.030370122
86	0x3d498837	0.04920217
87	0xbd8b7db7	-0.068110876
88	0xbccda644	-0.025103696
89	0xbd44593e	-0.04793667
90	0x3c016429	0.007897415
91	0xbd90b239	-0.07065243
92	0x3d9e270e	0.07722293
93	0xbd957e4d	-0.072994806
94	0x3d3b385f	0.045708057
95	0xbd6fc3b5	-0.05853625
96	0x3d8c777e	0.06858729
97	0x3de2b04d	0.11068783
98	0xbd85276a	-0.06501658
99	0x3da2ff66	0.0795887
100	0xbdf69aef	-0.1204127
101	0xbd902134	-0.07037583
102	0x3d99439e	0.074836
103	0x3c82d78a	0.015971918
104	0xbdcc3dcc	-0.09972724
105	0xbcbbab8a	-0.022908945
106	0x3c2d0845	0.010561054
107	0x3dc6f7f3	0.09715261
108	0x3bc94030	0.006141685
109	0x3d3a21f3	0.045442533
110	0x3dbb0768	0.09132272
111	0x3cfba28b	0.030717155
112	0x3b9322c3	0.004490228
113	0x3dd5d0a6	0.10440187
114	0xbcb156ba	-0.0216478
115	0xbc7e2ed0	-0.015514091
116	0x3c9595d6	0.018259924
117	0x3ca7f83f	0.020504115
118	0x3d64781b	0.055778604
119	0x3d91de48	0.07122475
120	0x3c4ece9b	0.012622501
121	0x3d06f81b	0.032951456
122	0xbc6b2cda	-0.014353955
123	0x3c6ec492	0.014573233
124	0x3dfdc1c6	0.12390475
125	0xbd474760	-0.048652053
126	0x3ce9aa13	0.02852348
127	0x3dff8bcd	0.12477837
128	0x3d723b8f	0.05913883
129	0xbdcd8b07	-0.10036283
130	0x3d8586dc	0.06519863
131	0xbd07894e	-0.03308993
132	0xbb2e0fb6	-0.0026559657
133	0x3d99e87b	0.07515045
134	0x3d2bbec2	0.041929968
135	0x3ad9e720	0.0016624667
136	0xbdb3b0a7	-0.08773928
137	0x3d8eef70	0.06979263
138	0xbd6f6dad	-0.058454204
139	0x3dd3906a	0.10330279
140	0x3d5ccd68	0.05390683
141	0xbcc73f74	-0.024322249
142	0xbc2bad01	-0.010478259
143	0x39fa86d0	0.0004778416
144	0xb96e6299	-0.00022734179
145	0xbd2461ba	-0.04013226
146	0xbd83caf8	-0.064351976
147	0xbdbd6cfb	-0.09249302
148	0xbd6ee5a0	-0.058324456
149	0xbb79be26	-0.0038107722
150	0xbda3fd77	-0.08007329
151	0x3cf73e54	0.030181088
152	0x3d40761c	0.046987638
153	0xbd582b70	-0.0527758
154	0x3df045d2	0.11732067
155	0xbd5505ed	-0.052007604
156	0x3d9188d9	0.0710618
157	0x3d1816e3	0.0371312
158	0x3dc1b281	0.09457875
159	0xbd416332	-0.04721374
160	0x3ca8bc4f	0.020597605
161	0x3dd11dfa	0.10210796
162	0xbd8a007a	-0.06738372
163	0xbdac1b17	-0.084036045
164	0x3d887d33	0.06664505
165	0xbda15f31	-0.078794844
166	0x3ba08c80	0.0048995614
167	0x3d6628bf	0.056191202
168	0xbdb6d014	-0.089264065
169	0xbd3e3d68	-0.04644528
170	0xbbfd7f4d	-0.0077361227
171	0x3cb3d11d	0.021950299
172	0xbdf961c8	-0.121768534
173	0x3d965a1a	0.07341404
174	0x3dbed551	0.093180306
175	0x3d21a38a	0.039462604
176	0xbc48264d	-0.012216163
177	0xbdbca02d	-0.092102386
178	0x3db6b6ec	0.08921608
179	0xbc25c005	-0.010116582
180	0x3e352429	0.17689575
181	0x3b89cee9	0.004205574
182	0x3d282089	0.041046653
183	0xbd6efef4	-0.05834861
184	0x3da25939	0.07927174
185	0x3cf900d1	0.030395897
186	0x3d092c2f	0.033489402
187	0x3d48e195	0.049043257
188	0xbcc95951	-0.024578722
189	0x3d2d3f79	0.04229686
190	0xbc7a560c	-0.015279304
191	0x3d57adf8	0.052656144
192	0xbd71b3bf	-0.05900931
193	0x3cf80cb7	0.0302795
194	0xbd8c61c6	-0.06854586
195	0xbc8ab5dc	-0.01693242
196	0xbd4e9dc2	-0.05044342
197	0x3de0b025	0.10971097
198	0x3d64629e	0.05575811
199	0x3dd8eace	0.105916604
200	0xbd14c5ea	-0.036321558
201	0xbe066d64	-0.13127667
202	0xbda19332	-0.078894034
203	0x3d8ac41a	0.06775685
204	0x3b9a8930	0.004716061
205	0x3d0476ca	0.03233985
206	0xbcc923bb	-0.02455317
207	0x3d82400d	0.06359873
208	0xbd223572	-0.03960175
209	0x3d3a9962	0.045556433
210	0x3d77cea8	0.060499817
211	0x3d68670a	0.05673889
212	0x3c77abb2	0.015116619
213	0x3d89dabb	0.06731173
214	0xbd2484e3	-0.040165793
215	0xbdc2237d	-0.09479425
216	0xbd0fd050	-0.03511077
217	0xbc76914a	-0.015049288
218	0x3d2b1aa7	0.041773465
219	0x3d8adc6f	0.067803256
220	0x3c1ed772	0.009694921
221	0xbd33734e	-0.043811135
222	0x3cb20ef1	0.02173564
223	0xbd211b71	-0.03933281
224	0x3c4d6f96	0.012538811
225	0xbbe8e638	-0.0071075223
226	0x3c3295e5	0.010899995
227	0xbd03294c	-0.032021806
228	0xbd3bbf16	-0.04583653
229	0x3d95b2b6	0.07309477
230	0xbdb1eff7	-0.08688348
231	0x3cd2012f	0.02563533
232	0xbd0f4b2a	-0.03498379
233	0x3d1ae379	0.03781459
234	0xbd239550	-0.039937317
235	0x3d92b420	0.07163262
236	0x3d14af81	0.036300186
237	0x3d767ca0	0.060177445
238	0x3e4ed2e5	0.20197637
239	0x3d5f7368	0.05455342
240	0x3d9ceea6	0.07662706
241	0xbd69e5be	-0.057103865
242	0x3dbfd7de	0.09367345
243	0x3d12b6ae	0.03581875
244	0x3de3f025	0.11129788
245	0xbd9e42d5	-0.07727591
246	0x3de224c8	0.11042172
247	0xbd1eee7b	-0.03880165
248	0x3dcac787	0.09901338
249	0x3ce6095a	0.028080631
250	0xbda7afc3	-0.08187821
251	0x3d7ba0ad	0.06143253
252	0x3b1f0a32	0.0024267551
253	0xbd2aaf1b	-0.0416709
254	0x3dd80d70	0.10549438
255	0xbd1496bb	-0.03627656

network_body._body_endoder.seq_layers.0.weight f4 [256, 18]
0	0xbddbae05	-0.10726551
1	0x3d66f898	0.05638942
2	0x3d9b60d0	0.07586825
3	0xbd958973	-0.07301607
4	0xbe0823c8	-0.132949
5	0x3eb5c915	0.35504976
6	0x3e51eeea	0.20501295
7	0xbe012843	-0.12613015
8	0xbe398dee	-0.18120548
9	0xbea11a73	-0.31465492
10	0xbd5c388e	-0.053764872
11	0x3e84da5d	0.25947848
12	0x3e7e1ab9	0.24814881
13	0xbea10ce2	-0.3145514
14	0xbea5317d	-0.3226432
15	0x3d149c6c	0.036281988
16	0x3cb3c36e	0.021943774
17	0xbc2fd3b5	-0.010731627
18	0x3d0c27b1	0.03421754
19	0xbe2ff90f	-0.17184852
20	0x3f15a7ee	0.58459365
21	0xbca845c9	-0.020541089
22	0xbe8e8d37	-0.27842113
23	0xbe8bbc50	-0.2729211
24	0x3e205841	0.15658666
25	0x3db1554e	0.08658849
26	0x3e1b40f6	0.151615
27	0x3ed41353	0.41420993
28	0x3b42af28	0.0029706452
29	0x3e24dff6	0.1610106
30	0xbe96ded9	-0.29466894
31	0xbed8b093	-0.42322215
32	0x3c553dcc	0.013015222
33	0x3eba4246	0.36378688
34	0xbd6ce144	-0.057832018
35	0x3d009958	0.03139624
36	0x3ec1e782	0.3787194
37	0xbd721640	-0.05910325
38	0x3c90a38d	0.017656112
39	0xbf3673b6	-0.7127031
40	0x3d235831	0.039879028
41	0xbe61553c	-0.2200517
42	0xbd6439b6	-0.0557191
43	0xbdd95a1d	-0.10612891
44	0x3e81b5aa	0.2533391
45	0x3f038487	0.51374096
46	0xbe8481cd	-0.2588028
47	0xbe72b544	-0.2370196
48	0xbd6d3253	-0.05790932
49	0xbdaef8d2	-0.085435525
50	0x3e690e63	0.22759394
51	0x3d8657f5	0.06559745
52	0x3ebad2b0	0.36488867
53	0x3e86debb	0.26341805
54	0x3f267f77	0.65038246
55	0x3e887b63	0.26656637
56	0xbf5a8497	-0.85358566
57	0x3e9b3104	0.30310833
58	0x3eccafe1	0.39977935
59	0xbc21a053	-0.009864884
60	0xbf307085	-0.6892169
61	0xbe28a482	-0.16469005
62	0x3e309bf0	0.17246985
63	0xbd3ebc20	-0.04656613
64	0x3d2782cd	0.040896226
65	0x3e3672ee	0.1781728
66	0xbe72a481	-0.23695566
67	0xbe4753ab	-0.1946551
68	0x3e8de896	0.2771651
69	0xbd0d4e39	-0.034498427
70	0xbe880778	-0.26568198
71	0x3e1f939d	0.15583654
72	0xbe98f593	-0.29874858
73	0x3d8600d2	0.06543125
74	0x3ee7f649	0.45305088
75	0xbe49cd8a	-0.19707313
76	0x3e4ef81d	0.20211835
77	0x3d17f76c	0.037101194
78	0x395e06a6	0.00021174047
79	0x3e5480c7	0.2075225
80	0x3e7180f0	0.23584342
81	0x3e20a0a6	0.15686283
82	0xbdf59fc2	-0.11993362
83	0xbd68b0fe	-0.056809418
84	0xbd80be2b	-0.06286272
85	0xbe2dcb2f	-0.1697204
86	0xbb7f2ea8	-0.0038937721
87	0x3d9d1bef	0.076713435
88	0x3e832f8a	0.25622207
89	0x3db3d62d	0.08781085
90	0xbe5a023a	-0.21289912
91	0xbd76b40d	-0.060230304
92	0xbecc971c	-0.39959037
93	0xbf175dc6	-0.5912746
94	0xbe6a2344	-0.22865015
95	0x3f28f8b5	0.66004497
96	0xbda65abd	-0.08122776
97	0xbd8702d5	-0.06592337
98	0xbf0fa2e5	-0.5610793
99	0xbd430ea7	-0.047621395
100	0xbd531c0d	-0.051540423
101	0xbe5246ec	-0.20534867
102	0xbd3a65b0	-0.045507133
103	0x3daec3fa	0.08533473
104	0x3c98eda7	0.018668009
105	0xbe406019	-0.18786658
106	0x3acf9b18	0.0015839068
107	0x3d667041	0.056259397
108	0x3dbfbbd1	0.09361995
109	0x3dee1453	0.1162497
110	0x3e1676a2	0.14693692
111	0x3e108cba	0.14116183
112	0x3f1384ab	0.5762431
113	0x3ecfbd8d	0.40574303
114	0x3d7c526a	0.061602034
115	0xbe6a4081	-0.22876169
116	0x3d40d051	0.047073666
117	0xbdf8f3eb	-0.12155899
118	0x3ba11e9f	0.0049169804
119	0x3f55618c	0.8335197
120	0x3f295e1c	0.66159225
121	0xbe0937f3	-0.13400249
122	0x3d019f22	0.0316459
123	0x3d925d51	0.07146705
124	0xbe6b0b27	-0.22953473
125	0x3e07c201	0.132576
126	0xbd9a528f	-0.07535278
127	0xbcd3bd74	-0.025847174
128	0x3edbc782	0.4292565
129	0xbe4a89c8	-0.19779122
130	0x3e3e8bcc	0.18608016
131	0x3eabc261	0.33546737
132	0x3ddd6d8b	0.10811909
133	0x3d6177e4	0.055045977
134	0xbe54a813	-0.2076724
135	0x3e8c9b93	0.27462444
136	0xbcc6390a	-0.02419712
137	0xbf10cc7d	-0.56562024
138	0x3dc98880	0.098404884
139	0xbef7ef5d	-0.48424807
140	0x3e071b1f	0.1319394
141	0x3dc50511	0.09620107
142	0x3e358ed4	0.17730266
143	0x3da3da2d	0.08000598
144	0xbed8b51c	-0.42325675
145	0x3e88af0f	0.2669606
146	0x3ebf3823	0.37347516
147	0x3ec62033	0.3869644
148	0x3c161736	0.009160807
149	0x3e9bd503	0.30435953
150	0xbed8e2ea	-0.42360622
151	0x3debf099	0.115205
152	0xbe850b75	-0.25985304
153	0xbe8d2f53	-0.27575168
154	0x3e7680b4	0.24072534
155	0xbc4f1be7	-0.01264093
156	0xbe116577	-0.14198862
157	0x3c99c5ab	0.018771013
158	0xbb085b26	-0.0020806282
159	0x3bb0531a	0.005381
160	0xbd070393	-0.032962393
161	0x3e78d5d5	0.2430032
162	0xbc7e1a31	-0.015509174
163	0xbd0f79c0	-0.03502822
164	0xbed39b28	-0.41329312
165	0x3ed16b7b	0.40902314
166	0xbe90e1d7	-0.28297302
167	0xbdbfe239	-0.093693204
168	0x3edea7d4	0.43487418
169	0x3e9988fb	0.2998732
170	0x3ef5a1f9	0.47975138
171	0xbdeea75e	-0.116530165
172	0x3ea50d6b	0.322368
173	0x3d0dba1f	0.034601327
174	0x3c87ca23	0.016575878
175	0x3e2c4087	0.1682149
176	0xbde56a67	-0.11201935
177	0x3cb5cf71	0.022193642
178	0x3ed6b6ec	0.41936433
179	0x3d89fb4b	0.067373835
180	0xbe103bf5	-0.14085372
181	0xbe65d9f2	-0.22446421
182	0xbed7cfa1	-0.42150596
183	0xbeb57f76	-0.35448807
184	0xbd656b11	-0.05601031
185	0xbed65d85	-0.41868225
186	0x3eb62967	0.35578462
187	0x3df68b11	0.120382436
188	0x3e84177f	0.25799176
189	0x3e2eb000	0.17059326
190	0xbdc3fd12	-0.09569754
191	0x3e9f5c18	0.3112495
192	0x3ec1c61a	0.37846452
193	0xbe11d7eb	-0.14242522
194	0xbe1667d7	-0.1468805
195	0x3e6c74bb	0.23091404
196	0xbc40daa4	-0.011770878
197	0xbe60d94b	-0.2195789
198	0x3ecd7807	0.40130636
199	0xbe5e1a53	-0.2168973
200	0x3e567080	0.20941353
201	0x3f10aaac	0.56510425
202	0xbec2733c	-0.37978542
203	0x3d83c652	0.06434311
204	0x3e4f9e10	0.2027514
205	0xbeaae441	-0.3337727
206	0xbda26ea5	-0.0793126
207	0xbf0bb728	-0.5457635
208	0xbc4e51cb	-0.012592743
209	0x3f015af6	0.5052942
210	0x3e4afd9b	0.19823305
211	0x3edb4b00	0.42830658
212	0xbe7c3da3	-0.24632888
213	0x3e8f8fd7	0.2803943
214	0xbdff4478	-0.12464231
215	0x3e8dba51	0.2768121
216	0xbf2cf38d	-0.6755913
217	0x3e1b860b	0.15187852
218	0xbdc85dc3	-0.09783509
219	0x3dee18b4	0.116258055
220	0x3e24e4f6	0.16102967
221	0x3f0517d3	0.5198948
222	0x3d82f785	0.06394867
223	0x3e25b2b8	0.16181457
224	0x3e0c7fd0	0.13720632
225	0x3e696249	0.22791399
226	0xbc87e035	-0.016586402
227	0xbe9fc81b	-0.31207356
228	0xbe15ff4e	-0.14648172
229	0x3e330952	0.17484024
230	0x3ebffde8	0.37498403
231	0xbe1e5789	-0.1546308
232	0x3e33ac10	0.17546105
233	0xbdedd9b2	-0.11613788
234	0x3ebea9e4	0.3723899
235	0x3e8c8e9c	0.27452552
236	0x3ec65240	0.38734627
237	0xbf0239ed	-0.5086964
238	0x3d9db467	0.07700425
239	0xbf0a01fc	-0.5390928
240	0xbe59d735	-0.21273501
241	0x3f1af9c7	0.6053738
242	0xbe6cc77b	-0.23122971
243	0xbd64f4cf	-0.05589753
244	0x3e969e33	0.2941757
245	0xbda6297e	-0.08113383
246	0xbb47cfff	-0.0030488966
247	0x3bfb342d	0.007666132
248	0xbee1ba00	-0.4408722
249	0xbe87b4a6	-0.2650501
250	0xbd620397	-0.055179205
251	0xbe4feb8f	-0.20304702
252	0x3ee5a53e	0.44852632
253	0x3e0a921a	0.13532296
254	0xbede2d97	-0.43394157
255	0xbe363933	-0.17795257

network_body._body_endoder.seq_layers.2.bias f4 [256]
0	0xbc866618	-0.016406104
1	0xbca0bc76	-0.019621115
2	0xbd238ea4	-0.039930955
3	0xbc73599a	-0.014852906
4	0xbc891468	-0.016733363
5	0xbbb3c415	-0.0054860213
6	0xbbf8cf84	-0.007593097
7	0xbba42568	-0.005009342
8	0xbca7d2ed	-0.02048632
9	0xbb1a3b23	-0.0023533783
10	0xbc3b29b3	-0.011423516
11	0xbc906cf5	-0.01763008
12	0x3c18189e	0.009283213
13	0xbbd2e8a7	-0.0064364257
14	0x3cbf4436	0.023347955
15	0xbca9f8d4	-0.020748533
16	0xbc0fdd3c	-0.008780774
17	0x3c97be91	0.018523486
18	0xbc43f0b2	-0.011959242
19	0x3c35d486	0.011098033
20	0x3b888b41	0.004166991
21	0xbc212121	-0.009834559
22	0xbc09d77e	-0.008413194
23	0x3ab64c0f	0.0013908165
24	0xba4549d1	-0.0007525953
25	0xbc2b9b39	-0.01047402
26	0xbcce437a	-0.02517866
27	0xbc86394e	-0.016384747
28	0xbc5129ea	-0.012766341
29	0x3b95e4c8	0.004574392
30	0xb8fd241a	-0.000120707045
31	0xbb81c265	-0.003959941
32	0xbca779ae	-0.020443764
33	0x3ca4cf5a	0.020118404
34	0x3c890f99	0.01673107
35	0xbba80751	-0.0051278253
36	0xbbbe7d1d	-0.0058132545
37	0xbbfbff62	-0.007690356
38	0x3c46c07c	0.012130853
39	0xbc49052e	-0.012269301
40	0xbb7090fa	-0.0036707507
41	0xbbd2b485	-0.006430211
42	0xbcd9eede	-0.026603159
43	0x3b99be28	0.004691858
44	0x3b85bc9e	0.004081323
45	0x3bfd0082	0.007721008
46	0xbc1f66c5	-0.009729092
47	0xbbbf3ab6	-0.0058358563
48	0x3c8bc9d6	0.017064016
49	0xbacbd035	-0.0015549721
50	0x3a25d9a2	0.00063266803
51	0x3c4e593c	0.012594517
52	0x3c91faca	0.01781978
53	0x3bb5c522	0.0055471817
54	0xbcf57d2f	-0.029966919
55	0xbc5642cc	-0.013077449
56	0x3bdebfcd	0.006797767
57	0x3c2685fa	0.010163778
58	0x3c7e874e	0.015535189
59	0x3ca13ee0	0.019683301
60	0xb9ca29b8	-0.00038559525
61	0x3cfe9d47	0.031080855
62	0xbd712bd6	-0.058879696
63	0xbc91d4bb	-0.017801633
64	0xbcb67e03	-0.022276884
65	0x3bbeff4e	0.0058287745
66	0xbc5855a4	-0.013204012
67	0x3ab1c24e	0.0013561936
68	0x3a3531b1	0.00069120066
69	0xbc9465c0	-0.018114924
70	0x3caae824	0.020862646
71	0x3b21d991	0.002469633
72	0xbb959bc2	-0.004565687
73	0x3b0cf69b	0.0021509293
74	0x3bc3a861	0.005971
75	0x3ab972a7	0.0014148549
76	0x3bf39f87	0.0074347886
77	0xbb92c7ac	-0.004479369
78	0xb6611e2a	-3.354517e-06
79	0x3b50de95	0.003187095
80	0x3bcb48e0	0.0062037557
81	0xbae2a2a2	-0.00172909
82	0xb9a7b2a6	-0.00031985826
83	0x3cb13f1c	0.021636538
84	0xbc993fed	-0.01870724
85	0xbbfa329e	-0.0076354286
86	0xbc370306	-0.011170154
87	0xbc80c846	-0.015720498
88	0x3c6fdad4	0.014639575
89	0xbba96daf	-0.005170546
90	0xbc1debc0	-0.009638727
91	0x3c70e1db	0.014702286
92	0x3bb1a2ad	0.005421004
93	0x3c382ff5	0.011241903
94	0xbce40f95	-0.027839461
95	0xbbf4ec2b	-0.0074744425
96	0xb9715067	-0.00023013503
97	0xbca6351e	-0.020289
98	0x3c7028c9	0.014658161
99	0xbc95f0fd	-0.018303389
100	0xbc4e341a	-0.012585664
101	0xbc2b420e	-0.01045276
102	0x3c836d75	0.016043404
103	0x3c16b53e	0.009198485
104	0x3ca5b97f	0.020230053
105	0x3c2a6a48	0.010401316
106	0xbca4552b	-0.020060143
107	0xbc4c4bff	-0.012469291
108	0xbc5d73bc	-0.013516363
109	0x3c2fa048	0.010719366
110	0xbb8a49e9	-0.0042202366
111	0xbc86c0fd	-0.016449446
112	0xbb8d120d	-0.0043051303
113	0x3ca56242	0.020188455
114	0xbbeb4b16	-0.007180582
115	0x3cd8e99b	0.02647858
116	0xbc809075	-0.015693882
117	0x381d7b44	3.7546517e-05
118	0x3bf267d6	0.007397632
119	0xbc0eaeff	-0.0087087145
120	0xbb948be4	-0.004533278
121	0xbc48948d	-0.0122424485
122	0x3b1b5296	0.0023700348
123	0xbc6f991a	-0.014623905
124	0xbadde246	-0.0016928397
125	0xbb8e9a97	-0.0043519246
126	0xbd087ee3	-0.033324134
127	0x3c4017db	0.011724438
128	0xbc6bf68e	-0.014402045
129	0x3cc6dabc	0.024274223
130	0xbd016dd1	-0.03159887
131	0x3cefa631	0.02925405
132	0x3bd3ee4d	0.0064676167
133	0x3c474a00	0.012163639
134	0x3bc6b2d1	0.006063797
135	0x3c9808b4	0.018558837
136	0xbc67c1c6	-0.01414532
137	0xbc9e6de3	-0.019339507
138	0xbcbdab0e	-0.023152854
139	0xbd3458fa	-0.044030167
140	0x3beaf38e	0.0071701473
141	0xbc70611b	-0.014671589
142	0x3ca0b420	0.01961714
143	0x3ae157bb	0.0017192283
144	0xbca45f9f	-0.020065127
145	0xbd2162fe	-0.039401047
146	0x3aaacaa0	0.0013030358
147	0xbbbd2848	-0.005772624
148	0xbcdd19b9	-0.026989805
149	0xbc0c4f84	-0.00856388
150	0x3cacaed7	0.021079464
151	0x3b6248a0	0.003452815
152	0x3c40761b	0.011746909
153	0x38f0aa87	0.00011475855
154	0xbc13dc18	-0.009024642
155	0x3c0305d8	0.007996999
156	0xbc6be286	-0.014397269
157	0xbca34c83	-0.019933945
158	0xbc90a6c2	-0.017657641
159	0xbbb2f123	-0.0054608746
160	0xbc3faadf	-0.011698454
161	0x3cc1a4a4	0.023638077
162	0x3ab2ed4d	0.0013651043
163	0xbc19fb7d	-0.009398338
164	0xbc7b0aec	-0.015322428
165	0xbc6aceaa	-0.014331499
166	0x3a7c5d05	0.0009626898
167	0xbc845d19	-0.016157674
168	0x3bdfc54e	0.0068289405
169	0x3852c9af	5.0255734e-05
170	0x3c51c2b1	0.012802766
171	0x39e1e151	0.00043083218
172	0x3bfaad7d	0.007650076
173	0x3bf3fc0d	0.0074458183
174	0xbba6c1cc	-0.0050890204
175	0xbc85cc20	-0.016332686
176	0xbc7c8ef0	-0.015414938
177	0xbccb5157	-0.02481906
178	0x3c24df71	0.010063038
179	0x3b2e1d69	0.0026567823
180	0x3c5901e8	0.013245083
181	0xbaa01d87	-0.0012215831
182	0x3a79ee7b	0.00095341326
183	0xbc04ff38	-0.0081174895
184	0xbc97ef9c	-0.018546872
185	0xbaf3bfdc	-0.0018596607
186	0xbb9e35ae	-0.0048281765
187	0xbbb913bf	-0.005648106
188	0xbcb1b63e	-0.021693345
189	0xbc668db3	-0.01407187
190	0x3b8e3acf	0.0043405066
191	0x3b6cfd28	0.0036161635
192	0xbbf82aa5	-0.007573443
193	0xbc2b01a3	-0.010437402
194	0x3b7b1592	0.0038312417
195	0xbc6170df	-0.013759821
196	0xbc4a9c7d	-0.012366411
197	0x3ca5f1fc	0.020256989
198	0xbaeedff2	-0.00182247
199	0xbc3df5ee	-0.011594279
200	0x3c1b5375	0.009480347
201	0xbcf3c3fa	-0.029756535
202	0xbc5c4674	-0.013444532
203	0xbb64ac89	-0.0034892878
204	0xbc566641	-0.013085903
205	0x3bddde82	0.0067709098
206	0xbc21def7	-0.009879819
207	0x3b8ca5fe	0.0042922487
208	0xbc1f626e	-0.009728057
209	0x3b94b50b	0.0045381836
210	0xbc74844f	-0.014924123
211	0x3c955a5f	0.018231569
212	0xbc24109e	-0.0100137275
213	0x3b1b4783	0.0023693747
214	0x3bdeb66c	0.0067966487
215	0xbbd54a5f	-0.00650911
216	0x3ca88ded	0.020575488
217	0xbaeeaf10	-0.0018210132
218	0xbd05c50b	-0.032658618
219	0x3bce3c7b	0.006293831
220	0x3b7d5642	0.003865615
221	0xbc3d03af	-0.011536523
222	0xbcaeab03	-0.02132178
223	0x3c1951e8	0.009357907
224	0x3c66c509	0.014085063
225	0xbcda7dd3	-0.026671326
226	0x3ae49fde	0.0017442664
227	0xbcc46f45	-0.023978839
228	0x3b6839c4	0.0035434822
229	0x3ba9debf	0.005184024
230	0xbb5f1c52	-0.003404398
231	0x3b830de7	0.00399946
232	0x3cf88fad	0.030341947
233	0x3c660ad6	0.014040669
234	0xbc44f219	-0.012020611
235	0x3adf2109	0.0017023395
236	0x3cf22401	0.029558184
237	0x3b008afb	0.0019614089
238	0x3c29ed0e	0.01037146
239	0xbc97bd3d	-0.018522853
240	0xbc4fa42e	-0.012673421
241	0xbc510bce	-0.012759162
242	0xbadaf9a7	-0.0016706482
243	0xbc73ce4a	-0.014880726
244	0xbc155bcb	-0.009116123
245	0x3ceefb96	0.0291727
246	0xbc85e1a1	-0.01634294
247	0xbbf27415	-0.007399092
248	0xbab10de2	-0.0013508166
249	0x3bf2ab03	0.00740564
250	0x3aac53d7	0.0013147545
251	0x3bcca26c	0.006244948
252	0xbd382129	-0.0449535
253	0xbcb97c02	-0.02264214
254	0x3c3fc926	0.011705672
255	0x3c1e03aa	0.009644428

network_body._body_endoder.seq_layers.2.weight f4 [256, 256]
0	0x3d93af00	0.07211113
1	0xbc830ec5	-0.015998254
2	0xbd92a752	-0.0716082
3	0xbd527627	-0.05138221
4	0x3bda8e43	0.006669791
5	0x3dcae1fc	0.09906384
6	0xbddba001	-0.10723878
7	0x3d900c40	0.070335865
8	0xbdc0b33c	-0.09409186
9	0x3d65150d	0.05592828
10	0xbd167617	-0.036733713
11	0x3d857fc9	0.06518514
12	0x3dcbb474	0.09946528
13	0x3c4e84de	0.01260492
14	0x3d595b14	0.053065374
15	0xbd0e9c5d	-0.03481709
16	0x3d091a1f	0.033472177
17	0xbde11cb6	-0.10991804
18	0xbdbf0938	-0.0932793
19	0x3cd3e048	0.025863782
20	0xbd0faba3	-0.035075795
21	0xbc0f890d	-0.008760703
22	0x3cd11a7e	0.025525328
23	0xbe1ed734	-0.15511781
24	0xbdc6e593	-0.097117566
25	0xbd658ba5	-0.05604138
26	0xbd1f754e	-0.03893023
27	0xbbaa5166	-0.0051976917
28	0xbd24a885	-0.040199775
29	0xbd3dea7b	-0.046366196
30	0xbda60d5b	-0.08108016
31	0xbc5ecc42	-0.013598504
32	0xbb74751d	-0.003730125
33	0xbd79629b	-0.060885053
34	0xbda614e1	-0.08109451
35	0xbce5dd81	-0.028059723
36	0xbdd8f9e0	-0.10594535
37	0x3a7da462	0.0009675679
38	0xbe0467d9	-0.1293024
39	0xbd91cf1c	-0.07119581
40	0x3d62d449	0.055378232
41	0xbe3bb790	-0.18331742
42	0xbbe1fc2b	-0.006896516
43	0x3dd526b0	0.1040777
44	0xbd7820f7	-0.060578313
45	0xbb64ee5d	-0.0034932115
46	0xbd04124a	-0.032244004
47	0xbda8090d	-0.08204851
48	0xbd77b21e	-0.0604726
49	0x3e23b780	0.15987968
50	0x3e2b4139	0.16724099
51	0x3e5652a1	0.20929958
52	0x3d7582ba	0.059939124
53	0xbc1ca964	-0.00956187
54	0x3ded4d41	0.11587001
55	0x3cdfed96	0.02733497
56	0xbdce2a8f	-0.10066711
57	0x3d1ff101	0.0390482
58	0xbd4e402d	-0.05035417
59	0x3d9f843e	0.07788895
60	0x3d30290a	0.043007888
61	0xbd3353a4	-0.043780938
62	0x3e6ff99e	0.23435065
63	0x3e7cd460	0.2469039
64	0x3dc188c7	0.09449916
65	0x3df024e1	0.11725784
66	0xbc45e6c3	-0.012078944
67	0xbd96278f	-0.07331764
68	0xbce3fa85	-0.027829418
69	0x3d917e08	0.07104117
70	0x3d9d4e51	0.07680953
71	0x3d535654	0.051596
72	0x3d408c86	0.047009014
73	0x3d5345fe	0.05158042
74	0x3cbedff0	0.023300141
75	0xbdd1e627	-0.10248976
76	0x3e3c2b67	0.18375932
77	0x3c75f02a	0.015010873
78	0xbde0311d	-0.109468676
79	0x3dcee557	0.10102337
80	0x386e534d	5.68212e-05
81	0xbb77be7e	-0.0037802751
82	0x3c399eeb	0.011329393
83	0xbd6a35cf	-0.057180222
84	0xbdeb8779	-0.11500449
85	0x3cbad6fb	0.022807589
86	0x3d8dcabd	0.06923435
87	0x3c39a1a4	0.011330042
88	0xbc70207b	-0.014656181
89	0x3b05032c	0.002029608
90	0xbd8885c5	-0.066661395
91	0xbc68b665	-0.0142036425
92	0x3b4bd836	0.0031104214
93	0xbdc2da71	-0.09514321
94	0xbdd13fd2	-0.10217251
95	0xbce931a7	-0.028466059
96	0x3dc87a2f	0.0978893
97	0xbd8ff427	-0.0702899
98	0x3d0f7b29	0.035029564
99	0x3dabe631	0.08393515
100	0xbdae6da5	-0.08517007
101	0x3db9740d	0.09055338
102	0xbd40c2d6	-0.04706081
103	0x3d0322ba	0.03201554
104	0xbd54d905	-0.05196478
105	0x3d8df5c5	0.069316424
106	0xbd62011d	-0.055176843
107	0xbe021fea	-0.12707487
108	0xbd6754f5	-0.056477506
109	0xbd618f3d	-0.055068243
110	0xbc8ef559	-0.017450975
111	0x3daa77e2	0.08323647
112	0x3dcc4a32	0.09975089
113	0x3d9b0a1c	0.075702876
114	0xbcf43e1a	-0.029814769
115	0xbe1ac43b	-0.15113918
116	0x3caef724	0.02135808
117	0x3d1108e1	0.03540886
118	0xbdd984ff	-0.1062107
119	0x3e329f9b	0.17443697
120	0x3dcfb6cf	0.1014229
121	0x3d8a6629	0.06757767
122	0xbd894970	-0.0670346
123	0x3d0617c4	0.03273751
124	0x3c3a768c	0.011380803
125	0xbd098b6f	-0.03358024
126	0x3d2ed3c4	0.042682424
127	0x3e05e5c4	0.1307593
128	0xbdcebf26	-0.100950524
129	0xbcee8acb	-0.029118916
130	0xbcb7719f	-0.022393046
131	0x3dd44871	0.103653796
132	0x3d5620ad	0.052277256
133	0x3d5aa528	0.05338016
134	0x3c3c5f26	0.0114972945
135	0xbcc3bbe1	-0.023893299
136	0xbcc384be	-0.023867007
137	0xbdab5192	-0.08365168
138	0x3dc32250	0.09528029
139	0x3d8f136b	0.069861256
140	0xbce71d1e	-0.028212126
141	0xbdda2382	-0.10651304
142	0x3e1558fe	0.14584729
143	0xbd850eab	-0.06496938
144	0x3e100fc2	0.14068511
145	0x3c348bf0	0.011019692
146	0xbc3abfca	-0.011398265
147	0x3c7513ee	0.014958365
148	0xbd950d32	-0.072779074
149	0x3d3938e1	0.04522026
150	0xbd88c212	-0.06677641
151	0x3e47a195	0.19495232
152	0xbb66dc90	-0.003522668
153	0x3d2987b8	0.041389197
154	0x3df46e41	0.11935092
155	0xbc6010bf	-0.013675868
156	0x3c58866a	0.013215641
157	0x3d7d6aed	0.06186955
158	0xbe1719c9	-0.1475593
159	0x3d882290	0.06647217
160	0xbbc5e4dc	-0.006039245
161	0x3de4d8c5	0.11174158
162	0xbd5ae1ed	-0.053438116
163	0xbd39b329	-0.045336876
164	0xbbd44baf	-0.0064787487
165	0xbc9f9042	-0.019477967
166	0xbdd371c5	-0.10324434
167	0xbe442b80	-0.19157219
168	0xbdb5e851	-0.088822015
169	0xbdfd8fc1	-0.123809345
170	0x3d2a98f7	0.041649785
171	0xba7d9200	-0.000967294
172	0xbdef488f	-0.11683761
173	0xbd5b9f9b	-0.05361901
174	0xbd692bbb	-0.05692647
175	0x3b43a252	0.002985139
176	0x3d16b68e	0.03679519
177	0xbc9a4c9d	-0.01883536
178	0xbd80d1ae	-0.06289993
179	0x3d711a4c	0.05886297
180	0x3dd2f187	0.10299974
181	0x3dff1acc	0.12456283
182	0x3d560204	0.052248016
183	0xbcafe5e6	-0.021471929
184	0xbd77a7f5	-0.06046291
185	0xbca5c547	-0.02023567
186	0xbd1687f9	-0.036750767
187	0x3d30f145	0.043198843
188	0x3d9b683c	0.075882405
189	0x3d519415	0.051166613
190	0xbc9a9a90	-0.01887253
191	0x3d9c9a72	0.076466456
192	0x3c86c47c	0.016451113
193	0x3d5a8545	0.053349752
194	0x3d1f4b97	0.038890447
195	0x3d96d326	0.07364492
196	0xbd4bdf42	-0.049773462
197	0x3d530067	0.051514056
198	0xbd912dfa	-0.070888475
199	0xbd30df4e	-0.04318171
200	0xbd1a3fe5	-0.03765859
201	0xbba6f2a5	-0.0050948435
202	0x3cc9e1b3	0.024643755
203	0xbd8c9f56	-0.068663284
204	0xbb14ecf9	-0.0022724255
205	0x3ddbc26a	0.10730441
206	0xba771d6a	-0.0009426685
207	0xbc5f7d5d	-0.013640729
208	0x3d17e348	0.037081987
209	0x3d2ae25f	0.04171979
210	0x3de74dc4	0.112941295
211	0x3cc43985	0.023953209
212	0xbc448ab0	-0.011995956
213	0xbd24a0e3	-0.040192496
214	0x3d4328ef	0.04764646
215	0xbcb79eea	-0.022414643
216	0xbd3427ab	-0.043983143
217	0x3d02ada4	0.031903878
218	0x3ca51221	0.020150246
219	0xbe4aad3f	-0.1979265
220	0x3ccc5238	0.024941549
221	0x3dbd4cd2	0.09243168
222	0x3e13471d	0.14382596
223	0x3df359a3	0.11882331
224	0xbddbb2f4	-0.10727492
225	0xb9c1d3a2	-0.00036969507
226	0xbc451b99	-0.012030506
227	0xbd88e68c	-0.06684598
228	0xbde0bbbb	-0.10973307
229	0xbd12e830	-0.035865963
230	0xbd981e78	-0.074276865
231	0x3db5f618	0.08884829
232	0x3d4a84df	0.049443122
233	0x3db11194	0.08645931
234	0x3d488e6b	0.048963945
235	0xbd3959e5	-0.045251746
236	0x3e444436	0.19166645
237	0x3d98cdd6	0.07461135
238	0x3e8cc51f	0.2749414
239	0xbde2b241	-0.110691555
240	0xbd948c72	-0.0725335
241	0xbd90b69e	-0.070660815
242	0xbddb4dfc	-0.10708234
243	0x3d2d5032	0.04231281
244	0x3e3b218c	0.18274516
245	0x3d35c0cf	0.04437333
246	0x3d82ee48	0.06393105
247	0xbce57993	-0.028012073
248	0x3d555b86	0.052089237
249	0xbd2a13af	-0.041522678
250	0xbd8e411b	-0.06946012
251	0x3c043057	0.008068166
252	0x3ccb7fc0	0.02484119
253	0xbc39f3eb	-0.0113496585
254	0x3daae5a0	0.08344579
255	0x3cb1f160	0.021721542
