Assets/6. Results/F_Staff_Stage3_V4.onnx (onnx, 294880 bytes, 9 tensors)

action_model._discrete_distribution.branches.0.bias f4 [2]
000000 fd 9d 05 bd 14 9e 05 3d
       -0.032621372 0.03262146

action_model._discrete_distribution.branches.0.weight f4 [2, 256]
000000 94 42 83 3c 00 76 c1 3c 76 94 a5 3d 01 0c fd 3b
       0.016022958 0.023615837 0.08084957 0.0077223782
000010 31 30 87 3c fc 65 e6 bc db 7a 43 bc 82 55 0a 3e
       0.016502472 -0.028124802 -0.0119311465 0.13509181
000020 27 f0 80 3d f1 cd 7a 3c 33 c5 63 3b 4f 89 37 be
       0.062958054 0.015307889 0.003475499 -0.17923473
000030 ba 76 41 3d 53 2f 40 3c ab c5 16 bb 31 8c 7d 3c
       0.047232367 0.011730033 -0.0023006003 0.015475319
000040 c8 8b bb 3d 76 2e a1 3c 1e 21 99 bb 80 53 98 3c
       0.091575205 0.019675475 -0.0046731373 0.018594503
000050 a6 99 f6 3c 9f 40 69 bb 31 25 58 3b 2a 2c 8e 3b
       0.030102562 -0.0035591496 0.0032981152 0.004338761
000060 f1 2a 06 bd 89 16 51 3c 01 d7 29 be 9c 44 99 3b
       -0.032755796 0.01276172 -0.16585924 0.0046773683
000070 dd f2 39 3b d2 e3 8b bb 01 af dc bc a8 73 9b 3d
       0.0028373518 -0.0042691017 -0.026938917 0.07590419
000080 ea 96 ac 3b 2a ac 87 bb 08 3a 9c bd f3 9a 60 3b
       0.005267014 -0.0041403966 -0.07628256 0.0034272044
000090 d8 d4 59 3c 36 a9 f7 bb 85 8e 36 bd af 51 dc bc
       0.013295375 -0.0075580133 -0.04456951 -0.026894419
0000a0 7f 2e d3 bc cc 50 73 3c bc 27 f9 bd 1c 60 00 bc
       -0.025779007 0.014850806 -0.12165782 -0.007835414
0000b0 fc 4a 07 3d 71 5a 8a 3c c6 0d a7 3d 20 10 b2 3c
       0.033030495 0.016888829 0.08156924 0.021736205
0000c0 90 5a 84 bd 62 ff 83 bc 96 aa aa 3a 29 28 8c 3d
       -0.06462586 -0.016112987 0.0013020809 0.068435974
0000d0 ce ae 8b 3d 16 28 d5 3b 75 7e 65 3d 0c 08 e5 bd
       0.06820451 0.0065050228 0.056028802 -0.111831754
0000e0 73 a0 ac bc 7b a5 2d bc 36 28 9e bc 45 87 18 3d
       -0.021072602 -0.010598536 -0.019306283 0.037238378
0000f0 a1 1e 19 3c 82 cb 41 3d 3b c4 1b 3d 62 6f 36 bd
       0.009345681 0.04731322 0.038028937 -0.044539817
000100 9b 6c 3c bd 1d 7b 10 bb 27 b1 51 3c c6 bb 89 bd
       -0.04600201 -0.0022046037 0.012798584 -0.06725268
000110 ea ed 28 bd 8f 22 0f bd d7 b9 4d 3d 21 a0 82 3c
       -0.041242518 -0.034945067 0.05022606 0.015945496
000120 5b 3f 4b 3d f4 ee 91 3d 10 88 01 3d 80 f9 77 3d
       0.049620967 0.07125655 0.0316239 0.060540676
000130 2b 3d 13 3c 9c 98 07 3e bf 08 b5 3b 9e 2e cc 3d
       0.008986752 0.1324181 0.0055247243 0.09969829
000140 c4 2f e1 3d 58 3c 75 bc 09 98 e1 bb f8 f8 c5 bc
       0.10995439 -0.014968 -0.006884579 -0.02416657
000150 ea 5c 19 bc 54 85 f1 3d 1a df 2a 3c d5 b5 30 3b
       -0.009360531 0.117930084 0.010429168 0.002696385
000160 42 4f eb bd 23 51 8a 3d c7 e9 45 bd f0 cf 3e 3d
       -0.114897266 0.06753757 -0.04831865 0.046585023
000170 80 4a 93 bc dd 65 a6 3c 27 93 b3 3c fe 80 cc 3b
       -0.01797986 0.020312244 0.021920754 0.006240963
000180 37 75 b5 3d 27 85 a0 3c f9 90 33 bc 28 57 18 3d
       0.088602476 0.019594742 -0.010959857 0.037192494
000190 d9 da ab bb b9 64 46 bd 9e 08 de 3c 16 2b 0f 3d
       -0.0052445945 -0.0484359 0.027103718 0.0349532
0001a0 bd 56 db 3d fe 7e 2f bd a7 b2 d5 3c 58 84 c0 3c
       0.107099034 -0.04284572 0.026086165 0.023500606
0001b0 08 84 7f 3d 65 40 4b 3c 74 6f 97 3c 2e 5a a0 3d
       0.062381774 0.01240549 0.018485762 0.078297004
0001c0 29 e6 01 3e d2 fe 80 3c da 3f bd bd 17 a4 a1 3c
       0.12685455 0.015746508 -0.09240694 0.019731564
0001d0 23 fd a1 3b 47 5b 76 3b 26 19 b4 bc 38 ce 26 bd
       0.0049435063 0.0037591027 -0.021984648 -0.04072401
0001e0 8f 59 43 be f9 55 aa 3c 88 e6 03 3d 1e 54 11 3d
       -0.19077133 0.020792948 0.032202274 0.03548061
0001f0 55 c0 b3 3d d8 f5 61 3d ae 92 71 bb 04 73 99 bc
       0.08776919 0.055166095 -0.003686111 -0.018731602
000200 aa de 45 bc eb c4 60 3d 3b b1 01 3b 3e 2a 20 3d
       -0.012077013 0.054875296 0.0019789475 0.039102785
000210 bc 74 ab 3b 08 1b b5 3c 3f b7 36 3c 7f f6 a9 3d
       0.0052324217 0.022107616 0.011152088 0.082989685
000220 cf fc cc 3d 22 88 14 bd a7 5f da bc 12 8f f2 3a
       0.10009157 -0.03626264 -0.026656939 0.0018505773
000230 17 27 2b bd 7b cd e4 bb 18 9c b5 3b 43 1a 05 3c
       -0.041785326 -0.006982503 0.0055422895 0.008123937
000240 1a e5 c3 3c 0f 06 d6 3c b9 70 d6 bc 66 97 c2 bd
       0.023912955 0.026125936 -0.026176797 -0.09501533
000250 25 35 b5 ba e8 b7 e6 ba 82 22 ad bc dd 85 9e bd
       -0.0013825042 -0.0017602416 -0.021134619 -0.07740376
000260 2f cf 4f bc 24 0b 7a be 7c 3b 0c bc 2c f7 bd 3d
       -0.012683674 -0.24418312 -0.008559104 0.0927566
000270 16 3a 3b bd 7b 27 90 3a 6f ec 18 3d 4c d3 a4 bd
       -0.045709692 0.0010998094 0.037334856 -0.08048114
000280 f4 8b a8 3c 45 c5 60 be 1c da 86 3d ca 6e 8b 3d
       0.020574547 -0.21950252 0.0658457 0.06808241
000290 02 f0 a4 3b c2 1e bc bc 81 09 37 be aa ff 81 3d
       0.005033494 -0.022963885 -0.17874719 0.06347592
0002a0 4e e1 c9 3c 45 cc 5b 3d da 4b a6 3c 2c ba 5d 3d
       0.024643566 0.053661603 0.02029984 0.054132625
0002b0 23 37 aa bd fc 80 1e 3d f8 08 fa bc ed f9 92 bc
       -0.08311298 0.038697228 -0.030521855 -0.01794144
0002c0 ff 01 17 3d 35 86 83 bd 44 87 21 be d2 e9 8c 3c
       0.036867138 -0.06422082 -0.15774256 0.017201338
0002d0 f5 16 22 3d 20 97 aa bd 82 cc c7 3c 91 b5 07 3d
       0.039572675 -0.08329606 0.02438951 0.03313214
0002e0 d6 b3 19 be fa c6 74 3c 17 14 03 3d 4e ca 3d 3d
       -0.15010008 0.014940018 0.03200158 0.04633551
0002f0 3e 3c 08 3c 14 57 51 3d 9f 44 b8 bd 75 08 6f bd
       0.008315144 0.051108435 -0.089974634 -0.058357675
000300 fa 1e e0 bd 69 8e a1 3d 5b c6 20 3d df 5c 0e 3c
       -0.10943408 0.07888491 0.039251667 0.008689134
000310 b0 92 73 3d 47 ea a3 3c 51 26 53 3d 5e 71 af 3d
       0.059466064 0.020009173 0.051550213 0.08566545
000320 5d f4 17 3d 25 77 66 3c 16 1b 42 3d d5 7a 3e bd
       0.037098277 0.014066492 0.047389112 -0.04650386
000330 ac 70 b4 bc 7c da 3f 3c 74 b5 bd 3b ca 03 b5 bd
       -0.022026382 0.011709806 0.005789453 -0.08838613
000340 9f ed a1 3c a4 dc f2 bd b2 59 10 3d a2 de 10 3d
       0.019766627 -0.1185849 0.03524179 0.03536857
000350 0e 74 8d 3c 81 0f 3b be c6 7d b0 3b 18 4e 8a bd
       0.017267253 -0.18267633 0.005386087 -0.067531765
000360 f0 b5 4a 3b 56 dc 28 3c b3 9e cf bb 3e 4f 6b bd
       0.0030931197 0.010306438 -0.006336057 -0.057448618
000370 d4 b7 08 bd 04 b0 44 3d 42 31 c0 3c 13 fe 9b 3b
       -0.033378437 0.048019424 0.023460988 0.0047605126
000380 7d 1b 04 bc de 33 ce 3c ff 17 86 3d 79 9c 35 3c
       -0.008063194 0.025171217 0.06547546 0.011084669
000390 6b 5d d1 3b 44 ee 92 3d c0 35 25 3d 52 8b 4a 3d
       0.00638931 0.07174352 0.040334463 0.049449272
0003a0 99 9e 35 3c 02 de c8 bc 8d a2 40 3d e2 b4 70 bd
       0.011085176 -0.024519924 0.04703002 -0.058766253
0003b0 40 ef 5e 3c ce d0 48 3d 8d 73 3a bb 99 cc a4 bb
       0.013606846 0.049027257 -0.0028450221 -0.0050292728
0003c0 54 32 57 3d ed 12 7d 3d d5 ab ab bc 3b aa 31 bb
       0.05253823 0.061785627 -0.02095596 -0.0027109522
0003d0 14 df 6d bd 88 43 bd 3b 0a ae 12 bd 5b ee 80 3d
       -0.058074072 0.0057758726 -0.035810508 0.06295463
0003e0 f3 1b 10 3d 70 45 1b b9 2c aa e5 bc e0 8f a8 3a
       0.035182904 -0.0001480782 -0.028035246 0.0012860261
0003f0 33 24 30 be 61 c5 93 3b 6e 52 9b bc 57 5e f2 bd
       -0.17201309 0.0045096134 -0.018960204 -0.118344

action_model._discrete_distribution.branches.1.bias f4 [3]
000000 11 2d cc 3b 6b 37 9a 3c 60 d4 38 bd
       0.0062309583 0.018825253 -0.04512441

action_model._discrete_distribution.branches.1.weight f4 [3, 256]
000000 47 53 43 bd 07 01 ae 3b f6 ca cc 3c 27 0c 81 3c
       -0.04768684 0.005310181 0.024999123 0.015752865
000010 e7 12 9b bd 31 ea 87 bd 6b 4e 04 bd 7e b3 a6 bd
       -0.07571965 -0.06636465 -0.032301348 -0.08139704
000020 44 06 bc 3b 44 19 22 bc bf 86 18 bb 27 e9 47 3d
       0.0057380516 -0.009893719 -0.0023273674 0.048806336
000030 37 d1 50 bb 75 c8 ae bc 18 2f 87 3c 03 b7 9b bd
       -0.0031862983 -0.02133582 0.016501948 -0.07603266
000040 11 fe 28 be bd bb 8f bc 75 f6 17 3c 3a 9b 59 bd
       -0.16503169 -0.017545575 0.0092750685 -0.05312655
000050 43 e6 86 bd c3 f2 3f 3c 24 81 3b 3d f0 09 e3 bc
       -0.06586888 0.011715594 0.045777455 -0.0277147
000060 ab 8c 6a 3c 4f cf b9 3b 01 16 a7 3d 51 0d 3a bc
       0.014315764 0.005670465 0.08158494 -0.011355714
000070 23 e5 36 bd 0c 7e 17 3c 64 22 78 3c 09 34 32 3d
       -0.044652116 0.0092463605 0.015144918 0.043506656
000080 09 8e e9 bc 04 3d 8c bd 49 d2 a3 3d 8f ea 5d 3d
       -0.02851011 -0.06847575 0.07999093 0.05417877
000090 0a c9 3b 3b 47 15 a5 bc 49 69 49 3b 81 e0 0d be
       0.0028653764 -0.020151747 0.003073292 -0.13855173
0000a0 03 28 95 bc ba d8 83 bb 91 7f 78 3d 6f 92 e4 bc
       -0.018207556 -0.0040236386 0.06066853 -0.027901856
0000b0 f9 53 b1 bb ad 4b 80 bc 2a f6 87 bd 59 d9 cf 3b
       -0.0054116216 -0.015661085 -0.06638749 0.0063430485
0000c0 81 2f db 3d da 73 52 3b d2 78 a3 3c 88 75 11 bd
       0.1070242 0.003211251 0.019955073 -0.035512477
0000d0 68 f9 b9 bd 1d c0 68 3d a5 9a 91 3c 5d c8 02 be
       -0.090807736 0.05682384 0.017773936 -0.12771745
0000e0 e3 34 be 3b c1 ef 54 bd 78 39 2f 3c c0 d6 73 bd
       0.0058046444 -0.05198646 0.010694854 -0.059530973
0000f0 bd b3 a2 bc 56 3f d2 ba 13 3f 34 bd 6c 03 66 3d
       -0.019861097 -0.0016040604 -0.044005465 0.056155607
000100 81 99 52 3d 41 b2 ba ba 8a 25 9e bd 15 ca bb bd
       0.051415924 -0.0014243798 -0.07722004 -0.091694035
000110 9d 3f cd 3d 99 2a 84 bd a5 42 6d bd e3 75 6b bc
       0.10021899 -0.06453437 -0.057924885 -0.014371368
000120 7d ec 01 bd 5d 90 14 be 6b 5d 30 3d a9 3a e8 bc
       -0.031719673 -0.14508195 0.04305784 -0.028348284
000130 05 24 ab 3b e4 7d 8f bd e9 30 cd 3c 61 34 f0 bc
       0.0052227997 -0.070064336 0.025047736 -0.029321851
000140 1d 74 18 3a 66 98 ff 3b 4d 65 20 3c c4 fe 35 3d
       0.0005815642 0.0078001497 0.009789777 0.044432417
000150 b2 42 39 bd 13 69 2b be b0 84 3c be 82 4c 62 bd
       -0.04522962 -0.16739301 -0.18409991 -0.055248745
000160 6c a2 b3 bc 2c d9 db bd 90 e4 bf bd 3a b8 5f bd
       -0.021928035 -0.107347816 -0.09369767 -0.05461905
000170 62 99 f9 ba 88 79 0e 3c 33 4b d4 bb 21 79 1f bd
       -0.0019042904 0.0086959675 -0.006478691 -0.038933877
000180 63 a4 e7 bc 1f 63 80 bd 89 5d d6 bb 41 54 80 bc
       -0.028276628 -0.06268906 -0.006541912 -0.015665175
000190 1b 3b 64 bd 3e ca 23 bc 61 52 a1 bc 8d 95 25 3d
       -0.05572043 -0.009996949 -0.019692602 0.040425826
0001a0 31 7b 66 bd 6b 90 3d bd 53 fe 9e bc 40 14 01 3c
       -0.05626983 -0.046280306 -0.01940838 0.007878363
0001b0 73 87 12 bd cc fb 19 bb 92 e4 55 3b c6 64 b5 bd
       -0.035773706 -0.002349603 0.003263746 -0.08857112
0001c0 76 d9 d5 bd af d0 cf bc 71 9c 4d 3d c0 68 3d bd
       -0.10441868 -0.025368063 0.050198022 -0.046242476
0001d0 e9 4d ac 3c 5a bb d5 ba 02 b4 98 bd be 94 89 3c
       0.021033244 -0.0016306445 -0.07456209 0.016794559
0001e0 32 e0 0c 3d d2 b4 1b bd b4 7a 4a bc 5a 9f 25 bb
       0.034393497 -0.03801424 -0.012358356 -0.0025271983
0001f0 67 7d 0d be 95 06 0a 3d c8 9a d8 bd 1b df 82 3b
       -0.13817368 0.033697683 -0.10576397 0.0039938814
000200 df 72 3c 3d 66 78 ad bc f4 e2 e0 b9 00 99 80 bc
       0.046007987 -0.021175575 -0.00042893703 -0.015697956
000210 97 7a 26 bc b0 ea 48 bc 98 26 a2 3b 90 88 0c bc
       -0.010161064 -0.012262985 0.0049484484 -0.008577481
000220 65 e5 e7 bd 0b 70 06 3b 8a 8b 25 bd 11 7a 37 3d
       -0.113230504 0.002051356 -0.040416278 0.044794146
000230 b6 00 cd bd 77 25 7c bd 75 c3 59 bc 3f 47 91 3b
       -0.10009901 -0.061559167 -0.0132912295 0.004433542
000240 27 3b 86 bc d1 3b a5 bc 89 64 5e bd 2c c2 b2 3d
       -0.016385628 -0.020170124 -0.054295097 0.087284416
000250 0d e6 f0 bd 12 78 52 bc c1 e4 3c 3d bc 1a 96 3d
       -0.11762629 -0.01284601 0.046116594 0.07329318
000260 6f 8b 43 3c 9f 2d a4 3d 31 db 11 3d 2a cd fd bd
       0.011935099 0.08016514 0.035609428 -0.123926476
000270 d4 58 15 3c 43 d8 3e bb 4c f2 b6 3b f2 b5 92 bd
       0.009115417 -0.0029120601 0.0055830833 -0.071636096
000280 6c db 7e bc d6 1c 80 3d bf 9b 07 be 52 36 54 bc
       -0.015555244 0.062555 -0.13243006 -0.012952404
000290 f1 d7 86 bd d2 36 69 bc cb d5 86 3d e0 9e ab bd
       -0.06584156 -0.014234262 0.065837465 -0.083799124
0002a0 c8 c4 87 bd d6 0d 10 3d 27 50 8c bc cc 27 23 bd
       -0.0662933 0.035169445 -0.017128063 -0.039832875
0002b0 6c 83 ec 3c 13 89 2b 3d ae 01 93 3d 10 bf 78 3b
       0.02887126 0.04187877 0.07178055 0.003795568
0002c0 5c ac 02 bd 37 8c 5d 3b d5 62 51 3d 9c 60 76 3c
       -0.031902656 0.0033805498 0.051119644 0.015037682
0002d0 1d 32 c0 bd 93 94 53 bd 2e 10 8a bd 27 2c 06 bd
       -0.09384558 -0.051655363 -0.06741367 -0.03275695
0002e0 4c 8d d0 3d b0 1f 98 3c a4 8c 08 bb 73 28 62 3b
       0.101832 0.018569797 -0.0020835781 0.0034508973
0002f0 95 00 a5 3c 71 f3 54 3d d4 66 c2 3c 24 13 21 3e
       0.02014188 0.051989976 0.023730673 0.15729958
000300 49 16 cc 3d 27 78 f0 3c 6d 8d f7 bd 84 6c fd 3c
       0.09965188 0.029354168 -0.12087522 0.030935533
000310 2f ec 21 bd 2b 34 35 bb fb 0d b2 3c 80 35 cf bd
       -0.039531883 -0.0027649503 0.021735182 -0.10117626
000320 45 f4 2a bc 6b 6a 5f bc 94 2b 37 bd cb ff 86 bb
       -0.010434215 -0.013636212 -0.044719294 -0.0041198484
000330 9a 5a 8a bd 4b f3 ff bc 65 6c 7a bc 9e 5e fe bd
       -0.06755562 -0.03124394 -0.015284632 -0.124203905
000340 ac 14 aa bc 91 77 6b bc 92 c0 5b bc 4e 44 66 bd
       -0.02076181 -0.014371769 -0.013412612 -0.056217484
000350 88 a1 6c bd f3 78 50 3d f2 15 0e bc 7e 88 74 bc
       -0.057771236 0.050896596 -0.008672224 -0.01492512
000360 24 91 f9 bb 80 6d 96 bd 41 ec 27 3d 35 34 d8 3d
       -0.007616179 -0.07345104 0.040996794 0.10556833
000370 b3 9c b1 bd b0 84 68 bd bc 6b ab bc 46 63 b7 ba
       -0.08672466 -0.056767166 -0.020925395 -0.0013991378
000380 02 c0 6d ba 16 94 95 3d d9 04 d7 bd a5 b6 81 3b
       -0.0009069444 0.07303636 -0.104989715 0.0039585405
000390 f3 a4 55 ba 36 a3 e6 bc 69 43 1d 3e e7 ff 9e bd
       -0.00081498845 -0.028153997 0.15357746 -0.07763653
0003a0 0d f1 8d bc d0 23 ea bc d2 63 b8 bd 3d dc c9 3d
       -0.017326856 -0.02858153 -0.09003414 0.0985646
0003b0 32 b4 18 bc ff 19 c2 3b 8d 23 46 bd 81 fc 57 bd
       -0.009320306 0.005923509 -0.048373748 -0.05273104
0003c0 5d 4e 64 bc c7 b8 65 bb 71 ac 62 3a 25 22 fb 3b
       -0.013934699 -0.0035052763 0.00086469116 0.0076639825
0003d0 35 fe 61 bc ec 97 02 3d 50 f6 06 3a d7 ee 26 bd
       -0.013793518 0.031883165 0.0005148398 -0.04075512
0003e0 73 47 5e bc 9a 9f bc bd 6a 96 69 3d b2 1a 9f 3b
       -0.0135668395 -0.09210129 0.05702821 0.0048554773
0003f0 ef 67 29 3d 56 ee 93 bd 18 ee 65 3a 2f da 7c 3c
       0.041358884 -0.07223193 0.00087711355 0.015432878

discrete_action_output_shape f4 [1, 2]
000000 00 00 00 40 00 00 40 40
       2.0 3.0

network_body._body_endoder.seq_layers.0.bias f4 [256]
000000 bb 66 2b 3d b4 a0 58 3d 87 7c 61 bd 31 f8 8a bd
       0.04184602 0.052887633 -0.0550504 -0.0678562
000010 e3 2c 4e bd 0e e8 47 bd 02 06 a7 bd e0 5a 01 3e
       -0.050335776 -0.04880529 -0.08155443 0.12632322
000020 e3 f5 ca 3c 95 32 27 3d d2 ac 65 3d e2 78 f7 bc
       0.024775451 0.040819723 0.056073017 -0.030209009
000030 46 58 8e 3d 89 26 d5 3c f7 8d 4d bd 81 05 6c bd
       0.069504306 0.026019352 -0.050184216 -0.057622436
000040 78 32 f0 3c 30 4b 83 bd e5 a6 83 bd 5d 95 8e bc
       0.02932094 -0.06410825 -0.06428317 -0.017405206
000050 cb 33 90 3d 31 a1 7b bc ff 3c c2 3d f2 a8 d5 3b
       0.07041129 -0.015358255 0.0948429 0.006520384
000060 43 33 a5 bb cc 41 a0 bd 0d 23 1c bd e6 de 2a 3c
       -0.0050415113 -0.0782505 -0.038119365 0.01042912
000070 5b df 96 3c ed 24 9a bd 4b 9c 13 bd 09 21 ba 3d
       0.018417051 -0.07526574 -0.036037724 0.09088332
000080 63 3b 08 3d 8a 52 e2 3b 64 01 0b 3d e6 37 ed bd
       0.03325976 0.006906812 0.033936873 -0.115829274
000090 54 a6 ad 3b 33 2f 05 3e cb 4d a2 bc 9f b4 b6 bc
       0.005299369 0.13006286 -0.019812485 -0.022302924
0000a0 65 0e 82 3d 44 18 23 3c 1e cf 8f bd 92 7d 66 3c
       0.06350402 0.009954516 -0.07021926 0.014068024
0000b0 45 e0 7b bc a2 dc fd bc e4 3e 66 bd 13 e2 46 bd
       -0.015373294 -0.030988995 -0.05621232 -0.048555445
0000c0 40 e9 39 3d a7 66 79 3d c4 79 92 3c 6b 9f ab bb
       0.04538846 0.060888913 0.017880328 -0.00523751
0000d0 fb 77 8c bd 19 4a 26 3d 97 30 db 3d 10 a6 ac ba
       -0.06858822 0.04059801 0.10702627 -0.0013172049
0000e0 fc 9e 95 3d bb 97 34 3d ec 29 66 3d db 59 2e bd
       0.073057145 0.044090014 0.056192324 -0.04256616
0000f0 43 e3 15 3d 8f a8 14 bb be c1 98 3d 8a f1 5b 3c
       0.036593687 -0.0022683477 0.074588284 0.013424287
000100 b1 3c 0a 3c 5e 2e 07 3c d0 82 85 3c 93 8d 91 3d
       0.0084373215 0.008250801 0.016297728 0.07107081
000110 67 d4 93 3d ab 09 7a bd 3c be c7 bb 76 f4 ac 3c
       0.07218247 -0.061044376 -0.0060956758 0.021112662
000120 b4 ac a4 bd 0d 39 02 3c e9 74 13 bd cc 08 d0 3d
       -0.08040753 0.007948172 -0.036000166 0.10157928
000130 bf 08 33 bd 36 df 62 bd 87 a3 cc 3d 46 39 1a bd
       -0.043709513 -0.05538865 0.09992128 -0.037652276
000140 c4 bf 28 3d 36 c7 58 3c 1b a7 30 bd b0 a5 25 3d
       0.041198507 0.013231089 -0.043128114 0.040441215
000150 6c 90 dc bc 42 8c 77 3d 51 00 a8 bc b0 8b 81 3d
       -0.026924334 0.060436495 -0.020507963 0.063254714
000160 fa 4c 2a 3d b4 75 12 bc 12 44 f6 bc 84 86 85 3d
       0.041577317 -0.008939195 -0.030061755 0.065197974
000170 6c f4 cd bc 6d 12 14 bd dc e5 07 bd 0d 30 25 3d
       -0.025140963 -0.036150385 -0.033178195 0.040329028
000180 dc b4 7f 3d 53 ac 19 3e 92 b8 26 3c d1 b5 90 3d
       0.06242834 0.15007143 0.010175841 0.07065929
000190 b5 9b 47 bc a4 52 28 bd 05 31 85 3d b3 ec e9 3c
       -0.01218312 -0.041094437 0.0650349 0.02855525
0001a0 0e 1d 4c 3d bb 70 be bc 17 fc 86 bd 51 a4 18 bd
       0.049832396 -0.023247113 -0.06591051 -0.03726608
0001b0 f7 4c 06 3d 45 ad 37 3d 34 a5 91 3c 55 bb e4 3a
       0.032788243 0.044842977 0.01777897 0.0017450849
0001c0 96 5a 63 3c 0a 2e 1e 3c fd eb 50 bd 54 d3 4c 3d
       0.013876578 0.009654531 -0.051006306 0.050006226
0001d0 fa e4 be 3d 3e 91 b0 3d 74 0e 8e bd 7f b0 5d 3d
       0.093210176 0.08621453 -0.069363505 0.054123398
0001e0 1f a3 9d bd 46 e1 40 bd 10 38 8c 39 47 97 b6 bc
       -0.076971285 -0.047089837 0.0002674465 -0.022288932
0001f0 27 bf 2c 3d 5a 5f 4e 3d 1e 8a a2 bd c0 83 d5 3a
       0.042174485 0.050383903 -0.079365 0.0016289875
000200 0d 85 d8 3c b6 c2 9f bc ba 05 37 bd e3 ec dd 3c
       0.026430631 -0.019502025 -0.044683196 0.027090495
000210 e9 5c a7 ba 72 2a 99 3d 61 e2 82 bc 0e 09 cb 3d
       -0.0012768778 0.07478799 -0.015977086 0.099138364
000220 63 30 99 3d ec dd 9d bd ea ef 98 3c 37 b4 8d 3d
       0.07479932 -0.07708344 0.018669087 0.06919139
000230 a2 23 8b bd 66 38 f9 3b a1 a9 0a 3d 70 6a a6 bc
       -0.06793906 0.0076056 0.033853177 -0.020314425
000240 c0 2a bd 3c d2 59 98 bd 6d 56 a7 3d 21 83 81 3d
       0.023091674 -0.07439007 0.08170781 0.06323839
000250 2f 22 15 3c 05 31 fb bc 8b 3a 94 bd bc 41 9d bc
       0.009102388 -0.030663023 -0.07237729 -0.019196384
000260 93 e2 06 bd 9a 78 85 bd 5b f6 0e bd 2c 4d 37 3e
       -0.03293092 -0.065171435 -0.03490291 0.17900532
000270 69 01 fc bc 2d c8 f4 b9 0b a5 7a 3d f9 e2 4d 3c
       -0.030762391 -0.0004668845 0.061192553 0.0125663215
000280 2c fa c5 bc f2 fd 25 bc b8 cc 43 bd c9 b7 9a bd
       -0.024167143 -0.010131346 -0.047802657 -0.075545855
000290 be 38 ed 3c 5c cd 81 3c 72 8f 8e bd cf 5f c5 3b
       0.02895772 0.015844993 -0.06960954 0.006023384
0002a0 b5 a1 53 3d 0c 03 0d 3d 53 d9 7f 3d d9 60 29 3d
       0.051667888 0.034426734 0.062463116 0.041352127
0002b0 5c dc 62 3d 5c 1c 70 3d 9a 68 b8 3c c7 ed fb 3d
       0.055385932 0.058620796 0.022510815 0.12301212
0002c0 98 c6 4a bc 61 4f 20 3d 77 1f 32 bd e3 7a 72 bd
       -0.01237645 0.0391382 -0.04348704 -0.059199225
0002d0 bf a8 89 bd 9f ce 9f bc 59 9f 87 3d e1 ba 42 3d
       -0.06721639 -0.019507704 0.0662219 0.047541503
0002e0 4f d2 da bc 66 6c 36 bc c0 1e 5e 3d 7b f7 a9 3c
       -0.026711611 -0.011134243 0.054228544 0.02074789
0002f0 41 aa cb 3c ae 6c c8 bc b6 87 19 3c ff fc fc 3c
       0.024861457 -0.024465885 0.009370735 0.030882357
000300 7c 90 d5 3c 75 60 2e 3d bb b3 7e bd 11 6f 97 3d
       0.026069872 0.042572457 -0.062183123 0.07394231
000310 be 86 a7 bc 98 92 96 bd c9 7d 78 3c ed a5 c7 3b
       -0.020449992 -0.07352179 0.015166708 0.006092778
000320 e0 ea e8 3c 92 01 7f 3d 89 97 bd 3b 42 4c 68 bd
       0.02843231 0.062257357 0.0057858867 -0.05671335
000330 bd 88 46 3d 3e d5 66 bd db 41 e7 3c da 93 8e 3d
       0.048470248 -0.056355707 0.028229645 0.06961794
000340 a9 31 5e bc 11 0e d2 bd 0b 57 be bd 2a ba 84 3a
       -0.013561645 -0.10256589 -0.09293946 0.0010126282
000350 94 30 2c 3d 0b f4 0a 3d 80 c3 1c 3d 69 4c 45 3d
       0.042038515 0.033924144 0.03827238 0.048168574
000360 c8 e0 c5 3d d7 7c b0 bd 2a 11 ac bd b7 3b 97 3d
       0.09662014 -0.08617561 -0.08401711 0.073844366
000370 d6 97 c7 3c d6 31 6e bd 0e de 2f bc ff 20 b1 3c
       0.024364393 -0.058152996 -0.010734094 0.02162218
000380 4b 04 12 bc 72 51 1d 3d 85 85 f5 3c 76 4d 40 bd
       -0.008912156 0.03840775 0.029970894 -0.046948873
000390 0d 9b 08 3d 2e 9f 21 bb 9d 5c 18 3c 7e 73 90 3d
       0.033350993 -0.002466153 0.0092994245 0.070532784
0003a0 62 3a 12 3d 85 b5 ab bd f7 eb e3 3d cb 42 ef 3c
       0.03570021 -0.083842315 0.11128991 0.029206654
0003b0 0c 6d b0 bd 70 eb 91 bb 44 fc 9b 3b c2 ea 23 3c
       -0.08614549 -0.004453115 0.004760297 0.010004701
0003c0 e2 75 a4 3d e0 dc 0d 3e 80 c1 1d 3d 43 ab 1a bb
       0.08030297 0.13853788 0.038514614 -0.0023600615
0003d0 43 67 a2 3c 90 8f 02 3d e1 44 94 3b fe 25 92 bd
       0.01982463 0.031875193 0.0045248126 -0.07136153
0003e0 f8 89 be bd 4e 51 0e bd 15 82 38 bc 10 06 72 bc
       -0.09303659 -0.034745507 -0.011261483 -0.014771953
0003f0 6e 4a 9a 3c 5e a5 90 3d 89 ab ec 3c 99 c8 c1 bd
       0.018834319 0.07062791 0.028890388 -0.09462089

network_body._body_endoder.seq_layers.0.weight f4 [256, 22]
000000 20 4f f0 3d ae 58 82 be 1c d3 19 be 41 e0 1e bf
       0.11733842 -0.25458282 -0.15021938 -0.62060934
000010 d7 f2 a4 bd 00 63 6e 3e 03 58 1c be d8 34 7e bd
       -0.080541305 0.23279953 -0.15267949 -0.062062114
000020 17 3c 59 be 2e e1 9f 3c 34 f8 2c bd 76 01 19 3f
       -0.21214329 0.019516554 -0.042228892 0.59767854
000030 bf 42 03 3d 2f 15 4e be f4 f3 a0 be bd 6f 15 3d
       0.032046076 -0.20125268 -0.3143612 0.036483515
000040 f5 3e 68 39 b3 d2 3c bd 05 b9 e9 3c b5 f8 28 bd
       0.00022148697 -0.046099376 0.028530607 -0.04125281
000050 e0 71 6c 3d b2 b9 67 bd 53 45 2f 3e 49 12 8e bd
       0.057725787 -0.056573577 0.17116289 -0.06937081
000060 50 45 5f 3e 6c 77 c5 3e 76 c6 0c 3b 78 a6 cf 3e
       0.21803784 0.38567674 0.0021480597 0.40556693
000070 8e ff dc be 82 f9 95 bd 2e 78 a3 3e 64 52 3a 3e
       -0.43163723 -0.073229805 0.31927627 0.18195492
000080 9d 30 6f be a8 e0 c3 3d 59 80 34 bf 8f 8b 36 be
       -0.23358388 0.09564334 -0.70508343 -0.17826675
000090 bb 30 78 3d c9 86 c1 be 45 c0 be be 2a b3 49 be
       0.060593348 -0.37798145 -0.37256065 -0.19697252
0000a0 b5 2d 2f be b1 dd 1e bd f2 c1 54 be a0 0e de 3c
       -0.1710728 -0.03878564 -0.2077711 0.027106583
0000b0 1a 85 a5 3e 03 b0 c6 bc 4a 35 82 be 7d 30 eb be
       0.3232811 -0.02425385 -0.2543128 -0.4593543
0000c0 aa b4 65 3e c2 87 95 be 83 37 32 bd ac 4f b2 3e
       0.22432199 -0.29205137 -0.04350997 0.3482641
0000d0 0f e5 8a 3e 8c 9d 11 be 93 5f ab 3c 1c 3e 0f bc
       0.27127883 -0.14220256 0.020919597 -0.008742835
0000e0 ef 5e eb 3d 70 4e ef bd 0a 20 43 bd 8f 01 ac bd
       0.114927165 -0.11684883 -0.047637977 -0.08398735
0000f0 f6 51 17 bb 4f b5 50 3d 82 fc a0 3d d5 b1 98 bd
       -0.0023089624 0.05095416 0.07860662 -0.07455794
000100 4d b4 7d be 8f d4 e6 3d a8 86 ce bc 9f 6b 8b be
       -0.2477581 0.11271011 -0.025210693 -0.27230546
000110 c6 3a ad bd dd d5 79 bd a2 96 1c 3f 40 cb da 3d
       -0.08458476 -0.06099497 0.6116735 0.10683298
000120 b8 5f 66 be 36 5e 74 be 4d 8d 35 3e 9f 5c de be
       -0.22497451 -0.23864064 0.17729683 -0.4343004
000130 10 26 34 be 4e 91 1c 3e 0b 2e bc be 75 ac d9 3d
       -0.17592645 0.15289804 -0.36753878 0.10628597
000140 a3 72 89 3d 40 72 99 be f1 45 98 be 7a f9 9c 3e
       0.06711318 -0.29969978 -0.2974086 0.30659086
000150 36 90 22 be aa d2 8d be bb c9 8d be c8 d8 9e 3d
       -0.15875325 -0.27699786 -0.2769297 0.077561915
000160 b4 bb 0e bc a0 78 03 3d d7 f2 ec be fd fa f4 3c
       -0.008711744 0.03209746 -0.46279022 0.029904837
000170 6e f9 9f 3d 09 51 cf be 7a c9 00 3f ae bd 15 3d
       0.07811247 -0.40491512 0.5030743 0.036557846
000180 d2 79 25 bd 80 b4 d6 3d ca 36 19 be 34 6b a6 bd
       -0.04039938 0.104836464 -0.14962307 -0.08125916
000190 e1 fd 7f bd 54 f6 8a be 35 7d 51 3e 81 c3 ef 3e
       -0.062497977 -0.27141058 0.20457919 0.46828845
0001a0 2b b3 4c 3c 11 12 a7 3d 80 c6 78 be 40 9a 0b be
       0.012493889 0.08157743 -0.24294472 -0.1363306
0001b0 98 73 93 3e 1d 04 92 3d 40 c1 00 3f bb 72 88 bd
       0.2879913 0.07129691 0.50294876 -0.06662508
0001c0 a6 0a 1c 3e c0 be 63 be 61 d3 fa bd f5 8c ff bc
       0.15238437 -0.22240734 -0.122473486 -0.031195143
0001d0 89 1b d7 be b5 f0 a1 bc 87 50 0c 3e b7 98 22 3f
       -0.42013195 -0.019768098 0.13702594 0.63514274
0001e0 1c d0 a0 be 2c 3a 5c 3d 76 da 1b be 26 6e 54 be
       -0.31408775 0.053766415 -0.15220055 -0.20745143
0001f0 f2 8b 95 be a9 e4 27 3e 7d 9e d1 be 22 32 87 3d
       -0.29208332 0.1639582 -0.4094123 0.06601359
000200 cb 7b 75 be 2a 6a fc bd 81 52 43 3e bb 7d a6 3d
       -0.23973005 -0.12324937 0.19074441 0.0812945
000210 ed 76 88 3d de cf 06 bd a4 57 e3 bd 23 db b9 3e
       0.06663308 -0.03291308 -0.111007005 0.363
000220 6c ec 2a 3e 31 4b 34 be 56 05 80 3e 06 e2 7f 3e
       0.1669175 -0.17606808 0.2500407 0.24988565
000230 c9 17 2f 3e a3 8f 86 be 6f 09 10 3e d6 8b a8 be
       0.17098917 -0.2628146 0.14066099 -0.32919186
000240 53 1c ba be d6 ec 80 3b 5a 6f 22 be d6 85 07 be
       -0.36349735 0.003934483 -0.1586279 -0.13234648
000250 14 86 66 bd 05 d6 2e bd fa 95 a8 3d 5f 4b bc 3e
       -0.05628021 -0.042684574 0.08231731 0.36776254
000260 d7 2f b8 3e 83 9f 27 3f 40 8d ac be 48 cf 87 3e
       0.35974 0.6547777 -0.33701515 0.2652533
000270 35 8a 4d 3f 47 47 b6 bd 1b 6c 95 3e 05 51 c5 bd
       0.8028901 -0.08900314 0.2918404 -0.09634594
000280 b8 9a c8 3d 0c b8 a4 3e a9 ce 20 3e 4a 88 a0 bd
       0.09795135 0.32171667 0.15703835 -0.07838495
000290 47 69 f1 3d 21 6b 77 3d 5b bf 20 bd 0e d2 5d 3e
       0.11787658 0.0604049 -0.03924499 0.21662161
0002a0 5c 7a 77 3e 86 b5 b9 bc 23 e8 52 be 1d 5c 6a be
       0.2416777 -0.022669565 -0.20596366 -0.22886701
0002b0 99 c4 81 3d 07 d2 af be 66 e1 01 be 12 03 79 be
       0.06336326 -0.34339926 -0.12683639 -0.24317577
0002c0 d8 1d e3 3e 2d d1 6d bd f3 7f aa be 23 8e 70 be
       0.44358706 -0.058060814 -0.33300743 -0.23491721
0002d0 7d 77 59 3e a1 0d eb bd 3d e9 85 3d ad 4d 94 be
       0.21236987 -0.11477209 0.06538627 -0.28965512
0002e0 e8 f0 b5 be 58 e1 3c be 17 d4 ed 3d 19 2f 41 be
       -0.3553536 -0.18445337 0.116127186 -0.18865623
0002f0 18 3c 19 bf 0f 36 58 be 75 c9 05 3e ef 36 a0 3c
       -0.5985732 -0.21114372 0.13065131 0.019557444
000300 98 dc 60 3e d3 1f a1 3d 63 fe 80 be 26 09 8a 3e
       0.2195915 0.07867398 -0.25194082 0.26960105
000310 89 34 23 be 3a 17 07 3e da 2d 16 bf 25 2c 44 3e
       -0.1593801 0.13192454 -0.58663714 0.19157465
000320 19 82 d5 3b 08 48 ec bd 9b 2d 25 bd 6d de ae 3e
       0.006515753 -0.11537176 -0.040326696 0.34154072
000330 41 61 8f 3e b0 dc d4 3e 23 5a 85 3e 9a c2 c0 bc
       0.28003886 0.4157462 0.2604533 -0.023530293
000340 a3 e4 fa 3e 0e 7c 55 be da ec 40 3f 2d 9e a6 3e
       0.4900256 -0.20848104 0.75361407 0.32542554
000350 d7 06 84 3e a2 45 15 be 61 dc 24 be 14 d5 d9 bd
       0.25786468 -0.14577344 -0.16099693 -0.106363446
000360 9a b9 9b bd d5 22 30 be 15 46 fd bd 99 21 1a be
       -0.0760376 -0.17200787 -0.12366883 -0.15051879
000370 8b 06 09 bf bc 24 3d 3d 11 a6 8f 3e 42 93 97 be
       -0.5352561 0.04617761 0.28056386 -0.29604536
000380 e2 44 d2 3d a7 74 aa be 77 a2 43 3e 26 69 c3 bd
       0.102670446 -0.33292124 0.19104944 -0.0954154
000390 59 f1 2d be 2c 3e 9f be 3e 81 e4 be 44 4f 01 bf
       -0.16986598 -0.3110212 -0.44629854 -0.50511575
0003a0 82 02 1a bf c7 1c 98 be 51 17 83 3e 96 f9 35 3c
       -0.60160077 -0.29709455 0.25603727 0.011106869
0003b0 52 47 a1 be 14 90 08 3f a1 e7 74 3e 0e 78 14 be
       -0.31499726 0.53344846 0.23916484 -0.14498922
0003c0 b7 69 6d be b0 fb d8 bd b5 ca 3c bf 0d 2f bf be
       -0.23184858 -0.105948806 -0.73746806 -0.37340584
0003d0 1f 6a 04 bf f2 ce 01 3e 92 d0 e7 bc b4 69 a4 be
       -0.5172443 0.126766 -0.028297696 -0.32111895
0003e0 18 f0 3d 3e 62 49 e1 bd 25 37 bc 3e 97 54 bb 3d
       0.1854862 -0.11000325 0.36760822 0.091469936
0003f0 92 68 26 be e9 74 05 bf 12 eb dc 3d 10 3b 14 bf
       -0.16250828 -0.52131516 0.107870236 -0.5790262

network_body._body_endoder.seq_layers.2.bias f4 [256]
000000 2a e8 1d bc d5 f1 a5 bc bb 8f 1a 3c 52 8d 92 bc
       -0.009637872 -0.020256916 0.009433682 -0.017889652
000010 2c 74 9d 3a 8a 1a 8a 3a 9d 60 70 bc fe 6b 12 bc
       0.0012012771 0.0010536474 -0.014671472 -0.00893688
000020 b6 df 4a bc c5 ea d7 bc 43 21 4a bd 94 ec f4 3c
       -0.012382438 -0.026357064 -0.049348127 0.029897965
000030 f7 00 04 3c 0b 6e d9 bc 63 56 0b bd 48 2a aa bb
       0.008056871 -0.02654173 -0.03401793 -0.0051930286
000040 39 bd da bc e8 de 09 bd 3e 6d 2c bd 8b f7 5c bb
       -0.026701557 -0.033659846 -0.04209637 -0.0033716883
000050 78 72 a7 bc 74 2a 04 bb 80 b0 45 bc 7f b7 aa bc
       -0.020440325 -0.0020166906 -0.012066007 -0.02083945
000060 0f 78 bb bc fc b7 c4 bb 89 97 c6 3b 30 cc e2 bc
       -0.022884397 -0.006003378 0.006060545 -0.027685255
000070 cc 6a 17 bb 6d 39 1a bd cd c1 3c 3b 7c 59 76 3a
       -0.0023104427 -0.03765242 0.0028802038 0.00093974895
000080 28 8f ec bc 4a 67 4d bc 30 64 c0 3c ff bf 88 3c
       -0.028876856 -0.012536833 0.023485273 0.016693113
000090 14 5e 2b bd 32 98 d4 bc f6 30 24 3c ef 49 08 3c
       -0.041837767 -0.025951479 0.010021439 0.008318408
0000a0 bf 44 33 bc 0a c4 ce bc 42 e1 99 3c c2 18 a3 bc
       -0.010941683 -0.025239963 0.01878417 -0.019909266
0000b0 5c 4d df bc cd b4 a1 bc c8 0f 96 3b 55 cc fc bc
       -0.027258568 -0.019739533 0.004579518 -0.030859152
0000c0 a7 9c 19 3d 10 58 38 3b 67 a6 f5 bb 89 c2 8b bc
       0.03750291 0.0028128661 -0.0074966433 -0.017060535
0000d0 69 cf c6 bb dd 64 3d 3b a2 aa f5 3b 6b ea 73 39
       -0.0060672057 0.002889923 0.0074971477 0.00023261613
0000e0 9d b4 6c bc 18 e7 e2 3b 51 2b 7d 3b ab 78 1f bc
       -0.014447358 0.006924521 0.0038630555 -0.009733359
0000f0 8a 23 ca bc fe 2a ae bb 7f 83 3d bc b6 8c 24 3c
       -0.02467515 -0.0053151837 -0.011566996 0.010043314
000100 98 bb 03 bc de 26 51 bd 18 f1 91 3b a3 32 e5 3b
       -0.008040331 -0.051062457 0.0044537894 0.0069945618
000110 de ef b5 3c 80 f3 5d 3a f5 9d 46 bb 51 41 d9 bc
       0.022209104 0.0008466765 -0.0030306552 -0.026520403
000120 ac 97 66 bb 8f 16 06 bc 23 eb a8 bc 63 1d 74 3a
       -0.0035185618 -0.008184089 -0.020619934 0.000931224
000130 3d e8 0e bd 1c d9 fb bb 36 87 c3 bc c7 ce 67 bb
       -0.03488945 -0.0076857936 -0.023868185 -0.0035371052
000140 d2 37 9d bc cb c3 2e 3b 90 7d b2 bc cf 2e aa 3c
       -0.019191656 0.0026666995 -0.021788388 0.020774273
000150 58 8a 47 bc 25 a8 b0 bc eb bc 68 bc 26 93 01 bc
       -0.01217898 -0.021564553 -0.014205198 -0.007908618
000160 e7 5c b7 ba 92 03 c6 bb 7f 6c 57 bb ca 8b e3 bc
       -0.0013989479 -0.006042906 -0.0032871065 -0.027776618
000170 45 5d 0b bd 62 e9 17 bd 81 b7 dc bc 41 59 67 bc
       -0.034024496 -0.037087806 -0.02694297 -0.014120401
000180 b7 ad 0d 3c dd 72 43 3b fe 28 ed bc 73 35 4c bc
       0.008647374 0.0029823103 -0.02895021 -0.012463915
000190 50 1d 86 3b 52 db 9b bb 04 7c 0b bd 1f 32 08 bc
       0.00409285 -0.0047563696 -0.034053817 -0.008312731
0001a0 e2 76 ce bb b3 b2 6c 3b f5 4d 82 bc e1 a5 9b bc
       -0.006300793 0.0036117255 -0.015906313 -0.018999996
0001b0 df 4b 48 bc ce e3 50 bd 41 09 11 bd 24 8e a3 bc
       -0.01222512 -0.0509985 -0.035409216 -0.019965239
0001c0 cd 60 4f bc 12 85 be bc 1f 07 69 bb 9e c4 23 ba
       -0.012657356 -0.023256812 -0.0035557223 -0.0006247255
0001d0 1b 2d ce ba 54 03 b6 bc f8 fa fa 38 b6 ce db 3c
       -0.0015729995 -0.022218384 0.000119676755 0.026831966
0001e0 46 e0 e3 3c bf b4 69 bc f0 bd 9e bc 0e 8e 6a bc
       0.027816903 -0.014264285 -0.019377679 -0.014316095
0001f0 e7 e3 1a 3c e2 87 ef 3c 88 0f 43 3b e2 05 f3 bb
       0.00945375 0.029239599 0.0029763896 -0.007416473
000200 0d 81 3f 3c fd 99 b7 bc 76 ec 15 bd 9d aa 2b bb
       0.011688483 -0.022412295 -0.03660246 -0.0026194223
000210 d2 e9 e7 bc 1d e0 fe bc 83 e2 08 bd f0 1a 2d 3b
       -0.028309736 -0.031112725 -0.033419143 0.002641376
000220 17 08 d8 ba 2d 48 ba bc 9a db 8a bb 29 00 f6 ba
       -0.0016481903 -0.022739494 -0.0042376043 -0.0018768358
000230 f4 cc 21 bc aa 94 b5 bc 6a 32 ee bc bb b6 cb bc
       -0.009875525 -0.022165615 -0.029076774 -0.024867406
000240 87 9e df bc ea 57 0e bc 35 16 3c bb 49 13 e2 3b
       -0.027297271 -0.0086879525 -0.002869976 0.0068992716
000250 bc e3 8e bb 72 c8 00 bd f6 2a b8 bb 3e 3d f7 3c
       -0.004360644 -0.03144116 -0.0056203557 0.03018057
000260 9d 3a fa bc 57 9b 74 3c d5 ce 8b bc 12 b5 40 bc
       -0.030545527 0.014929614 -0.017066399 -0.0117619205
000270 d9 cf 82 b7 85 4f 43 bd fb 2b 2b bd 47 35 c6 bb
       -1.5593994e-05 -0.047683258 -0.04178999 -0.0060488316
000280 dc ea fb bc f0 14 27 3c ff 11 aa bb 34 23 f8 bb
       -0.030751638 0.010197863 -0.0051901336 -0.007572556
000290 de 1e 2a bb ca 17 98 3b b7 c5 d3 3c 90 da f4 ba
       -0.002595834 0.0046415078 0.025851114 -0.0018680859
0002a0 35 2b 75 bc 5d fb 40 3b a8 80 d9 bc 60 04 b9 3b
       -0.014963915 0.00294467 -0.026550606 0.0056462735
0002b0 d0 5b 49 3c ab 3c 1c 3c 15 63 62 3c 50 47 26 3c
       0.012289956 0.009535949 0.013817568 0.010148838
0002c0 27 15 b0 bc 8c 2f 60 bc a3 3f bb 3b 84 ea 54 bc
       -0.021494461 -0.013683211 0.005714373 -0.012995366
0002d0 83 c6 99 3b d6 df a7 3c 0a 26 66 3b 47 5f a1 bb
       0.004692854 0.020492475 0.0035117888 -0.004924688
0002e0 d7 f4 f1 3b 7f d2 f4 bc b5 09 bc bc 8c f5 8e bb
       0.0073839235 -0.029885529 -0.022953847 -0.0043627676
0002f0 0d fe f3 bc 0b d7 ef 3b 9e de 32 3c 1b 13 d7 3c
       -0.029784227 0.0073193363 0.010917334 0.026254227
000300 5d fb 8e 3c 50 b8 21 3c 7d 88 64 bc ef be 41 bc
       0.017453844 0.009870604 -0.013948557 -0.011825307
000310 fd ae 84 bc 58 84 16 bd 72 fa 87 3b f7 a8 a3 bb
       -0.016196722 -0.036747307 0.0041497285 -0.0049945074
000320 a7 de 0b bd d7 a0 e6 bc 01 26 9d bb bc 83 b5 3a
       -0.034147885 -0.028152866 -0.00479579 0.0013848464
000330 30 56 d2 bb d7 6c b2 bc 83 fa ca bc c4 f6 1a 3b
       -0.0064189658 -0.021780415 -0.024777656 0.002364562
000340 1d dd cf bc 9b ad 78 3c d7 98 be bc 7d 03 91 bb
       -0.02537399 0.0151781095 -0.02326624 -0.0044254647
000350 e3 c6 01 bb 5b 49 e4 3c dd 89 20 bd 8f c3 c9 bc
       -0.0019802384 0.02786701 -0.039193977 -0.024629382
000360 c5 68 29 bd 40 42 0a 3c 19 47 a1 bc 78 d4 9c 3c
       -0.04135968 0.008438647 -0.019687222 0.019144282
000370 7d 76 95 bc 73 12 f2 3b 35 74 01 bd 20 8f 55 bd
       -0.018244976 0.007387453 -0.031604964 -0.052138448
000380 5b 6c 42 bc dc c7 dd 3b 0d 09 9e bc c8 82 3b bd
       -0.011866654 0.00676821 -0.019291425 -0.04577902
000390 28 03 2a bd f2 8f b6 bc 88 17 ef 3c 74 b3 62 bc
       -0.041506916 -0.022285435 0.029186025 -0.01383673
0003a0 34 b4 52 bd b6 63 34 3c 22 d8 41 bb 7a 5f 8a bb
       -0.051441386 0.011010101 -0.0029578288 -0.0042228075
0003b0 23 8d be bc d1 2d 29 bc 25 9a d9 3a 90 cf cd bb
       -0.023260659 -0.010325865 0.0016601725 -0.006280847
0003c0 5f ec ef bc a3 4f 0a 3c e7 41 88 bc 34 4c 58 bd
       -0.029287515 0.008441838 -0.016632987 -0.052807048
0003d0 b4 c6 18 3c a6 b3 79 bc bd f8 f0 bc e8 85 18 bc
       0.009324718 -0.015240585 -0.029415483 -0.0093092695
0003e0 af 8b c4 bc ff e5 0a bc fe 6e 2d 3b 37 fd 5b bc
       -0.023992388 -0.008477687 0.0026463862 -0.01342707
0003f0 ef 8c d9 3c e0 cb 47 bc e8 a7 42 3c 95 c7 7b 3c
       0.02655646 -0.012194604 0.011880852 0.015367408

network_body._body_endoder.seq_layers.2.weight f4 [256, 256]
000000 36 58 ba bd 16 90 55 bc 0d e8 ae bd 79 36 a8 bd
       -0.09098856 -0.013034841 -0.08540354 -0.08213515
000010 b6 f0 d2 bd 50 82 19 be fe c0 2b bd 7d 89 95 3d
       -0.10299818 -0.14991117 -0.0419321 0.073016144
000020 e1 16 21 be 20 39 f0 bc 4c 78 dd bd 02 ac c2 bd
       -0.15731384 -0.029324114 -0.108139604 -0.09505464
000030 0e 9e a2 3d 71 8a 0f 3d 57 9f b8 bd d9 05 a3 bc
       0.07940303 0.035044137 -0.09014767 -0.01990025
000040 18 80 8b bd c6 f5 5d bd f3 3a 1c bc 3a e1 47 bc
       -0.06811541 -0.054189466 -0.009535539 -0.012199694
000050 4d 58 35 3d aa 2e 14 3d 99 04 66 3d 13 3f ca bd
       0.044273663 0.036177315 0.05615673 -0.09875312
000060 31 5d c1 3c 10 a1 7a 3d 54 1d 92 bd d5 54 8b 3d
       0.023604007 0.061188757 -0.071345 0.0680329
000070 da 51 1e be 73 c1 23 3e 73 29 fc bd f3 4b 36 3d
       -0.15460911 0.15991764 -0.12312593 0.044506025
000080 98 cd f0 bc 3b 76 bc bd b4 61 31 bd cd fe f3 3c
       -0.02939491 -0.09202238 -0.043306068 0.029784584
000090 95 75 21 be 73 be 4b 3e fa e9 f0 bd d4 24 0e 3d
       -0.1576751 0.1989687 -0.117633775 0.03470309
0000a0 d0 c9 ce bd 80 fb b8 3d 01 b1 9d bd 4a 4a ca 3b
       -0.100970864 0.09032345 -0.076997764 0.0061734067
0000b0 4f ff 5a bd ac c2 a3 bc 55 97 00 3d 94 0f 03 be
       -0.053466137 -0.019990288 0.03139432 -0.12798911
0000c0 c1 b2 a5 bd 69 b1 99 bc 6a ed 20 bb 8b 2d 97 bd
       -0.08090735 -0.018761354 -0.0024555572 -0.073817335
0000d0 9a 2f 35 3d f9 09 45 3d 87 07 9a 3d f0 38 c5 bd
       0.04423485 0.048105214 0.07520967 -0.096300006
0000e0 50 1b f4 bc 70 ec a0 3d 0c c7 dd bb 68 6a 9e bc
       -0.02979818 0.07857597 -0.006768113 -0.019337848
0000f0 02 49 3b be a8 d6 ce 3d 28 ef b7 bc 81 b8 72 3c
       -0.18289569 0.10099536 -0.022452906 0.014814497
000100 ed 0b 00 3d 0e 5f b7 3d 4a cd 94 bd 8c c5 8f bd
       0.031261373 0.08953677 -0.07265718 -0.07020101
000110 40 53 23 bd 43 14 49 3d b9 34 d6 bb ae 49 dc bc
       -0.039874315 0.04909159 -0.0065370467 -0.026890602
000120 1c 82 52 bc 83 ca e7 3c f5 b4 5a bd a4 37 62 bd
       -0.012848403 0.028294807 -0.05339523 -0.055228844
000130 d4 cd 77 3d a0 d5 9b bd 44 a0 5f 3d ee de 2c 3d
       0.060499027 -0.07609105 0.0545962 0.04220479
000140 72 92 73 be 19 27 37 3d 1a 88 1a 3d a2 ec 3d bd
       -0.23786333 0.04471502 0.037727453 -0.04636825
000150 e0 0c 2e bc 9b 88 69 bd d9 c0 02 bd db 51 0a be
       -0.010623187 -0.057015043 -0.031922195 -0.13507788
000160 3a 5d a8 bd dc 98 d9 bc 27 77 ed bc 91 8c 24 be
       -0.082209066 -0.026562147 -0.02898748 -0.16069247
000170 fc fd 99 bd c2 15 61 bd 30 1c 68 3d 1d f1 10 be
       -0.07519147 -0.05495239 0.056667507 -0.14154477
000180 b9 2e ec 3c 96 2e 1c bd 4e cf 0a be 7b 0f 19 3d
       0.028830873 -0.038130365 -0.13555643 0.03736828
000190 e9 4d c5 3c b2 c8 4b bd b5 ca 99 3d ff f9 5d bc
       0.024085002 -0.049751945 0.075093664 -0.013548373
0001a0 e9 ae 10 be 1a bb bd bd cd 55 3c 3d e6 14 2b bd
       -0.14129223 -0.092642024 0.045980264 -0.041767977
0001b0 6b 90 31 bd 72 9c 0b bc d5 35 b7 3c 5d 30 2b 3e
       -0.04335062 -0.008521186 0.022364536 0.16717668
0001c0 f3 ac d7 bc 58 68 db 3d cd 1a 0d bd 3c 4d 59 bc
       -0.026327586 0.10713261 -0.034449387 -0.013263043
0001d0 88 c9 f8 bc aa d2 16 bc a7 8e 58 bd 88 ab 4f be
       -0.030369535 -0.0092055 -0.05287042 -0.20280278
0001e0 d8 61 bd bd b7 2d 4f bd f7 a6 80 bd 45 f0 85 bc
       -0.09247178 -0.050580706 -0.06281846 -0.016349921
0001f0 4e 19 b0 3a 33 71 42 bc d5 32 2d bd 7d e4 bb 3c
       0.0013435276 -0.011867809 -0.042284805 0.0229361
000200 5a 53 19 3e b5 a8 d6 3a c1 ca 79 3d 58 46 ac bd
       0.14973202 0.0016377183 0.060984377 -0.084118545
000210 0e 90 af bd 26 53 a8 bc c5 c4 3f bb 6c 84 ee 3d
       -0.08572398 -0.02054746 -0.002926157 0.11646351
000220 06 c3 47 bb 3e ae 08 3d c4 d8 f0 bd bc c4 91 3b
       -0.0030481233 0.033369295 -0.11760095 0.0044485014
000230 a4 f7 39 3c e7 0d 94 3d 7d 60 b6 3c d6 d6 87 bd
       0.011350546 0.07229214 0.022262806 -0.066327736
000240 7c b6 08 ba ec e8 b1 3d ce 67 0c bc c5 f0 c5 bd
       -0.00052151806 0.086870044 -0.008569671 -0.09665064
000250 84 69 dd bc 32 14 82 3d 97 70 65 bd e7 f3 f1 bc
       -0.027027853 0.06351508 -0.056015577 -0.029535247
000260 30 c4 9c bd 2c b9 98 bc f9 88 e2 3b 47 5f 13 3d
       -0.07654607 -0.018642984 0.006913301 0.035979535
000270 66 7c 0e bd db db 1a bd 40 ec a1 bd 74 39 d5 bb
       -0.034786604 -0.037807327 -0.07906389 -0.006507093
000280 7a 7f 08 be ac 41 10 3d 3c 61 19 bc 13 2d b1 3d
       -0.13329878 0.03521888 -0.009361561 0.08651175
000290 af 17 97 bc dc 08 c8 bd c7 40 7f bd 60 0c e4 3d
       -0.01844391 -0.09767315 -0.062317636 0.11135173
0002a0 fd 56 fc bd 7e 2a ff bb f4 70 b9 3c c1 ad e6 3b
       -0.12321279 -0.007787048 0.022636868 0.007039756
0002b0 1d 00 bb 3d 2e 16 17 be 6c 13 fc bd 04 79 a6 3d
       0.09130881 -0.14754555 -0.12308392 0.08128551
0002c0 9b 43 91 3d 23 63 a9 3d 70 6b 5a 3d 21 94 15 bc
       0.07092973 0.08270862 0.053325117 -0.009129555
0002d0 b1 77 8a 38 14 37 54 3d 9c a1 57 bd 06 5b 5e 3c
       6.602647e-05 0.05181034 -0.052644357 0.013571506
0002e0 49 0d 42 bd be 82 be 3d ab e9 c0 3c b9 4c 27 be
       -0.04737595 0.09302281 0.023548922 -0.16337861
0002f0 67 f3 5e 3b 35 d9 b3 bd e9 16 bf 3b 30 08 25 be
       0.003401959 -0.08781663 0.0058315885 -0.16116405
000300 7f 8f 40 be f3 0c dc bc 18 4d 76 3d f5 32 d1 3d
       -0.1880474 -0.026861643 0.060132116 0.102147974
000310 c7 e5 34 bd 7b f2 c8 bd c1 14 71 3d 0d e6 92 bd
       -0.044164445 -0.098118745 0.058857683 -0.07172785
000320 ce 97 a8 3d 26 4a 41 3d a1 d2 30 be f3 5c a3 bd
       0.082320794 0.047189854 -0.17267849 -0.07976713
000330 d0 e1 38 bd 0d d8 b5 3d 89 d2 7e 3c 48 53 36 bd
       -0.045137227 0.08879099 0.015553125 -0.044513017
000340 05 5f 97 bc 94 58 3c bd 62 a7 a4 bc c9 b1 85 bd
       -0.018477926 -0.045982912 -0.020099346 -0.065280505
000350 71 96 cf bd ec 35 30 bd b1 10 6c 3d de 6f cf 3c
       -0.10136116 -0.043020174 0.057633106 0.025321897
000360 75 bf f7 bd 91 d7 26 bd ca 35 9a 3c 00 24 0e bd
       -0.120970644 -0.040732924 0.018824477 -0.0347023
000370 47 b8 3e bd 9a 46 ab 3d 9c bc 7b bc 04 27 35 bd
       -0.04656246 0.083630756 -0.015364792 -0.04422666
000380 76 b8 f8 bd ef 84 1a 3e f9 28 8e bc 96 75 e9 bd
       -0.12144558 0.15089773 -0.017353522 -0.11399381
000390 5e 6c 05 be b8 8f bb 3c a8 21 05 bc 8b 8b 7a bd
       -0.1302962 0.022895679 -0.0081257 -0.061168235
0003a0 77 22 33 bc eb e9 00 be c0 5f f6 3d bd 3e a9 bd
       -0.01093351 -0.12589233 0.120299816 -0.082639195
0003b0 d9 53 23 bd 57 1e c3 ba 7f 08 73 bd 1e d0 15 be
       -0.039874885 -0.0014886361 -0.059334274 -0.14630172
0003c0 b0 39 5f bc 02 77 80 bc 60 14 a7 bb 84 a1 87 bd
       -0.013624594 -0.015681747 -0.0050988644 -0.066226035
0003d0 94 66 19 3d 08 31 68 be f6 07 a3 bc b1 43 09 3d
       0.03745134 -0.22674954 -0.019901257 0.03351182
0003e0 5d fd d4 bd fa 2d de 3d 80 14 fa bd c3 67 29 3d
       -0.10399888 0.10848613 -0.12210941 0.04135872
0003f0 30 b5 5a 3d 32 ac 9a 3d ba 09 2e bd 5f 43 f1 3d
       0.05339545 0.07552375 -0.042489745 0.11780428
