Assets/6. Results/Staff_Stage1_V4_2.onnx (onnx, 278494 bytes, 9 tensors)

action_model._discrete_distribution.branches.0.bias f4 [2]
-0.047077548 0.04707757
00000000: 63d4 40bd 69d4 403d

action_model._discrete_distribution.branches.0.weight f4 [2, 256]
-0.08898388 0.05065871 -0.10308332 0.06289697 0.06370801 -0.045126643 -0.08080552 0.06797036
0.052535642 0.13085271 0.07464429 0.012753917 0.14325517 0.08093904 0.0056385836 -0.043158542
0.043585908 -0.06982636 0.09072223 -0.08777506 -0.021580204 -0.08945689 0.014552197 0.0345611
0.0021015708 0.046415944 0.13480088 -0.10933779 0.0016300224 -0.03486545 -0.13938455 0.04971799
0.031501323 0.04216541 0.09156333 0.020057805 0.01078676 -0.004564724 0.088462055 -0.094559155
-0.052717973 0.0016717099 0.12099966 -0.075067565 -0.0059242356 -0.07082743 0.06421776 -0.010636759
0.038539656 0.04286684 0.08354848 0.05893954 -0.036849428 0.013138666 -0.04292691 0.022107583
-0.012164841 0.032293633 -0.027873501 0.06167225 -0.09797983 0.046127006 -0.06434182 -0.08012292
0.012210628 -0.08873158 0.04606318 0.04568592 -0.108749 0.046019778 0.06694047 0.027151205
0.08242093 0.032450054 -0.054972816 -0.027684323 0.1523495 0.04386883 0.06501705 -0.0057075163
-0.085629605 -0.007145192 -0.046624035 0.09966347 -0.013763936 0.09865618 0.070649795 -0.05011352
0.018954607 0.049605805 -0.04504377 0.12072005 0.023427477 0.038469225 0.13906069 0.047779743
0.031898458 0.1113614 0.040305298 0.0326684 -0.05230555 -0.13544945 0.03716638 0.026969424
-0.052681495 0.009543553 0.08490214 -0.014370108 0.014869656 0.10886996 0.05087655 0.0031802224
0.027900744 0.026402557 0.046083037 -0.08140652 0.075451 -0.032860715 -0.043525837 -0.060487296
-0.07819305 -0.08039477 0.026497308 -0.06832076 -0.053098876 0.05558732 0.06592601 0.0069580595
0.080347024 -0.061928324 0.044260714 0.07570038 0.0723541 -0.016391484 0.011897277 0.01756935
-0.0017027104 0.090181716 0.06457945 -0.08783067 -0.08533617 0.0602981 -0.08440705 0.007285041
-0.033464257 -0.091731645 -0.05969272 -0.0071797646 0.06606412 -0.056673393 -0.063537724 -0.012910328
0.015421119 -0.13190119 -0.014807589 0.051465545 -0.07673952 -0.1217318 0.07353383 0.043165386
0.073727794 0.042599596 0.025311604 0.077992864 -0.05565317 0.047516134 0.042489886 -0.10107047
0.033007275 0.18428886 -0.060144015 0.06685486 0.042611003 0.11218264 0.07952869 -0.009865769
-0.06264867 0.016893107 -0.04059555 -0.09607252 -0.018310642 -0.019226072 0.0013523251 0.04606005
0.028515782 -0.02528385 0.03581673 0.018913206 0.037827913 0.031139273 -0.1352428 -0.068921484
0.1156689 -0.05288236 -0.13844715 -0.025245132 0.072007686 0.078798294 0.035357006 0.053940456
0.06514485 0.03345909 -0.023438117 0.03121154 0.07224739 0.050264426 0.044529192 0.033012383
-0.030325448 -0.020656137 -0.08109562 -0.049609415 -0.052549697 0.033714093 0.009146157 -0.0052446397
0.008671514 0.15080515 -0.08798974 0.07607775 -0.11757278 0.08424693 -0.08534258 -0.08274275
-0.032654468 -0.038320556 0.026388163 0.012730342 -0.00049782684 -0.046842285 0.059685282 -0.08295091
-0.04729398 -0.12476577 0.05047854 -0.09134602 0.062675804 0.12151007 0.05067783 0.029499525
-0.014971869 0.039894197 0.026142417 0.0663515 0.06642047 0.055196304 -0.010788942 -0.045263123
-0.040944375 -0.012482194 0.040840656 0.008482161 0.1256231 0.040217083 -0.06229362 0.08150838
00000000: 2e3d b6bd 827f 4f3d 591d d3bd 20d0 803d
00000010: 5879 823d b7d6 38bd 5d7d a5bd 0b34 8b3d
00000020: 9d2f 573d 41fe 053e 1bdf 983d cef5 503c
00000030: 7cb1 123e 5ec3 a53d dec3 b83b 03c7 30bd
00000040: 2387 323d 1f01 8fbd 94cc b93d 69c3 b3bd
00000050: f8c8 b0bc 2d35 b7bd 576c 6e3c f18f 0d3d
00000060: 82ba 093b a51e 3e3d 3e09 0a3e 7eec dfbd
00000070: 7aa6 d53a 13cf 0ebd d3ba 0ebe 17a5 4b3d
00000080: 8807 013d a3b5 2c3d 8e85 bb3d 4450 a43c
00000090: f3ba 303c ae93 95bb 982b b53d 3ba8 c1bd
000000a0: cdee 57bd 471d db3a abce f73d 06bd 99bd
000000b0: 1720 c2bb f90d 91bd 9a84 833d cd45 2ebc
000000c0: c2db 1d3d 2495 2f3d 771b ab3d 966a 713d
000000d0: 6def 16bd 8f43 573c 21d4 2fbd f61a b53c
000000e0: 0b4f 47bc 5446 043d f856 e4bc 0b9c 7c3d
000000f0: a6a9 c8bd acef 3c3d a5c5 83bd 7c17 a4bd
00000100: 160f 483c e7b8 b5bd bfac 3c3d 2921 3b3d
00000110: ccb7 debd 3c7f 3c3d 1618 893d 346c de3c
00000120: 4ecc a83d 59ea 043d 2d2b 61bd 3cca e2bc
00000130: 8201 1c3e cdaf 333d a927 853d 1e06 bbbb
00000140: 935e afbd 3722 eabb d8f8 3ebd 5d1c cc3d
00000150: 2282 61bc 400c ca3d d7b0 903d d643 4dbd
00000160: b146 9b3c 752f 4b3d d17f 38bd 133c f73d
00000170: fbea bf3c e891 1d3d ed65 0e3e b1b4 433d
00000180: f5a7 023d 7211 e43d 2b17 253d 4dcf 053d
00000190: 583e 56bd 43b3 0abe c63b 183d fbee dc3c
000001a0: 8dc8 57bd 905c 1c3c 2ce1 ad3d 9a70 6bbc
000001b0: dc9f 733c 37f7 de3d ee63 503d 476b 503b
000001c0: 1a90 e43c 2d4a d83c 91c1 3c3d 76b8 a6bd
000001d0: 0e86 9a3d f598 06bd 2648 32bd 87c1 77bd
000001e0: ae23 a0bd 03a6 a4bd e210 d93c c1eb 8bbd
000001f0: 357e 59bd 88af 633d 3704 873d 6f00 e43b
00000200: fb8c a43d 8ea8 7dbd b94a 353d cd08 9b3d
00000210: 632e 943d 6f47 86bc ccec 423c 99ed 8f3c
00000220: 7b2d dfba 31b1 b83d 3b42 843d 91e0 b3bd
00000230: bbc4 aebd 24fb 763d 9add acbd 5ab7 ee3b
00000240: d111 09bd cddd bbbd 5b80 74bd 3b44 ebbb
00000250: a04c 873d 5c22 68bd 1120 82bd d785 53bc
00000260: dca8 7c3c 1b11 07be 889b 72bc 89cd 523d
00000270: 9c29 9dbd 864e f9bd e898 963d 30ce 303d
00000280: 99fe 963d ea7c 2e3d 485a cf3c b9ba 9f3d
00000290: 94f4 63bd 47a0 423d e009 2e3d 09fe cebd
000002a0: a332 073d 38b6 3c3e 9259 76bd 33eb 883d
000002b0: e088 2e3d 03c0 e53d f0df a23d 09a4 21bc
000002c0: f24d 80bd 6a63 8a3c 8547 26bd abc1 c4bd
000002d0: 3300 96bc ff7f 9dbc 8040 b13a 77a9 3c3d
000002e0: ee99 e93c 1420 cfbc 90b4 123d deef 9a3c
000002f0: 71f1 1a3d ca17 ff3c 177d 0abe b526 8dbd
00000300: d1e3 ec3d 2c9b 58bd 17c5 0dbe e1ce cebc
00000310: c478 933d 0061 a13d 82d2 103d abf0 5c3d
00000320: aa6a 853d 660c 093d 4b01 c0bc 58af ff3c
00000330: 71f6 933d 12e2 4d3d 3e64 363d fe37 073d
00000340: 136d f8bc 0f37 a9bc 7615 a6bd 3e33 4bbd
00000350: 5a3e 57bd ca17 0a3d c3d9 153c 3adb abbb
00000360: f712 0e3c aa6c 1a3e f733 b4bd a7ce 9b3d
00000370: ffc9 f0bd a889 ac3d 17c8 aebd 0875 a9bd
00000380: b1c0 05bd 04f6 1cbd fd2b d83c ed92 503c
00000390: 9880 02ba b2dd 3fbd 8e78 743d 2be2 a9bd
000003a0: 55b7 41bd 3285 ffbd 96c2 4e3d 9f13 bbbd
000003b0: 2c5c 803d 46da f83d 8e93 4f3d fda8 f13c
000003c0: 924c 75bc 1968 233d 9f28 d63c 4ce3 873d
000003d0: 7507 883d 8515 623d 1ac4 30bc d365 39bd
000003e0: 4ab5 27bd 1e82 4cbc 8848 273d c3f8 0a3c
000003f0: 58a3 003e abba 243d 9827 7fbd deed a63d

action_model._discrete_distribution.branches.1.bias f4 [3]
-0.009073751 0.01517319 -0.0058109364
00000000: 12aa 14bc f998 783c ab69 bebb

action_model._discrete_distribution.branches.1.weight f4 [3, 256]
0.022254761 -0.026165716 0.026450483 -0.017713888 -0.024806896 -0.040414196 0.010274053 -0.016073767
-0.007467519 -0.016896985 -0.015623584 -0.047688805 -0.025107281 -0.00545767 -0.0016921741 -0.018001264
0.0031624527 0.007540492 -0.0038715522 -0.0024195511 -0.04554647 0.009019073 -0.0048795016 -0.029544426
-0.008172125 -0.011015325 -0.02165071 0.0009777062 0.007529948 0.036176294 0.0070799463 -0.0053727445
-0.012201293 0.011609084 0.010244876 -0.0050049904 -0.0069021205 -0.03668934 -0.014720944 0.00079059845
0.034518655 -0.01913454 -0.03109704 0.00010690453 -0.005818561 -0.003691759 -0.0035387515 -0.014726506
-0.045501094 -0.026286727 -0.035515673 -0.01565089 0.010504783 0.0005749695 -0.021829246 -0.059326038
-0.0079407245 0.014925144 -0.042768843 -0.00041623565 -0.0084559675 -0.0163465 0.0005608457 0.004762331
-0.041870117 0.015063002 -0.015235546 -0.032534033 0.023339687 -0.021881538 -0.019120295 -0.042861026
-0.011481059 0.014397972 -0.0090754265 -0.03913859 -0.041260093 -0.01785094 -0.028249372 -0.05301487
0.015076142 -0.026755067 -0.015232764 -0.043952767 0.0069176997 -0.027945057 -0.011478254 -0.009307707
-0.0062092915 -0.03938894 -0.03041783 -0.024447272 -0.01554707 -0.027344534 -0.064459875 -0.014830658
-0.019981202 -0.049861133 -0.007363966 -0.015859151 -0.020119222 0.010351465 -0.034328476 0.0014905205
-0.0058687343 0.0049093664 -0.009094153 -0.0396782 -0.017919814 -0.022841241 0.0023334802 -0.046999726
-0.021362534 -0.01440896 -0.021346211 -0.010219989 -0.023183975 0.0068753078 0.00983187 0.017265147
0.012367397 -0.020317988 -0.0022835657 0.021644412 -0.03059765 -0.036228947 -0.03367025 0.009660818
-0.04115033 0.021216873 -0.04553265 -0.028901925 0.0022037434 0.032808993 -0.011221331 -0.012179586
-0.008126567 -0.047870837 -0.014438192 0.01823163 0.020320892 -0.005262076 0.007964079 -0.051543035
-0.022609891 0.0035008038 -0.00741638 -0.014863051 -0.023620993 0.01142678 -0.0108726015 -0.028170813
0.012584392 0.004249837 0.0066816844 -0.013759839 0.005445399 0.0040893545 -0.0115221795 0.0027518007
-0.0061865724 -0.017595628 -0.01376383 -0.018209657 -0.00056073366 -0.022366507 -0.043637816 -0.007768727
-0.0106513705 -0.06744888 0.010376803 -0.021723615 -0.0022784753 -0.023054518 -0.024874039 0.017161928
0.012532096 -0.003515211 -0.0074639646 -0.019447526 0.0026106385 -0.044896565 -0.026598683 -0.017501036
-0.002768139 -0.04090396 0.017408613 -0.014240728 0.007940029 -0.009925571 0.010232451 0.0020958846
-0.041364104 -0.0076112384 -0.004819352 -0.034973387 -0.021412162 -0.018177886 -0.0071473876 -0.018403577
-0.012758242 -0.028701995 -0.01863392 -0.013621776 -0.018025858 -0.008656877 0.0072223404 0.005257843
-0.0009611185 -0.025982296 0.025192978 0.015289112 -0.012514339 -0.0017056476 -0.04849574 -0.0072621712
0.013742294 -0.041011803 0.0051076873 -0.01830207 -0.0022254947 -0.022206709 0.014656133 -0.013760346
-0.0295079 -0.015215779 -0.012252503 0.0031276778 -0.050972153 0.0098128235 0.012943898 0.002309556
-0.03206126 0.022593586 0.012301373 0.02532419 0.008720088 -0.01839874 -0.025857957 0.0058577224
0.0071463315 -0.016270574 -0.02614355 -0.0074880393 0.011073036 -0.020077685 -0.004441573 0.013491011
0.015684888 -0.042936545 0.003327629 -0.00069957774 -0.038679395 -0.019673677 -0.004051175 -0.020712055
00000000: 9e4f b63c 7c59 d6bc afae d83c b71c 91bc
00000010: d537 cbbc 5b89 25bd 8054 283c 22ad 83bc
00000020: 17b2 f4bb 8c6b 8abc 10fa 7fbc 5655 43bd
00000030: c9ad cdbc 41d6 b2bb f1cb ddba 6377 93bc
00000040: 2741 4f3b 3b16 f73b deb9 7dbb 5591 1ebb
00000050: ef8e 3abd bcc4 133c 3ae4 9fbb 2707 f2bc
00000060: 60e4 05bc 9f79 34bc d45c b1bc 6026 803a
00000070: c8bd f63b 982d 143d e5fe e73b d90d b0bb
00000080: efe7 47bc 0734 3e3c 20da 273c e700 a4bb
00000090: 2f2b e2bb 9047 16bd 1d30 71bc 2a40 4f3a
000000a0: 6f63 0d3d 0ac0 9cbc 38bf febc ef31 e038
000000b0: a1a9 bebb 70f1 71bb 66ea 67bb 7147 71bc
000000c0: 5b5f 3abd 4357 d7bc e278 11bd 4c36 80bc
000000d0: 411c 2c3c 8db9 163a 3fd3 b2bc dcff 72bd
000000e0: d019 02bc 9788 743c 622e 2fbd 343a dab9
000000f0: e68a 0abc 18e9 85bc b805 133a 540d 9c3b
00000100: 0080 2bbd cfca 763c 839e 79bc 6842 05bd
00000110: df32 bf3c e940 b3bc 2aa2 9cbc 0b8f 2fbd
00000120: 0d1b 3cbc 79e5 6b3c 19b1 14bc c94f 20bd
00000130: 5800 29bd 223c 92bc 3a6b e7bc 1f26 59bd
00000140: ec01 773c 712d dbbc d892 79bc d107 34bd
00000150: dfad e23b 08ed e4bc 490f 3cbc 5a7f 18bc
00000160: 5077 cbbb 4c56 21bd d02e f9bc a545 c8bc
00000170: 23b9 7ebc a501 e0bc 8a03 84bd 4afc 72bc
00000180: 9eaf a3bc 303b 4cbd 6d4d f1bb 0deb 81bc
00000190: 11d1 a4bc 3199 293c 049c 0cbd 925d c33a
000001a0: 834e c0bb c0de a03b a4ff 14bc 9c85 22bd
000001b0: 93cc 92bc 8e1d bbbc 4ded 183b c982 40bd
000001c0: 7b00 afbc 8f13 6cbc 40de aebc be71 27bc
000001d0: 52ec bdbc 434a e13b da15 213c a36f 8d3c
000001e0: 9fa0 4a3c e971 a6bc e0a7 15bb 9f4f b13c
000001f0: eca7 fabc ce64 14bd d1e9 09bd 6848 1e3c
00000200: 408d 28bd 02cf ad3c 7280 3abd bbc3 ecbc
00000210: ae6c 103b b962 063d acd9 37bc e38c 47bc
00000220: 4b25 05bc 3614 44bd 2b8e 6cbc 805a 953c
00000230: 0078 a63c 7e6d acbb c57b 023c ca1e 53bd
00000240: 6138 b9bc be6d 653b 1b05 f3bb 2784 73bc
00000250: d080 c1bc 6437 3b3c ff22 32bc 7ac6 e6bc
00000260: c42e 4e3c 3742 8b3b 08f2 da3b f370 61bc
00000270: 516f b23b feff 853b 86c7 3cbc 8e57 343b
00000280: bbb8 cabb b524 90bc b081 61bc 6b2c 95bc
00000290: 33fe 12ba f739 b7bc 91bd 32bd ce90 febb
000002a0: 1683 2ebc a322 8abd 7703 2a3c b9f5 b1bc
000002b0: 7952 15bb d4dc bcbc a4c4 cbbc 2c97 8c3c
000002c0: 6c53 4d3c 745f 66bb 4694 f4bb 6b50 9fbc
000002d0: 3f17 2b3b 76e5 37bd 7be5 d9bc 555e 8fbc
000002e0: aa69 35bb e98a 27bd 829c 8e3c f151 69bc
000002f0: e516 023c dd9e 22bc 03a6 273c 1c5b 093b
00000300: 686d 29bd b267 f9bb a8eb 9dbb 4140 0fbd
00000310: 8f68 afbc cae9 94bc a234 eabb 19c3 96bc
00000320: f207 51bc 7220 ebbc 2aa6 98bc df2d 5fbc
00000330: f7aa 93bc 93d5 0dbc 62a9 ec3b fc49 ac3b
00000340: 92f3 7bba d3d8 d4bc 8161 ce3c 2f7f 7a3c
00000350: f108 4dbc 0990 dfba 78a3 46bd 82f7 edbb
00000360: 5c27 613c fefb 27bd 635e a73b 39ee 95bc
00000370: 9bd9 11bb d8ea b5bc 4720 703c 1373 61bc
00000380: 8dba f1bc 9a4b 79bc b9be 48bc baf9 4c3b
00000390: 2dc8 50bd f7c5 203c a512 543c eb5b 173b
000003a0: ab52 03bd 2f16 b93c b38b 493c ad74 cf3c
000003b0: b3de 0e3c f4b8 96bc 11d4 d3bc 23f2 bf3b
000003c0: c62b ea3b de49 85bc 002b d6bc 3a5e f5bb
000003d0: ae6b 353c f579 a4bc 9d8a 91bb 6709 5d3c
000003e0: 987d 803c 3bde 2fbd 5a14 5a3b de63 37ba
000003f0: 496e 1ebd b12a a1bc b8bf 84bb 54ac a9bc

discrete_action_output_shape f4 [1, 2]
2.0 3.0
00000000: 0000 0040 0000 4040

network_body._body_endoder.seq_layers.0.bias f4 [256]
-0.006827023 0.07579179 -0.017651772 -0.0059342575 -0.013648186 0.090989836 0.0041982937 0.040785782
-0.0064902506 0.01064868 -0.016881667 -0.0062686047 0.08026239 0.013541807 0.0023602373 -0.011073942
0.053380113 0.052333817 -0.0077871433 0.0146609 0.036914147 -0.04165972 0.014690291 0.056011885
0.002641285 0.054089572 0.012466942 -0.017291823 0.055067975 0.0048022843 -0.000324166 -0.032988098
0.068403676 0.036407284 -0.015539784 0.021463972 0.040186584 0.038822576 0.014329725 0.0034517127
0.04992967 -0.0132307075 0.065590106 -0.006142963 0.03844935 0.008094144 0.026677862 -0.016689207
-0.0037698054 0.05123285 0.019836495 0.00092374504 -0.02151747 0.058678117 0.039651114 -0.014599422
0.06376614 0.017935267 -0.06893601 -0.017321536 0.030371802 0.0105632795 0.04868064 -0.0007499105
0.019221965 0.05865823 0.070716955 0.057495926 0.04849449 0.007282258 -0.02168104 0.06711595
-0.06476204 0.010258045 0.0801521 0.060175702 0.06657881 0.039223146 0.05473557 0.04489703
0.036523547 0.024210243 0.027229737 0.054940015 0.016824871 -0.033736624 0.016959785 0.04749343
0.04305079 -0.018255781 0.06846097 0.066463165 0.11635424 0.063343994 -0.0020374712 0.12590791
0.071191 0.051429838 0.03945433 -0.019254247 -0.027629124 0.023540683 0.044856194 0.0057491935
0.019994404 0.019616922 0.0027000443 0.053828754 0.02367394 0.013537674 -0.013758269 0.010598786
0.015611184 -0.029416192 0.03332009 0.035230502 0.024863338 -0.018694995 0.024583409 0.027415287
0.040934872 0.008664051 -0.006150705 -0.013613949 -0.046264537 0.024663107 -0.0069406014 -0.017152604
0.037877522 0.02329565 0.035194807 0.048612993 0.04140232 0.04926248 0.0071182186 0.016355693
0.046674177 0.012906334 0.02992049 0.019111097 0.0029141437 0.021559807 0.002750526 -0.035222337
0.04548079 0.09378614 0.0453657 -0.03348981 0.017604776 0.071595095 0.04622285 0.06367177
0.03934097 0.027582709 0.03796657 0.0018922881 0.01011276 0.0033358883 0.02609607 0.03981637
0.0775856 -0.03914128 -0.008189228 0.026320633 0.038414516 -0.009358239 -0.010582703 -0.006822083
0.08583394 0.011551153 0.040080547 -0.037333593 0.0267223 0.039164927 0.04794229 0.025819914
0.023370534 -0.014018716 0.04445069 0.04106962 -0.000871228 0.006945498 0.016042275 0.025807863
0.02515664 0.056892075 0.028498609 0.10994677 0.04992478 0.01889573 0.044248242 0.015833069
-0.0073756273 0.021663146 -0.02050882 0.01925185 0.01716699 -0.018371427 0.06664348 0.038741358
-0.008496953 0.046880502 0.025800424 -0.012137872 0.052256096 -0.049103282 0.028100787 0.03157741
0.027134903 0.030344723 0.047691952 0.00978265 0.018826505 0.06494351 -0.0016160802 0.054469522
-0.027939174 0.027685242 0.024356863 0.0033772134 -0.0067663547 0.06292615 -0.0024970216 0.07634975
-0.030509233 0.05983482 0.08821956 0.035698023 0.014086521 0.032135185 0.0036397963 -0.011979784
0.071960546 0.11477436 0.04859734 0.008252398 0.020825887 0.014268817 -0.0039476315 0.004758359
0.0032968202 0.004368588 0.053376388 -0.0039357473 0.028259875 0.031576656 0.015728941 -0.008468456
0.03482791 0.003115306 -0.019337162 0.02867656 0.029310387 0.038399514 0.008946121 0.009527521
00000000: 38b5 dfbb ba38 9b3d 739a 90bc 2974 c2bb
00000010: a49c 5fbc e158 ba3d d791 893b fe0e 273d
00000020: 2bac d4bb cd77 2e3c 6c4b 8abc de68 cdbb
00000030: 9c60 a43d 75de 5d3c 36ae 1a3b 7b6f 35bc
00000040: 1ba5 5a3d fc5b 563d 4b2b ffbb 4634 703c
00000050: 4a33 173d 62a3 2abd 8caf 703c b86c 653d
00000060: 6919 2d3b 078d 5d3d 2542 4c3c 95a7 8dbc
00000070: f58e 613d 7b5c 9d3b d3f4 a9b9 871e 07bd
00000080: 3a17 8c3d ce1f 153d 949a 7ebc 36d5 af3c
00000090: b09a 243d 6c04 1f3d 39c7 6a3c 2136 623b
000000a0: 0e83 4c3d 9cc5 58bc 1b54 863d e94a c9bb
000000b0: 117d 1d3d 4d9d 043c 888b da3c ceb7 88bc
000000c0: d70e 77bb 89d9 513d 2580 a23c 7b27 723a
000000d0: 6845 b0bc 7758 703d 3569 223d 6a32 6fbc
000000e0: d297 823d fbec 923c 532e 8dbd e5e5 8dbc
000000f0: 49ce f83c 9b11 2d3c 5a65 473d a495 44ba
00000100: 6277 9d3c 9d43 703d 0dd4 903d d980 6b3d
00000110: 29a2 463d 02a0 ee3b 709c b1bc 1674 893d
00000120: f6a1 84bd 5c11 283c c926 a43d cc7a 763d
00000130: 795a 883d 73a8 203d 6832 603d f3e5 373d
00000140: b799 153d 8f54 c63c e610 df3c c808 613d
00000150: 50d4 893c 6a2f 0abd 3fef 8a3c 7988 423d
00000160: 0656 303d 268d 95bc 4435 8c3d d71d 883d
00000170: 224b ee3d 7fba 813d 1887 05bb 01ee 003e
00000180: 96cc 913d 18a8 523d dd9a 213d 15bb 9dbc
00000190: 7956 e2bc 64d8 c03c 21bb 373d bb63 bc3b
000001a0: 4ecb a33c abb3 a03c 3af3 303b 8a7b 5c3d
000001b0: daef c13c 1fcd 5d3c 5d6a 61bc 88a6 2d3c
000001c0: 0dc6 7f3c 3afa f0bc a67a 083d dc4d 103d
000001d0: 33ae cb3c 3f26 99bc 2563 c93c 0696 e03c
000001e0: 53ab 273d aaf3 0d3c da8b c9bb 0a0d 5fbc
000001f0: e27f 3dbd 490a ca3c fc6d e3bb 9e83 8cbc
00000200: 7625 1b3d 85d6 be3c 6e28 103d 6b1e 473d
00000210: 7b95 293d 74c7 493d f23f e93b 60fc 853c
00000220: 6c2d 3f3d 1775 533c d11b f53c e08e 9c3c
00000230: 38fb 3e3b 319e b03c 2b42 343b 4c45 10bd
00000240: 114a 3a3d f312 c03d 62d1 393d 9c2c 09bd
00000250: e437 903c 73a0 923d 2c54 3d3d 5866 823d
00000260: ff23 213d 22f5 e13c d682 1b3d a706 f83a
00000270: fdaf 253c eb9e 5a3b 6dc7 d53c 7d16 233d
00000280: 33e5 9e3d 9b52 20bd 1d2c 06bc 5e9e d73c
00000290: 8a58 1d3d 4d53 19bc 1363 2dbc c88b dfbb
000002a0: b4c9 af3d 0c41 3d3c 802b 243d 1ceb 18bd
000002b0: bae8 da3c 676b 203d 225f 443d 4984 d33c
000002c0: 9073 bf3c c2ae 65bc ed11 363d 9e38 283d
000002d0: 1f63 64ba 0f97 e33b 176b 833c 036b d33c
000002e0: 4c15 ce3c aa07 693d ea75 e93c c62b e13d
000002f0: ed7d 4c3d 38cb 9a3c a53d 353d 5ab4 813c
00000300: 3faf f1bb e976 b13c 1d02 a8bc 0eb6 9d3c
00000310: caa1 8c3c ad7f 96bc 607c 883d 42af 1e3d
00000320: ce36 0bbc c505 403d 695b d33c eddd 46bc
00000330: 7d0a 563d 8620 49bd 9f33 e63c 5057 013d
00000340: 044a de3c 7f95 f83c a358 433d 6847 203c
00000350: 0b3a 9a3c 1a01 853d a7d2 d3ba 6f1b 5f3d
00000360: b2e0 e4bc 29cc e23c 0b88 c73c 3d54 5d3b
00000370: 4cb8 ddbb 6ddf 803d 12a5 23bb 425d 9c3d
00000380: 80ee f9bc 5b15 753d 75ac b43d 1738 123d
00000390: 27cb 663c 2fa0 033d a689 6e3b db46 44bc
000003a0: 0d60 933d d20e eb3d 010e 473d 1135 073c
000003b0: 0d9b aa3c c2c7 693c 225b 81bb 02ec 9b3b
000003c0: 770f 583b 5f26 8f3b 33a1 5a3d 71f7 80bb
000003d0: 4181 e73c 8656 013d fbd9 803c 47bf 0abc
000003e0: b6a7 0e3d 292a 4c3b f868 9ebc 1beb ea3c
000003f0: 561c f03c cf48 1d3d c092 123c 5219 1c3c

network_body._body_endoder.seq_layers.0.weight f4 [256, 6]
-0.35577664 0.42973346 -0.25805727 -0.06476137 0.6544079 -0.21286865 0.40393403 0.08463246
0.116406195 -0.818602 0.16879591 0.34553635 0.020961517 0.2437523 -0.26676714 0.47044593
0.1690508 0.3372091 -0.26949844 -0.41617927 -0.06351381 0.055134054 0.71502984 0.04608317
0.30012763 -0.7160771 -0.2501752 0.2922388 0.32755077 0.29671896 0.0014540894 0.07440486
0.27684644 -0.47287968 -0.5035559 -0.2470368 -0.6147287 -0.6981446 -0.31250474 1.1597929
-0.33122307 -0.24716383 0.6946913 -0.11255136 0.6805529 0.41355303 -0.25434014 0.5447125
0.42750725 0.55625576 0.70488065 0.1686145 -0.12453882 0.48451138 -0.3541942 -0.3785651
-0.39447525 0.17212097 -0.24710457 0.31348532 0.2877792 0.22702044 -0.3143478 0.045279775
0.09917135 -0.19105138 0.12815171 0.593806 -0.22124991 0.24075624 0.54880667 0.40012178
-0.20650443 -0.16611789 -0.20802996 0.31448734 -0.7731931 -0.29832318 0.54310805 -0.08792217
0.37816405 0.22716913 0.32425472 0.56302685 -0.19699003 -0.20335238 -0.07539231 0.10733907
0.41373706 0.47297665 0.08365363 -0.3273953 0.22954303 0.21608265 0.012964486 -0.29206932
0.49574676 -0.05180972 0.20520608 -0.51271796 -0.14869705 0.18346806 0.87339926 -0.13991603
-0.4457984 0.6975003 -0.22303297 -0.89151543 -0.2599178 -0.5562631 1.0828291 -0.27103487
-0.457521 0.3279791 -0.04402988 -0.1601973 -0.8015587 0.42206198 -0.13056172 0.30981442
0.6435495 0.56893325 0.097778805 0.34956747 -0.18742594 0.67732394 0.54020727 0.47505474
0.019266084 0.061206758 0.24071236 -0.07043502 0.37012193 0.29268286 -0.5717968 -0.40023872
-0.056633625 -0.7811982 0.03891932 -0.52061814 -0.047142692 0.4116022 -0.71997434 0.69942135
0.14913064 0.6330351 -0.030753244 0.2615917 0.4078543 0.5193262 1.2064656 -0.1298577
0.15386234 0.41879705 -0.58876437 0.8161608 -0.3427525 0.13203089 -0.12571259 -0.14055862
0.30282754 -0.11846142 -0.31991455 -0.6486385 0.70405394 0.59250104 -0.11683739 0.057230208
0.32159457 0.022975562 0.81608444 -0.18378429 -0.8276363 0.4991733 -0.059181184 -0.05348344
0.73982346 0.124325424 0.16353863 -0.118289806 0.47689176 0.05707219 0.20085259 0.5292525
0.35611218 0.13504288 0.06658135 -0.32392082 -0.052041467 0.860633 0.19163093 -0.22893538
-0.31003368 -0.6755141 -0.1590054 0.40876162 -0.57089263 -0.16282149 0.78962886 0.10897715
0.34781626 -0.22237821 0.2331895 0.11065179 0.16713783 0.7241365 0.038215894 -0.2498766
0.6528032 -0.3119326 0.26600784 -0.34451059 0.69162226 0.23766465 0.030980911 -0.750371
-0.09788394 0.07751878 -0.20931347 -0.29846504 0.8584889 0.1575143 0.8377635 -0.27528355
-0.08800556 -0.056156423 -0.18433088 0.039645795 -0.004175371 -0.7668483 0.06756933 0.0040558707
0.31192574 0.8763411 0.71305126 -0.71299815 -0.30452687 0.10505587 0.18051471 -0.18772835
0.3243236 0.6402565 0.1952721 0.20639062 -0.412183 -0.39801174 -0.23223203 0.06327378
-0.58680147 -0.12922676 0.22261778 -0.38211313 -0.10561125 0.29972398 0.6230777 -1.1263871
00000000: 5b28 b6be 0606 dc3e 1520 84be 9ca1 84bd
00000010: 4787 273f 3dfa 59be 71d0 ce3e c853 ad3d
00000020: 5f66 ee3d e78f 51bf d6d8 2c3e 24ea b03e
00000030: 7db7 ab3c 349a 793e b495 88be 4ade f03e
00000040: a71b 2d3e aca6 ac3e b3fb 89be 7315 d5be
00000050: 8713 82bd 3fd4 613d 320c 373f b5c1 3c3d
00000060: 54aa 993e d450 37bf f716 80be 53a0 953e
00000070: bcb4 a73e 8ceb 973e 2597 be3a 9361 983d
00000080: d1be 8d3e 491d f2be 0ae9 00bf 37f7 7cbe
00000090: dc5e 1dbf 9bb9 32bf 9f00 a0be 1874 943f
000000a0: 1296 a9be 8418 7dbe 4ad7 313f 5481 e6bd
000000b0: b738 2e3f 39bd d33e df38 82be 4772 0b3f
000000c0: 3be2 da3e c766 0e3f 0f73 343f 48a9 2c3e
000000d0: 350e ffbd e011 f83e f158 b5be 49d3 c1be
000000e0: a9f8 c9be 7b40 303e fb08 7dbe 2681 a03e
000000f0: cc57 933e 0c78 683e 32f2 a0be 4977 393d
00000100: 591a cb3d f9a2 43be 343a 033e ac03 183f
00000110: 568f 62be ce88 763e 987e 0c3f c3dc cc3e
00000120: e675 53be cf1a 2abe ce05 55be 7c04 a13e
00000130: fcef 45bf d1bd 98be 2109 0b3f 8a10 b4bd
00000140: b89e c13e 069f 683e b704 a63e 8722 103f
00000150: c1b7 49be 9b3b 50be 4967 9abd 96d4 db3d
00000160: 58d5 d33e ff29 f23e 9852 ab3d 5ba0 a7be
00000170: 540d 6b3e c544 5d3e ff68 543c 1c8a 95be
00000180: 85d2 fd3e 6e36 54bd 8b21 523e 7c41 03bf
00000190: 0a44 18be 0ddf 3b3e 1897 5f3f 2646 0fbe
000001a0: b03f e4be 618f 323f c162 64be 5b3a 64bf
000001b0: f213 85be 4267 0ebf 259a 8a3f 15c5 8abe
000001c0: 3140 eabe e0ec a73e ad58 34bd c30a 24be
000001d0: f332 4dbf 8218 d83e f9b1 05be ff9f 9e3e
000001e0: a9bf 243f 9ca5 113f 4140 c83d 82fa b23e
000001f0: 96ec 3fbe 1a65 2d3f 064b 0a3f 603a f33e
00000200: e8d3 9d3c f0b3 7a3d 4d7d 763e 3c40 90bd
00000210: 9f80 bd3e 87da 953e 4661 12bf 17ec ccbe
00000220: a9f8 67bd 9bfc 47bf dd69 1f3d 3b47 05bf
00000230: b218 41bd 86bd d23e 3d50 38bf 470d 333f
00000240: b4b5 183e 970e 223f 3aee fbbc 59ef 853e
00000250: 47d2 d03e 90f2 043f 776d 9a3f 6bf9 04be
00000260: 178e 1d3e 916c d63e 43b9 16bf eaef 503f
00000270: 417d afbe 1b33 073e cdba 00be 99ee 0fbe
00000280: 360c 9b3e e79b f2bd d7cb a3be 2c0d 26bf
00000290: e13c 343f 26ae 173f 7148 efbd 396a 6a3d
000002a0: 0ba8 a43e 3f37 bc3c e9ea 503f f331 3cbe
000002b0: f9df 53bf a593 ff3e f867 72bd 7411 5bbd
000002c0: 1265 3d3f 549e fe3d ac76 273e ed41 f2bd
000002d0: 282b f43e 87c4 693d 4dac 4d3e 187d 073f
000002e0: 5654 b63e ae48 0a3e ce5b 883d f3d8 a5be
000002f0: 6f29 55bd 7252 5c3f e63a 443e 096e 6abe
00000300: bcbc 9ebe 7eee 2cbf 50d2 22be 3449 d13e
00000310: 0526 12bf adba 26be 1e25 4a3f 692f df3d
00000320: f914 b23e 1db7 63be 3ac9 6e3e 689d e23d
00000330: 2e26 2b3e 0261 393f 4588 1c3d a7df 7fbe
00000340: 1c1e 273f a1b5 9fbe 2e32 883e b163 b0be
00000350: 280e 313f 5d5e 733e aecb fd3c 5018 40bf
00000360: 6077 c8bd 2bc2 9e3d 4556 56be 69d0 98be
00000370: eec5 5b3f 6e4b 213e ab77 563f f7f1 8cbe
00000380: 423c b4bd 4704 66bd 3cc1 3cbe a163 223d
00000390: 8dd1 88bb 2c50 44bf ca61 8a3d 1ce7 843b
000003a0: bbb4 9f3e e457 603f 878a 363f 0c87 36bf
000003b0: f2ea 9bbe 8827 d73d d9d8 383e dc3b 40be
000003c0: be0d a63e dae7 233f 69f5 473e 1058 533e
000003d0: a609 d3be 32c8 cbbe 3cce 6dbe af95 813d
000003e0: 9f38 16bf 0554 04be eaf5 633e 55a4 c3be
000003f0: b64a d8bd 6c75 993e 0582 1f3f 742d 90bf

network_body._body_endoder.seq_layers.2.bias f4 [256]
0.035738423 -0.017778574 0.038565453 -0.0188389 -0.022491997 0.04262649 0.052984748 -0.00830574
-0.016860321 0.020133791 -0.008705312 0.041184027 0.011681982 -0.016036358 0.02105604 0.012334723
-0.02827326 0.04126557 0.0051509957 0.026664497 0.03178581 0.030126879 -0.0012457311 -0.022074744
0.020218872 -0.00020280105 -8.277845e-05 0.044669613 0.01827559 0.035689183 0.04962524 -0.011419367
0.0013401551 -0.031458862 0.022636408 -0.00814232 0.009504251 0.035309926 -0.01840758 0.045257296
0.03074343 -0.023669826 0.0036934216 0.040938355 -0.0021343466 0.04725015 0.0010467017 0.017382238
0.02589427 -0.004473357 0.0040882565 -0.013805572 0.022696458 0.022284541 0.036334027 0.03233899
0.016247299 -0.010292755 0.04606789 -0.013755349 0.011472077 -0.018858276 0.049834892 0.027043799
0.030207636 0.033915773 -0.02707501 -0.030768419 0.048128318 0.008577472 0.012700849 0.028747736
-0.021678282 0.031438053 0.02670693 0.042485725 0.016554873 -0.02507418 -0.0048086774 0.040878706
0.033730343 0.010125167 0.030869758 0.03696569 0.015182011 0.009329405 0.014639809 0.04142155
0.02287194 -0.018706113 0.047407422 0.006595472 -0.008314193 0.00387384 0.023992972 0.00439449
0.027287476 0.03749345 0.00033666656 0.017375592 0.031471815 0.039352063 0.0002447763 0.014452857
0.025177695 -0.0012552 0.003787351 0.0045831194 -0.007473261 0.011222396 -0.0251319 0.041013073
0.02354983 -0.0050795884 -0.006079988 0.01137976 -0.010024009 0.02112876 0.012753938 0.030893682
0.030658156 0.0111566875 -0.004040398 0.0381013 0.048167527 -0.035389815 -0.010649164 -0.021694789
0.023869002 0.024898093 -0.02529776 -0.021461712 -0.023183456 0.013534566 0.023773529 -0.009145635
-0.00030713234 0.016128166 -0.017458856 0.02378599 0.027188802 -0.0199473 0.031172963 0.038784556
0.052075543 0.022746097 0.019641334 -0.006515708 0.0012759888 0.04018714 0.019972112 0.049936265
0.010889432 0.027223438 0.018295454 0.0052323537 0.037684802 0.05563498 0.0044814865 -0.0120576015
-0.031291764 -0.011107708 -0.009431768 0.027002238 0.02831664 0.027178168 -0.018749395 0.049603455
-0.015911367 0.021795062 0.01784466 0.006585481 -0.023548638 0.01851915 -0.008334684 0.009887458
0.026095105 -0.009750423 0.026333973 0.042565722 0.017489677 0.031015817 0.0010484088 -0.017548291
0.0068157376 0.0071753347 -0.049764957 -0.025045842 -0.038841356 -0.031586405 0.051909897 0.020323196
0.0197272 0.027323753 0.040145125 0.05132462 0.017885687 -0.011903249 0.024034806 -0.018137353
0.010132908 0.012381491 0.043183215 -0.035590257 0.027871883 -0.004890093 -0.006137963 0.01029103
0.030595712 0.02419196 0.019452292 0.033299997 0.0109223435 -0.021108836 0.056253225 0.016328825
0.01486292 -0.0020939824 0.039753057 0.005988053 0.050828252 0.011346471 0.038921613 0.049789485
0.045881953 0.036645025 0.04265603 -0.0031766542 -0.0008089854 0.030197335 -0.047004197 0.007990569
0.037409395 0.050650287 -0.0241104 0.041635573 0.0084194 0.018508555 -0.02331701 -0.0055128587
0.023418399 -0.011435626 -0.01113608 0.013563901 -0.029243276 -0.020322623 0.035183996 0.017568396
0.018207414 0.022110634 0.023895923 -0.024996912 0.023664802 -0.032519877 0.031485103 0.01479371
00000000: 7462 123d 5fa4 91bc cff6 1d3d 0954 9abc
00000010: 2341 b8bc 1d99 2e3d 8906 593d cc14 08bc
00000020: a81e 8abc 9fef a43c baa0 0ebc 95b0 283d
00000030: c965 3f3c ae5e 83bc b77d ac3c 9417 4a3c
00000040: 539d e7bc 1606 293d afc9 a83b 816f da3c
00000050: d631 023d a5cc f63c cd47 a3ba 18d6 b4bc
00000060: 0ca2 a53c fea6 54b9 5899 adb8 7cf7 363d
00000070: b1b6 953c d22e 123d d643 4b3d 4c18 3bbc
00000080: 25a8 af3a 02db 00bd fd6f b93c 5e67 05bc
00000090: b8b7 1b3c 24a1 103d 7ecb 96bc b75f 393d
000000a0: a5d9 fb3c 39e7 c1bc 550d 723b faae 273d
000000b0: 65e0 0bbb 6089 413d 7b31 893a 3265 8e3c
000000c0: 3820 d43c 3d95 92bb c8f6 853b c430 62bc
000000d0: eced b93c 128e b63c fdd2 143d e475 043d
000000e0: 0e19 853c f2a2 28bc afb1 3c3d 1e5e 61bc
000000f0: 61f5 3b3c ac7c 9abc ac1f 4c3d f58a dd3c
00000100: 0176 f73c 44eb 0a3d 69cc ddbc 0d0e fcbc
00000110: 3322 453d 8688 0c3c 3917 503c 5f80 eb3c
00000120: a796 b1bc 30c5 003d 7ec8 da3c 8305 2e3d
00000130: 169e 873c 5e68 cdbc 1c92 9dbb 6e70 273d
00000140: d428 0a3d 07e4 253c 93e2 fc3c 5669 173d
00000150: f8bd 783c 5cda 183c cfdb 6f3c a5a9 293d
00000160: ef5d bb3c 903d 99bc 492e 423d d41e d83b
00000170: 4138 08bc 40e0 7d3b e98c c43c a7ff 8f3b
00000180: fc89 df3c bb92 193d 9f82 b039 4257 8e3c
00000190: 97e8 003d a12f 213d 5255 8039 adcb 6c3c
000001a0: 7441 ce3c 8685 a4ba 3535 783b fe2d 963b
000001b0: 42e2 f4bb 24de 373c 6ae1 cdbc 53fd 273d
000001c0: 93eb c03c ad72 a6bb a33a c7bb 2c72 3a3c
000001d0: be3b 24bc 3916 ad3c e5f5 503c bf14 fd3c
000001e0: d026 fb3c 8aca 363c 5165 84bb 1c10 1c3d
000001f0: 504b 453d e9f4 10bd d579 2ebc 45b9 b1bc
00000200: ed88 c33c 16f7 cb3c 3f3d cfbc 79d0 afbc
00000210: 3beb bdbc 16c0 5d3c b4c0 c23c 93d7 15bc
00000220: 9b06 a1b9 371f 843c e005 8fbc d6da c23c
00000230: 0dbb de3c 8568 a3bc 715e ff3c 8edc 1e3d
00000240: 2a4d 553d 0656 ba3c dde6 a03c b881 d5bb
00000250: 143f a73a 459b 243d 8e9c a33c f889 4c3d
00000260: 9769 323c b003 df3c 59e0 953c 2a74 ab3b
00000270: 615b 1a3d 81e1 633d 6fd9 923b 3f8d 45bc
00000280: cb2b 00bd 1bfd 35bc b487 1abc cc33 dd3c
00000290: 4cf8 e73c c0a4 de3c 5598 99bc fe2c 4b3d
000002a0: 8e58 82bc 8f8b b23c f72e 923c 05cb d73b
000002b0: 13e9 c0bc 79b5 973c 338e 08bc 01ff 213c
000002c0: 67c5 d53c 3dc0 1fbc 58ba d73c 6559 2e3d
000002d0: 8346 8f3c e214 fe3c c36a 893a 6fc1 8fbc
000002e0: 8d56 df3b 121f eb3b 57d6 4bbd f02c cdbc
000002f0: 1d18 1fbd bf60 01bd 799f 543d d57c a63c
00000300: f09a a13c 10d6 df3c 376f 243d c439 523d
00000310: 0185 923c d805 43bc a4e4 c43c c994 94bc
00000320: 7f04 263c bddb 4a3c e2e0 303d 17c7 11bd
00000330: 9353 e43c 133d a0bb f720 c9bb b59b 283c
00000340: dca3 fa3c 382e c63c 6a5a 9f3c 9465 083d
00000350: a1f3 323c 70ec acbc c869 663d 07c4 853c
00000360: 9b83 733c 323b 09bb 1ad4 223d 6e37 c43b
00000370: 4931 503d 8ce6 393c 456c 1f3d 0ff0 4b3d
00000380: b7ee 3b3d 1819 163d 17b8 2e3d 6a2f 50bb
00000390: 1712 54ba 6760 f73c 7987 40bd e0ea 023c
000003a0: 983a 193d ad76 4f3d 2c83 c5bc 108a 2a3d
000003b0: 86f1 093c 419f 973c 5003 bfbc 36a5 b4bb
000003c0: f1d7 bf3c 7e5c 3bbc 1b74 36bc 203b 5e3c
000003d0: 988f efbc a17b a6bc 181d 103d 99eb 8f3c
000003e0: b727 953c 5c21 b53c 62c1 c33c 53c6 ccbc
000003f0: b0dc c13c 9033 05bd 86f6 003d 5161 723c

network_body._body_endoder.seq_layers.2.weight f4 [256, 256]
-0.12042037 -0.013744107 0.06649713 0.00057826226 -0.016937286 0.03371892 0.13772003 -0.0026507354
0.098915786 -0.09390533 0.110235356 -0.045055237 0.06894068 0.0026497778 -0.003450978 0.09453892
-0.013629279 0.07687197 -0.1760427 0.020544674 0.028894141 -0.03642131 0.025812099 0.1285531
0.0059582517 0.17508896 -0.017222939 -0.023858642 0.17492257 0.026934406 0.12376944 0.008703364
-0.02797521 0.12909156 -0.012280163 0.046558112 -0.2114414 0.107024625 -0.03701885 0.08083803
0.17453296 -0.06609041 -0.09649598 0.08094104 -0.020982055 -0.17453307 -0.008719867 0.037661202
-0.100241005 -0.25111634 -0.059139997 0.06144607 -0.113751985 0.014661702 -0.076582454 -0.021355445
-0.001323526 0.117467195 0.059168026 -0.0045804856 0.075735465 -0.15341072 -0.012130526 -0.043145295
0.020984527 0.064298496 0.025103994 -0.08694445 -0.030983541 -0.05510678 0.05176203 -0.079733744
-0.026024392 0.2197966 -0.17677647 0.18706743 0.031281147 0.08556957 0.030607233 0.024653286
0.03457668 -0.12427342 -0.045767166 0.027525526 -0.02278738 0.017070366 0.092770204 0.00486288
-0.15760551 -0.08834184 0.03316025 0.22460285 -0.04232246 0.0061040875 0.09889171 -0.08828025
0.033534344 0.0016254018 -0.17688812 -0.08344014 0.084154926 0.052390713 -0.0819647 0.06289204
0.11988422 -0.033467676 0.06876152 -0.068228915 -0.016713306 0.03942588 -0.08764573 0.069702215
0.04987824 0.07951202 -0.12799317 -0.052416686 0.060172178 0.11005839 -0.29766414 -0.07284128
0.019716734 -0.06837842 -0.12673451 0.13126206 -0.04415246 -0.21031186 0.04838481 0.039501876
-0.017902305 -0.09889261 0.17000724 -0.17432779 -0.02202292 0.01357959 -0.10225613 0.14432862
0.30093965 0.0006879096 0.13550533 -0.16780497 0.14384414 0.07720411 -0.03305711 0.024318254
0.1481287 -0.0403632 -0.08977913 -0.0348997 -0.053905398 0.049415823 -0.014785039 0.048356865
0.089375995 -0.103290185 0.0801059 0.027381234 -0.07597624 -0.08686045 0.017879168 -0.0052254214
-0.0056458567 0.029209508 0.00879163 0.044092335 0.07720049 -0.039828587 0.046141133 0.0177702
-0.056496855 0.039248437 -0.08362673 0.035365786 0.12758219 0.05095053 0.04371962 0.20344664
0.09808753 -0.037477616 0.021082163 0.07516637 -0.068318404 -0.037637107 -0.033124078 -0.12819621
-0.117350884 0.09270099 -0.038980734 0.091621436 0.20567489 -0.086344145 -0.11097215 -0.028867608
0.11751032 0.021836763 -0.12081243 -0.07799449 -0.06876743 0.04115663 -0.11105635 -0.08895184
0.047182888 0.06267527 -0.12578733 0.030521948 0.17124033 -0.031069255 0.0299203 0.0054926826
0.19583867 0.07025482 0.012454159 -0.18699464 -0.105267376 -0.07995852 0.040718004 -0.010561105
0.12650712 0.09008121 0.18043445 -0.16363993 -0.08854162 -0.056363035 0.11377359 0.16265781
0.076468915 0.027602918 0.10975926 -0.08629408 0.03204474 0.06032553 -0.102099 0.03368759
-0.08866291 0.06036272 0.1439048 -0.03244282 -0.05405284 -0.117785655 0.03341155 0.11156205
-0.056125622 -0.027186869 0.06409422 0.013095923 0.03895983 -0.027010977 -0.07813871 0.12752837
0.1683021 -0.082779095 0.025900917 0.06939942 -0.09167677 -0.027978525 0.17690402 -0.10783899
00000000: f49e f6bd f72e 61bc a62f 883d 8696 173a
00000010: 10c0 8abc da1c 0a3d 7b06 0d3e f6b7 2dbb
00000020: 5c94 ca3d 7051 c0bd 13c3 e13d d78b 38bd
00000030: c530 8d3d e5a7 2d3b ce29 62bb 9f9d c13d
00000040: 574d 5fbc 0d6f 9d3d 8a44 34be 4e4d a83c
00000050: 68b3 ec3c 832e 15bd e573 d33c 6da3 033e
00000060: 703d c33b 854a 333e 1f17 8dbc 3373 c3bc
00000070: e71e 333e 8ba5 dc3c d57a fd3d 8e98 0e3c
00000080: 452c e5bc 9430 043e bd32 49bc b8b3 3e3d
00000090: 1884 58be ba2f db3d 14a1 17bd 698e a53d
000000a0: c5b8 323e 695a 87bd af9f c5bd 6ac4 a53d
000000b0: 8fe2 abbc ccb8 32be c6dd 0ebc a242 1a3d
000000c0: 284b cdbd 5292 80be c83c 72bd e0ae 7b3d
000000d0: cdf6 e8bd a337 703c 43d7 9cbd 9df1 aebc
000000e0: 2a7a adba a492 f03d 2c5a 723d e617 96bb
000000f0: 321b 9b3d b317 1dbe 1dbf 46bc 1fb9 30bd
00000100: bee7 ab3c eeae 833d e4a6 cd3c ef0f b2bd
00000110: 32d1 fdbc a6b7 61bd 6c04 543d 724b a3bd
00000120: 1b31 d5bc 5c12 613e e404 35be 9b8e 3f3e
00000130: a920 003d 193f af3d 05bc fa3c b0f5 c93c
00000140: 47a0 0d3d 1083 febd 5a76 3bbd 367d e13c
00000150: 99ac babc 27d7 8b3c 4efe bd3d cb58 9f3b
00000160: 5763 21be 91ec b4bd 0bd3 073d 4afe 653e
00000170: 515a 2dbd cc04 c83b bd87 ca3d 47cc b4bd
00000180: 4f5b 093d 6f0b d53a 2922 35be aae2 aabd
00000190: 6b59 ac3d a597 563d 1cdd a7bd 8bcd 803d
000001a0: dc85 f53d 6715 09bd d7d2 8c3d 9abb 8bbd
000001b0: 58ea 88bc 087d 213d 9b7f b3bd 09c0 8e3d
000001c0: 204d 4c3d 33d7 a23d a410 03be e1b2 56bd
000001d0: 1a77 763d 4b66 e13d 6f67 98be cf2d 95bd
000001e0: fd84 a13c fc09 8cbd b1c6 01be 9069 063e
000001f0: 36d9 34bd fe5b 57be 272f 463d b8cc 213d
00000200: dba7 92bc 3588 cabd 6116 2e3e fc82 32be
00000210: 6969 b4bc ee7c 5e3c a96b d1bd e2ca 133e
00000220: c314 9a3e d554 343a e9c1 0a3e 11d5 2bbe
00000230: e14b 133e 301d 9e3d e466 07bd 1337 c73c
00000240: 0daf 173e e253 25bd 1fde b7bd fdf2 0ebd
00000250: e8cb 5cbd 3f68 4a3d f33c 72bc d911 463d
00000260: c30a b73d ce89 d3bd 900e a43d 9c4e e03c
00000270: 6e99 9bbd e4e3 b1bd 5577 923c 033a abbb
00000280: e100 b9bb c748 ef3c c50a 103c 2a9a 343d
00000290: 4a1b 9e3d 4d23 23bd 7cfe 3c3d cf92 913c
000002a0: 3f69 67bd f8c2 203d 7e44 abbd b7db 103d
000002b0: e8a4 023e 81b1 503d 5813 333d 5154 503e
000002c0: 1de2 c83d 2182 19bd 80b4 ac3c d3f0 993d
000002d0: 85ea 8bbd 5e29 1abd 1dad 07bd de45 03be
000002e0: a955 f0bd 04da bd3d 43aa 1fbd 05a4 bb3d
000002f0: 709c 523e 33d5 b0bd 5e45 e3bd c37b ecbc
00000300: 40a9 f03d 03e3 b23c 826c f7bd 93bb 9fbd
00000310: f0d5 8cbd db93 283d 8371 e3bd 622c b6bd
00000320: d842 413d e45b 803d 65ce 00be 2a09 fa3c
00000330: a059 2f3e f384 febc 6b1b f53c f6fb b33b
00000340: ef89 483e c2e1 8f3d 870c 4c3c 867b 3fbe
00000350: 6c96 d7bd 4bc1 a3bd ecc7 263d 7c08 2dbc
00000360: 158b 013e 7f7c b83d cfc3 383e 3a91 27be
00000370: 4f55 b5bd eddc 66bd 2102 e93d c58f 263e
00000380: bc9b 9c3d 841f e23c 77c9 e03d f3ba b0bd
00000390: 5841 033d e717 773d 4819 d1bd 00fc 093d
000003a0: e694 b5bd e63e 773d c85b 133e c3e2 04bd
000003b0: 8366 5dbd 9b39 f1bd 8dda 083d a57a e43d
000003c0: fbe3 65bd ffb6 debc d543 833d 4890 563c
000003d0: 5894 1f3d 2046 ddbc 3007 a0bd cc96 023e
000003e0: 6357 2c3e 1688 a9bd 292e d43c 4821 8e3d
000003f0: 08c1 bbbd 3833 e5bc 5426 353e b0da dcbd
