Assets/6. Results/Staff_Stage1_V1.onnx (onnx, 303109 bytes, 9 tensors)

action_model._discrete_distribution.branches.0.bias f4 [2]
0	0x3c5a4525	0.013322149
1	0xbc5a452d	-0.013322157

action_model._discrete_distribution.branches.0.weight f4 [2, 256]
0	0xbccafbcc	-0.02477827
1	0xbc08f830	-0.008359954
2	0x3bbe4d93	0.0058075874
3	0x3d4ccf12	0.050002165
4	0x3cc5ef5a	0.024161983
5	0x3d40fc23	0.047115456
6	0x3c53b528	0.012921609
7	0xbd26e314	-0.040743902
8	0x3ce09044	0.027412541
9	0xbd1f6623	-0.038915765
10	0xbc29bae7	-0.010359502
11	0xbc1a25b9	-0.009408408
12	0x3d0b6345	0.034030218
13	0xbdaaef8a	-0.0834647
14	0x3d1f8c64	0.038952246
15	0xbd837f68	-0.06420785
16	0x3c45da12	0.012075918
17	0xbc40cab9	-0.011767083
18	0xba4e1e56	-0.0007862797
19	0xbd512bb0	-0.051067054
20	0x3c4abbb6	0.012373855
21	0xbd413123	-0.047166
22	0xbd9d0daa	-0.07668622
23	0x3d7c8a03	0.061655056
24	0xbc5c0ddb	-0.013431038
25	0x3c2912e9	0.01031945
26	0x3cb945b8	0.022616252
27	0xbd1f5f37	-0.038909163
28	0x3c0ef812	0.008726137
29	0x3cc570a7	0.024101568
30	0x3d53bba8	0.051692635
31	0x3d0aaa29	0.033853684
32	0xbcc7fe89	-0.024413364
33	0x3b2175d9	0.0024636893
34	0xbc98e601	-0.018664362
35	0xbd2c79c4	-0.042108312
36	0xbb850bb0	-0.004060231
37	0xbd44e0fe	-0.04806613
38	0x3d122bbc	0.03568624
39	0xbab18c94	-0.0013545924
40	0xbd10b2d4	-0.035326794
41	0xbcb027d4	-0.021503367
42	0xbd35ccc7	-0.044384744
43	0xbcb4d3bb	-0.022073617
44	0x3d47b4f9	0.048756573
45	0xbca4d904	-0.020123012
46	0x3c3c8900	0.011507273
47	0x3ba1638c	0.004925197
48	0xbce0fd0b	-0.02746441
49	0x3ccde810	0.02513507
50	0xbd8e7dc4	-0.06957582
51	0x3be58f2c	0.007005593
52	0xbc23a412	-0.009987848
53	0xbd641338	-0.05568239
54	0xbd75dd91	-0.060025755
55	0x3c5c10a1	0.013431699
56	0xbd85a3e4	-0.065254
57	0xbccd3635	-0.025050262
58	0x3b5a3c2f	0.0033300032
59	0x3d44b82f	0.048027214
60	0x3a96d902	0.0011508765
61	0x3bdba15d	0.0067025856
62	0x3cb0bf7c	0.021575682
63	0x3cb39607	0.021922125
64	0x3d2fd73b	0.04292987
65	0xbb0f3f86	-0.0021857931
66	0x3b64e4e8	0.0034926478
67	0xbcda6092	-0.026657376
68	0xbc39b1f5	-0.011333932
69	0x3c96b675	0.01839755
70	0x3d4e3db4	0.050351813
71	0x3d487bf0	0.04894632
72	0x3c663dc9	0.014052817
73	0x3ce4e547	0.02794136
74	0xb9f68752	-0.00047021598
75	0xbcce6362	-0.025193874
76	0xbd00edbe	-0.03147673
77	0x3bdf41a3	0.0068132444
78	0xbd15e161	-0.03659189
79	0x3c244107	0.010025269
80	0xbcea14a7	-0.0285743
81	0xbd9abcfb	-0.075555764
82	0xbb24704c	-0.0025091348
83	0xbc8338af	-0.01601824
84	0x3d4bc339	0.049746726
85	0x3c09c63f	0.008409082
86	0xbda35d26	-0.07976751
87	0x3d389fba	0.045074202
88	0x3bdc064b	0.0067146174
89	0x3d80ac06	0.06282811
90	0x3d779dc5	0.060453195
91	0xbb4b5ed2	-0.003103186
92	0xbbcfc747	-0.0063408944
93	0xbd4d693b	-0.050149184
94	0xbd6faaa6	-0.058512352
95	0xbd52ac64	-0.051433936
96	0xbd8806c4	-0.066419154
97	0x3d2f43eb	0.04278938
98	0x3aa3b043	0.0012488443
99	0xbc8b3468	-0.016992763
100	0xbd72bcea	-0.059262194
101	0x3bac37fc	0.0052556973
102	0x3d07c4b5	0.03314658
103	0x3cd1246e	0.025530066
104	0x3d116c7e	0.035503857
105	0x3c997c50	0.018736035
106	0x3d85aff9	0.06527705
107	0xbcde6900	-0.027149677
108	0xbcc24e6d	-0.023719037
109	0x3d432a58	0.047647804
110	0x3c980e7d	0.018561596
111	0xbbf1418d	-0.0073625506
112	0x3cccb6db	0.024989536
113	0x3d05dad8	0.03267941
114	0x3c33b7cb	0.010969113
115	0xbdb9c94f	-0.090716
116	0x3d85ed99	0.06539459
117	0x3cb20534	0.021730997
118	0x3c020311	0.007935301
119	0xbb7f671b	-0.0038971368
120	0x3d419cda	0.047268726
121	0xbd968e61	-0.07351375
122	0x3d42dbaf	0.047572788
123	0x3c734e17	0.014850161
124	0xbb7eab48	-0.0038859416
125	0x3c9cd42c	0.01914414
126	0xbd87b245	-0.06625799
127	0xbd2735ac	-0.04082267
128	0x3ceabd2a	0.028654654
129	0x3b0c9e7d	0.002145677
130	0xbd80c01a	-0.062866405
131	0x3d6e0c89	0.058117423
132	0xbc20f5d5	-0.009824236
133	0xbd2b0726	-0.041754864
134	0xbc9686b1	-0.018374773
135	0x3ca6cfa2	0.020362679
136	0xbcb37d55	-0.021910349
137	0x3bde9b8b	0.0067934445
138	0xbd47cf49	-0.048781667
139	0xbc615816	-0.0137539115
140	0x3c90028d	0.017579341
141	0xbc8755da	-0.01652043
142	0x3c04c653	0.008103925
143	0xbd7fbc52	-0.062435456
144	0xbd808938	-0.062761724
145	0xbc5e6bf5	-0.013575544
146	0xbc173ba8	-0.009230532
147	0x3d9257d8	0.07145661
148	0x3d1a6d63	0.037701976
149	0xbd1f4bc5	-0.03889062
150	0xbc3c7cf7	-0.011504403
151	0xbb624c17	-0.0034530216
152	0xbda1ec76	-0.079064295
153	0x3cac54c9	0.021036522
154	0x3cb50b7a	0.022100199
155	0x3d1ad34f	0.037799176
156	0xbcb2e4e3	-0.021837657
157	0xbd578bfe	-0.05262374
158	0x3c95e992	0.018299852
159	0xbb99f340	-0.004698187
160	0x3bf73c60	0.007545039
161	0x3d245f6b	0.04013006
162	0xbd2eeccd	-0.0427063
163	0x3b32442e	0.0027201283
164	0xbccb5656	-0.024821442
165	0x3c995315	0.018716374
166	0x3d3e2d30	0.046429813
167	0xbb942fff	-0.004522323
168	0xbc037f14	-0.008025903
169	0x3c162439	0.00916391
170	0xbc5685dd	-0.013093439
171	0xbb1bed33	-0.0023792505
172	0x3d205804	0.03914644
173	0xbd186f06	-0.037215255
174	0x3d0db994	0.03460081
175	0xbca77d32	-0.02044544
176	0x3c59df1f	0.013297825
177	0x3a8f5693	0.0010935835
178	0xbd051c5a	-0.03249774
179	0x3d330166	0.043702506
180	0xbcab4ddb	-0.020911148
181	0x3d1a0ebb	0.037611704
182	0x3d1cd2e3	0.038287055
183	0xbd3c8b37	-0.046031203
184	0xbcd2d75f	-0.025737463
185	0x3d1e07ba	0.038581587
186	0x3b097c89	0.002097877
187	0x3d555b44	0.05208899
188	0x3b1b390e	0.002368513
189	0x3c6abc88	0.014327176
190	0xbca414a2	-0.02002937
191	0x3cdbe912	0.026844535
192	0xbc4be768	-0.012445308
193	0x3d8fef13	0.07028022
194	0x3cce8396	0.02520923
195	0x3bc2dbe3	0.0059466227
196	0xbd377c86	-0.04479649
197	0xba102513	-0.00054986886
198	0x3c516917	0.012781403
199	0xbd3ae1c6	-0.04562547
200	0x3d307b4a	0.043086328
201	0xbc9448bc	-0.018101089
202	0xbd9d0b0d	-0.076681234
203	0x3c0ef13a	0.008724505
204	0xbbcf9d46	-0.006335887
205	0x3d2104d7	0.039311256
206	0x3bc2ffdf	0.0059509124
207	0x3d4b4f0d	0.049635936
208	0x3d4de7e6	0.050269984
209	0x3ce514d1	0.027964028
210	0x3d2dcc1b	0.04243098
211	0xbc123101	-0.008922816
212	0x3d3ad211	0.04561049
213	0xbd754d46	-0.059888147
214	0xbd454984	-0.048165813
215	0x3d69543c	0.056965098
216	0x3d2a866e	0.04163211
217	0x3d1aee98	0.037825197
218	0x3cf074c8	0.02935256
219	0x3cd4f82a	0.02599724
220	0x3b186677	0.0023254433
221	0x3c23a2e7	0.009987569
222	0x3cf2416b	0.02957221
223	0xbd26d1c0	-0.040727377
224	0x3bcdce57	0.006280701
225	0x3d5520ba	0.052033164
226	0xbc079c40	-0.008276999
227	0xbdbf7f1c	-0.09350416
228	0xbd5b4b5b	-0.05353866
229	0x3ce74088	0.028229013
230	0xbc9926ca	-0.018695254
231	0xbb02354a	-0.0019868189
232	0x3cb3f715	0.021968404
233	0xbd9c7bff	-0.07640838
234	0xbd5946c5	-0.053046007
235	0xbd3e2822	-0.046424992
236	0xbd2260b4	-0.039643005
237	0x3cfddc4a	0.030988831
238	0xbdb1f582	-0.08689405
239	0x3ceaa53b	0.028643241
240	0x3c06c4cb	0.00822563
241	0x3d4b2d6e	0.049603872
242	0x3cface62	0.03061599
243	0x3d649b2e	0.055812053
244	0xbd451b96	-0.04812201
245	0xbd06eb95	-0.032939512
246	0xbd1cfd7d	-0.038327683
247	0x3ccc7a84	0.024960764
248	0xbbd7b4da	-0.0065828385
249	0x3d354b71	0.0442614
250	0xbaf2d146	-0.0018525503
251	0x3ba01a3a	0.004885939
252	0x3bcb350c	0.006201392
253	0xbc9512d5	-0.018197456
254	0x3c50a1de	0.012733905
255	0xb80d491d	-3.368511e-05

action_model._discrete_distribution.branches.1.bias f4 [3]
0	0xbb032f79	-0.002001731
1	0x3c57cd3b	0.013171489
2	0xbba69f7f	-0.0050849314

action_model._discrete_distribution.branches.1.weight f4 [3, 256]
0	0x3c95acf6	0.01827095
1	0xbc30f495	-0.0108005
2	0x3b7bc55b	0.0038417194
3	0xbbc7c1cc	-0.0060961004
4	0xbac63870	-0.0015123021
5	0xbc25a09b	-0.010109092
6	0x3bb224a2	0.005436496
7	0x3c149953	0.0090697585
8	0xbcd3316c	-0.025780402
9	0xbb1772a7	-0.002310911
10	0x3c4f1db5	0.01264136
11	0xbb3b559d	-0.0028584965
12	0xbcc2633d	-0.023728961
13	0x3bc422ae	0.0059855795
14	0xbc7813f0	-0.015141472
15	0x3c211428	0.009831466
16	0xbbd70e03	-0.0065629496
17	0xbbfd7cf8	-0.0077358447
18	0xba640da6	-0.00086995435
19	0x3c82d20b	0.015969297
20	0x37aa0469	2.0267633e-05
21	0x3c708d12	0.014682071
22	0x3be1a1b9	0.006885734
23	0xbc78ef65	-0.015193795
24	0x3a1df428	0.0006025457
25	0x3c50b2a6	0.012737906
26	0xbca86b26	-0.020558905
27	0x3c170f95	0.009220024
28	0xbc03608e	-0.008018626
29	0xbb9b5dce	-0.004741407
30	0x3b4176ca	0.0029520267
31	0xbc43f009	-0.011959084
32	0x3cc3fd42	0.023924474
33	0xbc22fdab	-0.0099481745
34	0x3c6a8014	0.014312763
35	0x3cc437c1	0.023952367
36	0x3b00db7c	0.0019662073
37	0x3cafcc7f	0.021459816
38	0xbbc5420e	-0.006019837
39	0x3c9ef904	0.01940585
40	0xb98512cc	-0.00025381742
41	0xbb0718e7	-0.0020614208
42	0xbb14d83c	-0.0022711894
43	0x3b261b52	0.0025345874
44	0xbc8a8c69	-0.016912656
45	0xbb1b4989	-0.0023694953
46	0x3c43446b	0.011918168
47	0xbb471302	-0.003037632
48	0xbb2034fb	-0.0024445641
49	0xbaa6ce59	-0.0012726291
50	0x3ccfdb0d	0.025373006
51	0xbad66371	-0.001635654
52	0x3b7dc616	0.0038722805
53	0x3bee9e89	0.0072820825
54	0x3c563841	0.013074935
55	0xbc3bce2e	-0.011462731
56	0x3c745ca2	0.0149146635
57	0xbc71a6d7	-0.01474925
58	0xbc30bc6e	-0.010787113
59	0xbb920cc2	-0.0044570873
60	0x3c727b3b	0.014799888
61	0x3cf757ec	0.030193292
62	0xbc1b0673	-0.009461987
63	0xbc17302c	-0.009227794
64	0xbaaa622a	-0.0012999226
65	0x3bbe1bce	0.0058016544
66	0x3baa8f30	0.0052050576
67	0x3bd11256	0.0063803596
68	0x3c6b43cd	0.014359427
69	0xbc95ea0f	-0.018300084
70	0xbcb33099	-0.02187376
71	0xbc88d7b4	-0.016704418
72	0xbbe6a6f7	-0.0070389467
73	0xbc115114	-0.008869428
74	0xbc630c5d	-0.013857928
75	0x3ca264bc	0.019823425
76	0x3ccf3670	0.025294513
77	0xbc5e2b73	-0.013560164
78	0xbb7fc1a2	-0.0039025326
79	0xbb9a78c6	-0.0047141043
80	0xbb3c36c1	-0.002871916
81	0x3c952111	0.018204244
82	0x39df6d74	0.00042615423
83	0x3cafcef2	0.021460984
84	0xba60d5e3	-0.00085767935
85	0x3b8adb0a	0.0042375373
86	0x3b13a05f	0.0022526009
87	0xbb910455	-0.0044255652
88	0x3b93a9f6	0.004506345
89	0xbc93a211	-0.018021615
90	0xbb79b443	-0.003810183
91	0x3c4a09e8	0.012331463
92	0x3c158609	0.009126195
93	0x3c175862	0.009237381
94	0xbacfa95b	-0.0015843319
95	0x3c97b69a	0.018519688
96	0x3bdb9576	0.0067011667
97	0xbb67d1fb	-0.003537296
98	0xbbb65d88	-0.005565349
99	0x3c1806fd	0.00927901
100	0x3c38a347	0.011269397
101	0xbcc33f70	-0.02383396
102	0xbb2bb870	-0.0026202463
103	0xbb6ca680	-0.0036109984
104	0xbb8a514d	-0.0042211176
105	0xbc53238a	-0.012886891
106	0xbc4e9c98	-0.012610577
107	0xbc0ae34e	-0.008477045
108	0xbc4df82a	-0.012571374
109	0xbb9702c9	-0.0046084863
110	0x3bb44467	0.0055013183
111	0xbb5b0066	-0.0033416986
112	0xbbc71000	-0.0060749054
113	0xbc809ff3	-0.01570127
114	0xbb418db6	-0.002953393
115	0x3c65e9b6	0.014032772
116	0xbc504a01	-0.012712956
117	0xbc1da551	-0.009621934
118	0xbc25190a	-0.010076771
119	0xbc192141	-0.009346307
120	0xbc0cee40	-0.008601725
121	0x3c7f9531	0.015599535
122	0xbb624b63	-0.0034529797
123	0xbc0330f0	-0.008007273
124	0x3c2a0119	0.010376238
125	0x3b3f3ea7	0.002918163
126	0x3c8def9d	0.01732617
127	0xbb145f96	-0.0022639981
128	0xbba60347	-0.0050663087
129	0x3a5a202a	0.0008320833
130	0x3c0f523c	0.008747634
131	0xbd01efab	-0.031722706
132	0xbabcdcb3	-0.0014409035
133	0xbb29f7ab	-0.0025934975
134	0x3ba65062	0.0050755003
135	0x3b5d866b	0.0033802043
136	0xbc8dd210	-0.01731208
137	0xb951be69	-0.00020002727
138	0x3cebb476	0.028772574
139	0x3c7cf7b1	0.015439914
140	0xbca96f96	-0.020683091
141	0xbbaf1adf	-0.0053437795
142	0xbb9f6122	-0.004863874
143	0x3c0df08e	0.00866331
144	0x39dde759	0.00042324772
145	0xba924f1b	-0.0011162491
146	0xb9f04e87	-0.00045834875
147	0xbc752a1f	-0.014963656
148	0xbbe6394a	-0.0070258724
149	0x3c2249e6	0.009905314
150	0x3c74e273	0.014946568
151	0x3bb2b683	0.005453886
152	0x3c2da458	0.010598265
153	0xba71d29b	-0.0009224803
154	0xbc9c3817	-0.019069714
155	0xbb873af7	-0.004126902
156	0x3b6e69b7	0.003637893
157	0x3c4b8e80	0.012424111
158	0x3aee66af	0.0018188561
159	0xbc0041a6	-0.007828152
160	0xbbc418b3	-0.0059843897
161	0xbc8cd5c5	-0.017191777
162	0x3cc1dd21	0.023665013
163	0x3c39b1ce	0.011333896
164	0x3c83c7f3	0.016086554
165	0xbc370d38	-0.011172585
166	0xbaa5ca40	-0.0012648776
167	0xbc27f293	-0.010250705
168	0xbc0c14c1	-0.00854987
169	0x3b892884	0.004185738
170	0x3c9043dd	0.017610485
171	0x3c336137	0.010948471
172	0xbc4a8664	-0.012361143
173	0x3b4cd12a	0.0031252601
174	0xbc94ffe0	-0.018188417
175	0x3ca13f82	0.019683603
176	0x3c814b43	0.015782958
177	0xbc92705e	-0.017875846
178	0xbc65e44f	-0.014031484
179	0xbbc469d6	-0.005994062
180	0x3a595c9e	0.0008291694
181	0xbbc26fc5	-0.005933734
182	0xbcb3b61f	-0.021937428
183	0xba802eb7	-0.0009779547
184	0xbc4d7e0f	-0.012542262
185	0x3aa78c50	0.0012782905
186	0xbc8a87ff	-0.016910551
187	0xbc6d8b77	-0.014498583
188	0x3b14edeb	0.0022724818
189	0x3caa00d2	0.020752344
190	0xbbc9b6f6	-0.006155844
191	0xbc450bed	-0.012026769
192	0x3ac357c5	0.0014903477
193	0xbc57aef4	-0.013164271
194	0x3bfe80ad	0.007766804
195	0xb9af87ac	-0.00033479684
196	0x3ae1ac19	0.0017217427
197	0x3c0d993b	0.00864249
198	0x3acd2e3b	0.0015654037
199	0x3c6bdd58	0.014396034
200	0xbc6f290c	-0.014597189
201	0x3bb4a58d	0.0055128993
202	0x3c65a287	0.0140158
203	0xbc528200	-0.012848377
204	0xbc90b002	-0.017662052
205	0xbb062534	-0.0020468952
206	0x3bb7e8da	0.005612475
207	0xbc844256	-0.016144913
208	0xbc3bd73d	-0.011464891
209	0xbcce66fa	-0.025195587
210	0xb98224dc	-0.00024822995
211	0x3cc41582	0.023936037
212	0xbc0e1e05	-0.008674149
213	0x3ca9a221	0.020707192
214	0x3b353d59	0.0027654974
215	0xbbe76c8c	-0.0070625003
216	0xbc20f065	-0.0098229395
217	0xbcad4b5b	-0.021154096
218	0xbc516147	-0.01277954
219	0xbc6628d0	-0.014047816
220	0x386de9e3	5.6723027e-05
221	0xbc59bba3	-0.013289365
222	0xbbe6e637	-0.0070464867
223	0x3b6e9082	0.0036402051
224	0x3bc41660	0.0059841126
225	0xbc92a1f1	-0.017899485
226	0xbc1de434	-0.009636927
227	0x3c4b602c	0.012413066
228	0x3c4d2816	0.012521764
229	0xbaa3c904	-0.001249582
230	0x3c04543d	0.008076725
231	0xbc143b53	-0.009047347
232	0x3c204fb9	0.009784632
233	0x3c73f3ca	0.014889667
234	0x3c124c48	0.00892932
235	0x3c8d3d4c	0.017241143
236	0x3c8e1436	0.017343622
237	0xbc8c5c0e	-0.017133739
238	0x3b59c07a	0.0033226297
239	0x3b37e2f4	0.0028058859
240	0xbc6f2a2b	-0.014597456
241	0x3a6cfb1a	0.00090401026
242	0xbb9bf76f	-0.004759721
243	0xbc458398	-0.0120553
244	0xbbd1e8a9	-0.006405909
245	0x3c90c491	0.017671855
246	0x3c1fc8b8	0.009752445
247	0x3c142d4b	0.009044002
248	0xbc510020	-0.012756377
249	0xbc81c349	-0.01584019
250	0xbc582e0d	-0.013194573
251	0x3cb34e03	0.021887785
252	0xbc035523	-0.008015904
253	0xbc12eb13	-0.008967179
254	0xbb2b4994	-0.0026136385
255	0xbbeca5ed	-0.0072219283

discrete_action_output_shape f4 [1, 2]
0	0x40000000	2.0
1	0x40400000	3.0

network_body._body_endoder.seq_layers.0.bias f4 [256]
0	0xb98026fc	-0.00024443108
1	0x3b8e9d8a	0.004352276
2	0x3ca55821	0.020183625
3	0x3cc7f73c	0.024409883
4	0x3d2682fb	0.040652256
5	0x3c2c7fcb	0.010528515
6	0x3c1fe0dc	0.0097582005
7	0x3ca37ba9	0.019956427
8	0x3d023de2	0.031797297
9	0x3b9eed25	0.004850047
10	0x3cb8a4bb	0.022539487
11	0xbc600b4d	-0.013674569
12	0x3b2d5bd5	0.0026452441
13	0x3cead63c	0.028666608
14	0xbbcafa76	-0.006194408
15	0xbb634fe5	-0.0034685072
16	0x3c24a76b	0.010049681
17	0x3c1954e5	0.009358619
18	0xbc80948b	-0.01569583
19	0x3c22f89b	0.0099469675
20	0x3bb8a8d3	0.00563536
21	0x3d0e971d	0.03481208
22	0x3c448ca6	0.011996424
23	0x3ce68f94	0.028144635
24	0x3be41d98	0.0069615357
25	0xbc5aa1da	-0.0133442525
26	0x3c779b63	0.015112731
27	0x3c67d761	0.014150471
28	0xbbede7be	-0.007260292
29	0x3c7e4a98	0.015520714
30	0xbaccc53a	-0.0015622743
31	0xbb5d7831	-0.0033793563
32	0x3c0ecd64	0.008715961
33	0xb884b595	-6.328073e-05
34	0xbc189233	-0.0093122
35	0x3c411f04	0.01178718
36	0x3d0e2aa4	0.034708634
37	0x3ca3eccf	0.02001038
38	0x3a06850e	0.0005131521
39	0x3bc3b4e0	0.0059724897
40	0x3c417e9f	0.011809974
41	0x3c4bcabe	0.012438474
42	0x3ccc2a77	0.024922593
43	0xbcd42ab1	-0.025899263
44	0x3c4c625a	0.012474621
45	0x3c969459	0.018381285
46	0xbb793394	-0.0038025128
47	0x3c3a6f21	0.011379034
48	0x3beeddf3	0.007289642
49	0xbc4abb28	-0.012373723
50	0xbbf3a158	-0.007435005
51	0xbc7bb762	-0.015363546
52	0x3c5c31ae	0.013439579
53	0x3c73dceb	0.014884214
54	0x3b976808	0.004620556
55	0x3be160da	0.0068780007
56	0xbc98bc54	-0.01864449
57	0xbc90cdee	-0.01767632
58	0x3c9cfc09	0.019163148
59	0x3bc81468	0.0061059482
60	0x3ccc1b5d	0.024915392
61	0x3c631352	0.013859587
62	0x3bb4b6c2	0.0055149505
63	0x3c11a0a4	0.008888397
64	0x3ce34ba0	0.027746022
65	0x3c9f5144	0.01944793
66	0x3c658b93	0.014010328
67	0x3c7794bd	0.015111146
68	0x3c7cc224	0.015427146
69	0xbb6ebffd	-0.0036430352
70	0x3bee66a7	0.0072754207
71	0xbb5d7c40	-0.0033795983
72	0xbc7bb962	-0.015364023
73	0x3c16caa9	0.009203591
74	0x3c1f64ba	0.009728605
75	0x3c2fcac3	0.0107294945
76	0x3ca8977b	0.020580044
77	0x3c92a584	0.01790119
78	0xbc7713b7	-0.015080384
79	0xbbc3c7ba	-0.005974737
80	0x36c3d6ef	5.8364744e-06
81	0x3bdbf730	0.0067128167
82	0x3c038b6b	0.008028845
83	0x3ac70cac	0.0015186272
84	0xb87fc2e3	-6.097824e-05
85	0x3d0dfb63	0.03466357
86	0x3c3eacef	0.01163791
87	0xbb9f0f3a	-0.00485411
88	0x3cacee27	0.021109654
89	0xbbe931fd	-0.007116555
90	0xbcc7354c	-0.024317406
91	0xbbd9eddf	-0.006650671
92	0x3b32971b	0.002725071
93	0xbc5cc8a0	-0.013475567
94	0x3ba7b060	0.005117461
95	0xbc06474b	-0.0081957085
96	0x3c46dc1f	0.012137442
97	0x3c842b56	0.016133945
98	0x3cf83c04	0.030302055
99	0xbb5f990b	-0.003411832
100	0x3b77a568	0.0037787799
101	0xbbdbc0d4	-0.0067063365
102	0xbb83349b	-0.004004074
103	0x3bccf611	0.0062549193
104	0x3a16a1a5	0.0005746133
105	0x3c5b0a2c	0.013369124
106	0x3c622d4c	0.013804745
107	0xbb24c2b5	-0.0025140468
108	0x3c8cce62	0.017188255
109	0x3bdb658a	0.006695454
110	0x3cc18690	0.023623735
111	0x3ce0bd58	0.027434036
112	0x3b81efc9	0.003965352
113	0xbc9eae4c	-0.01937022
114	0xbcba5e7d	-0.022750134
115	0x3cbca994	0.02303008
116	0x3b8954bd	0.00419101
117	0x3c21965f	0.009862511
118	0xbbc114be	-0.0058923652
119	0x3cb8614b	0.02250733
120	0x3d2086e7	0.039191153
121	0x3bd013ff	0.00635004
122	0x3d01aaf3	0.03165717
123	0x3c8d90ff	0.017281054
124	0x3c8e4f68	0.017371848
125	0x3cb95b39	0.022626506
126	0x3d031586	0.03200295
127	0x3ce55141	0.027992846
128	0xbb45149c	-0.0030072099
129	0x39f37f26	0.00046443305
130	0x3958cf6c	0.00020676636
131	0xbb4912a9	-0.0030681288
132	0x3cb9b6b7	0.022670133
133	0x39babfa8	0.0003561948
134	0x3cf01050	0.029304653
135	0xbca26572	-0.019823764
136	0x3c54d343	0.012989822
137	0x3c814861	0.015781583
138	0xbb25f2d3	-0.0025321736
139	0x3c0c296f	0.0085548
140	0xbb685cdd	-0.0035455741
141	0x3cffc031	0.031219574
142	0x3c3f6730	0.011682317
143	0x3d00955f	0.03139245
144	0x3c41ad96	0.011821171
145	0x3c25aec8	0.010112472
146	0x3c5b0dea	0.013370017
147	0x3cbcd370	0.02305004
148	0xbb4ea9f5	-0.0031534408
149	0x3bb0847d	0.0053868876
150	0x3c6b682f	0.014368101
151	0x3c80c2c6	0.015717875
152	0x3ca5be3b	0.02023231
153	0xbb96cba1	-0.004601911
154	0x3c8d5b84	0.017255552
155	0x3c49e46e	0.012322528
156	0x3c9518c5	0.018200288
157	0xbccfc2ae	-0.025361385
158	0xbaaf12bd	-0.0013357025
159	0x3c9a715f	0.018852888
160	0x3b8ed9f0	0.0043594763
161	0xbb7e11b3	-0.0038767874
162	0xbc745e82	-0.014915111
163	0x3b2d1b5b	0.002641401
164	0x3cbf4dd6	0.023352545
165	0x3bf87143	0.007581861
166	0x3b22a2fc	0.0024816385
167	0x3cb0a31b	0.02156215
168	0x3ca7210b	0.020401498
169	0x3c61c6d4	0.0137803145
170	0x3c3f79b7	0.011686734
171	0x3c3f025f	0.01165828
172	0xbb8e6d28	-0.0043465085
173	0x3cefa345	0.029252658
174	0x3bb9e181	0.005672634
175	0xbb5a8dac	-0.0033348603
176	0x3cc47817	0.023983045
177	0x3c9be5f5	0.01903055
178	0x3bde733d	0.00678864
179	0xbc29b9af	-0.010359212
180	0x3bafe313	0.0053676455
181	0x3a60902e	0.00085664063
182	0x3c19d4d5	0.009389122
183	0xbc02b456	-0.007977566
184	0x3c22e565	0.009942387
185	0xbcbcfcde	-0.023069795
186	0xbb014b88	-0.0019728858
187	0x3cd6170b	0.026134035
188	0x3ce43780	0.027858496
189	0x3c98ecee	0.018667664
190	0x3ca4f730	0.0201374
191	0xbb6d9982	-0.0036254828
192	0x3ca9f96f	0.020748822
193	0xbc7800c7	-0.015136904
194	0xbb93d43f	-0.0045113857
195	0x3d000bb9	0.03126118
196	0x3bec1863	0.0072050556
197	0x3ccd42d6	0.025056284
198	0x3cc3d8b6	0.023907047
199	0xbc260539	-0.010133081
200	0xbc053dbe	-0.008132396
201	0xbc2380bb	-0.009979422
202	0x3ca107a7	0.01965697
203	0xbc9e0d34	-0.019293405
204	0x3b8c1a6e	0.0042756116
205	0x3cd2cf81	0.025733711
206	0xbce2f143	-0.027702933
207	0x3c7a04a3	0.015259895
208	0x3c83662b	0.016039928
209	0xbb9315ff	-0.004488706
210	0x3cba4436	0.022737604
211	0x3bf26aa3	0.007397966
212	0xbb3dc13b	-0.0028954286
213	0x3c4d0a93	0.012514728
214	0x3b3857f4	0.0028128596
215	0xba64833e	-0.00087170664
216	0xbbadc70e	-0.00530327
217	0x3aa5812f	0.0012627001
218	0x3adf8d12	0.0017055592
219	0x3abcfde9	0.0014418933
220	0xbc78453e	-0.015153227
221	0xbc673f22	-0.014114173
222	0x3b4bd23c	0.0031100651
223	0x3ca75ca6	0.02042992
224	0x3c5c8268	0.013458826
225	0x3c1e9052	0.009677963
226	0x3c83ae5a	0.016074348
227	0xbbeb1922	-0.007174627
228	0x3b57c7f4	0.0032925578
229	0x3c8d65cb	0.017260453
230	0x3c7aab49	0.015299627
231	0x3c6790c8	0.01413364
232	0x3c58d5c2	0.013234558
233	0x3ce606d3	0.028079426
234	0x3b81a1f3	0.0039560734
235	0x3c584ab2	0.0132014025
236	0x3c0129e3	0.007883522
237	0x3cfd03cb	0.030885598
238	0x3c2a6816	0.010400793
239	0x3ca03d39	0.019560443
240	0x3cb64312	0.022248778
241	0x3a50e045	0.0007967989
242	0xbb878ab1	-0.0041364064
243	0x3bc23781	0.0059270267
244	0x3a68f683	0.0008886831
245	0xbc776049	-0.01509864
246	0xbc6dfe6a	-0.014525989
247	0x3c46d8bd	0.012136635
248	0x3d08a20c	0.033357665
249	0xbcdbb62c	-0.026820265
250	0x3c643ec6	0.013930982
251	0x3beff792	0.007323214
252	0xbbf0cc4f	-0.007348574
253	0x3c6e4888	0.01454366
254	0x3c45b3cc	0.012066793
255	0xbbc2085a	-0.0059214057

network_body._body_endoder.seq_layers.0.weight f4 [256, 30]
0	0x3e8d4e27	0.27598688
1	0xbe91fdac	-0.2851385
2	0x3e8924a7	0.26785776
3	0xbd44c19e	-0.04803621
4	0x3bfbdb3d	0.0076860473
5	0xbe875e42	-0.264391
6	0x3c8e16cb	0.017344853
7	0xbbdadf27	-0.006679434
8	0xbe7f0646	-0.24904737
9	0xbe731a49	-0.23740496
10	0xbe4e7f09	-0.20165648
11	0x3e126c18	0.14299047
12	0xbc970cff	-0.018438814
13	0xbe8075d9	-0.2508991
14	0x3ecde983	0.40217218
15	0x3edb4705	0.4282762
16	0xbd929762	-0.0715778
17	0xbbbda3df	-0.005787357
18	0xbdbba926	-0.09163122
19	0xbdf4f0c0	-0.11959982
20	0xbdc68be3	-0.0969465
21	0x3eb2501d	0.34826747
22	0xbe330fd4	-0.17486507
23	0x3df00de6	0.11721401
24	0xbdbb4db3	-0.09145679
25	0xbdfd9538	-0.12381977
26	0x3eaa420e	0.3325352
27	0x3dda3498	0.10654563
28	0x3e7fe222	0.24988607
29	0xbda92e13	-0.08260741
30	0xbde5b958	-0.11216992
31	0x3c841494	0.016123094
32	0xbbbcf827	-0.0057668868
33	0x3e467d41	0.19383718
34	0xbe6710ec	-0.22565049
35	0xbc538ed9	-0.0129124755
36	0x3e3347a1	0.17507793
37	0x3d2e5ab1	0.04256696
38	0x3d74b2be	0.059740774
39	0xbd31f6c0	-0.04344821
40	0x3dd355a9	0.10319073
41	0xbe20022d	-0.1562583
42	0xbe8af926	-0.2714321
43	0x3e87a408	0.26492333
44	0x3dd01f2f	0.10162198
45	0x3ea53b8e	0.32272
46	0xbe490ecc	-0.19634551
47	0xbd76a078	-0.06021163
48	0x3da91096	0.08255117
49	0xbe5b48aa	-0.21414438
50	0x3dcbaa6d	0.099446155
51	0xbe6260a9	-0.22107185
52	0x3e2f5126	0.171208
53	0x3e38d2d3	0.18049173
54	0xbde49fa6	-0.11163263
55	0x3e061e1a	0.1309742
56	0xbdabe8ba	-0.083939984
57	0x3e92b260	0.28651714
58	0x3ec55800	0.385437
59	0xbe1e4fb2	-0.15460089
60	0xbd6960d0	-0.056977093
61	0x3c7be95d	0.015375462
62	0x3d16e67a	0.036840893
63	0x3e17fbb5	0.14842112
64	0xbd02b5ef	-0.031911787
65	0xbda23bf7	-0.07921594
66	0x3e0139a7	0.12619649
67	0xbe057454	-0.13032657
68	0xbd347dfe	-0.044065468
69	0xbec71457	-0.38882706
70	0xbe016bac	-0.1263873
71	0xbd657570	-0.0560202
72	0xbd3200b5	-0.043457706
73	0xbd9c17a3	-0.07621696
74	0x3bcf395e	0.0063239774
75	0xbe8d40ca	-0.27588493
76	0xbd34d1db	-0.044145446
77	0x3d455c44	0.048183694
78	0xbc4b4c1e	-0.0124082845
79	0xbec2f669	-0.3807862
80	0x3df0efb8	0.11764473
81	0xbe1bef09	-0.15227903
82	0xbea0b780	-0.3139
83	0x3df77148	0.120821536
84	0xbe0085ab	-0.1255099
85	0x3d598935	0.053109366
86	0xbdf8576c	-0.121260494
87	0x3c86936b	0.016427716
88	0xbec31fb7	-0.38110134
89	0x3e60afe0	0.21942091
90	0xbec6e311	-0.38845113
91	0xbe79009a	-0.24316636
92	0x3ec157f8	0.37762427
93	0xbe331947	-0.17490111
94	0x3c4abf00	0.0123746395
95	0xbd97f9c2	-0.074206844
96	0xbddccdd9	-0.1078145
97	0xbe7e2890	-0.24820161
98	0x3be2408b	0.006904667
99	0xbe21fd3c	-0.15819257
100	0xbeb786d5	-0.35845056
101	0xbd038566	-0.03210964
102	0x3aea58dc	0.0017879265
103	0xbe1fc8c1	-0.15603925
104	0xbe8363f4	-0.25662196
105	0xbcf887c3	-0.030338174
106	0x3e924fa3	0.28576383
107	0xbd82f82c	-0.06394991
108	0x3e6bfb57	0.23045097
109	0x3ead2faa	0.33825427
110	0xbdb94f00	-0.09048271
111	0xbc81d2c0	-0.015847564
112	0xbe033a7e	-0.12815282
113	0xbe921617	-0.28532478
114	0xbdc22d32	-0.094812766
115	0x3dde6202	0.10858537
116	0xbd02ba89	-0.031916175
117	0xbdcadd59	-0.099055
118	0xbd58937d	-0.05287503
119	0x3e178be2	0.14799455
120	0x3e7b9f07	0.24572383
121	0xbe9b87d2	-0.3037706
122	0xbda336b2	-0.07969417
123	0x3d809773	0.06278887
124	0x3e5c24fe	0.21498486
125	0x3cc7e41f	0.024400769
126	0xbdf457c9	-0.11930806
127	0x3ec807a6	0.39068335
128	0xbe523c7c	-0.20530885
129	0x3de602c7	0.112309985
130	0xbe715240	-0.23566532
131	0xbe8eade5	-0.27867046
132	0x3d870831	0.06593359
133	0xbd70be9d	-0.058775533
134	0xbe2b68d3	-0.16739206
135	0x3e4a9ba0	0.19785929
136	0xbd3e1672	-0.046408124
137	0x3e9e4343	0.30910692
138	0xbdda48c0	-0.10658407
139	0x3dc7b88c	0.097519964
140	0x3e826376	0.25466508
141	0xbe532339	-0.20618905
142	0xbe7d0e98	-0.24712598
143	0x3da27ca7	0.07933932
144	0xbd6168e8	-0.055031687
145	0xbe6fc702	-0.23415759
146	0xbd686925	-0.0567409
147	0x3d714784	0.058906093
148	0xbe136a39	-0.1439599
149	0xbd80db6e	-0.06291853
150	0xbda39d82	-0.079890266
151	0x3e73f4d7	0.23823868
152	0x3e131b82	0.14365962
153	0x3d3f4c9d	0.046703923
154	0x3de0418d	0.10950003
155	0xbdc0f794	-0.09422222
156	0x3d822839	0.06355328
157	0x3ee90c43	0.45517167
158	0x3cdb45af	0.026766626
159	0x3e2b0296	0.16700205
160	0x3e10e948	0.1415149
161	0x3b062488	0.0020468552
162	0xbe84262a	-0.25810367
163	0x3db224b5	0.086984076
164	0xbe1b98b8	-0.15194976
165	0xbe5e512c	-0.21710652
166	0x3eaecb82	0.3413964
167	0x3df833da	0.12119265
168	0x3c23314b	0.009960483
169	0xbe23d835	-0.16000445
170	0xbd9f8830	-0.077896476
171	0xbeb18194	-0.34669173
172	0xbe8883a6	-0.2666294
173	0x3eaf3701	0.34221652
174	0xbd3a4567	-0.045476343
175	0x3cdeac9c	0.027181916
176	0xbdad3506	-0.08457379
177	0xbe0c555a	-0.13704434
178	0xbed29631	-0.41130212
179	0x3d90bbe3	0.070670865
180	0xbd46aa30	-0.048502147
181	0x3e82e04f	0.2556176
182	0x3da84390	0.082160115
183	0xbd65ba4a	-0.056085862
184	0x3dd9c9ba	0.106341794
185	0xbd2c373b	-0.04204486
186	0x3b52c062	0.0032158126
187	0xbe2b70a0	-0.16742182
188	0xbc9841fb	-0.01858615
189	0x3dbab6bf	0.09116887
190	0x3e42c4a7	0.1902033
191	0x3df925a3	0.12165382
192	0xbda62374	-0.08112231
193	0xbe874301	-0.26418307
194	0x3e536672	0.20644549
195	0x3d88b055	0.06674258
196	0x3e9caf1e	0.30602354
197	0x3ec23a8c	0.37935293
198	0xbe6b19b6	-0.22959027
199	0xbdcdb9b8	-0.10045189
200	0xbe2b8c2d	-0.16752692
201	0x3eb577e5	0.35443035
202	0x3e5411fe	0.20709988
203	0xbd9711af	-0.0737642
204	0xbd976c1a	-0.073936656
205	0xbe67f9e3	-0.22653918
206	0xbe29e509	-0.16591276
207	0xbe62f167	-0.221624
208	0x3e0cc7a1	0.13748027
209	0x3daae0a4	0.08343628
210	0xbeddc5f3	-0.43315086
211	0x3e9b5f85	0.30346313
212	0x3de69c73	0.11260309
213	0xbcfe3678	-0.031031832
214	0xbd9f9d7b	-0.07793709
215	0xbdcc2e5a	-0.09969778
216	0x3e8f4bab	0.27987418
217	0xbe4e95e4	-0.20174366
218	0xbe6bfae8	-0.23044932
219	0x3eb94864	0.36188042
220	0x3e823ecb	0.25438532
221	0xbb66b257	-0.0035201514
222	0x3da92015	0.08258072
223	0xbd94c24c	-0.07263622
224	0x3d9cc8ba	0.07655473
225	0x3e13d2a6	0.14435825
226	0x3e4019ef	0.18759893
227	0x3e24f4d0	0.16109014
228	0x3e285ad2	0.16440895
229	0xbdfce45b	-0.12348243
230	0xbd6b5910	-0.057457983
231	0xbd36d4e3	-0.04463662
232	0xbde39b9d	-0.11113665
233	0xbe2e723d	-0.17035766
234	0x3e85814e	0.26075214
235	0x3d4eeade	0.050516956
236	0xbe6ba67b	-0.23012726
237	0x3e1ffe41	0.15624334
238	0x3ccf549f	0.025308905
239	0xbdcde895	-0.10054127
240	0xbcac5585	-0.021036873
241	0xbd3da12e	-0.04629629
242	0x3dc1bcac	0.094598144
243	0x3e1ff2ed	0.15620013
244	0xbda4e324	-0.08051136
245	0x3d149e13	0.036283564
246	0xbe8e5a6c	-0.2780336
247	0x3c19b546	0.009381598
248	0x3edc5cc8	0.43039536
249	0xbe1dad84	-0.15398222
250	0x3e8b3084	0.27185452
251	0x3e327a48	0.17429459
252	0x3e35aab9	0.17740907
253	0xbebad30e	-0.36489147
254	0x3e0e2aa2	0.1388345
255	0xbe21ca77	-0.1579989

network_body._body_endoder.seq_layers.2.bias f4 [256]
0	0x3c6c39e6	0.014418101
1	0x3c2ddfcd	0.01061244
2	0x3c74d454	0.014943201
3	0x3ca2dc61	0.019880475
4	0x3c8ef4d4	0.017450728
5	0x3c8dd98f	0.017315654
6	0xbc4a48d1	-0.012346462
7	0x3beb3fc9	0.0071792346
8	0x3c956afb	0.018239489
9	0x3c472866	0.012155628
10	0xbb188468	-0.002327228
11	0x3c86b9d1	0.016446026
12	0x3c99ba36	0.01876555
13	0x3bd81a46	0.006594929
14	0x3c63de01	0.01390791
15	0x3c0757cb	0.008260678
16	0x3c1b9e09	0.009498128
17	0x3cc3dc22	0.023908678
18	0x3bab1d0d	0.005221969
19	0x3b4cb6ce	0.003123689
20	0x3c0aaf29	0.008464613
21	0x3aed8f9e	0.0018124466
22	0x3c1cfde6	0.0095820185
23	0x3ce0de73	0.027449822
24	0x3c591f41	0.01325208
25	0x3b9a3fc4	0.0047073085
26	0x3c083258	0.008312784
27	0xbbdbfe57	-0.0067136693
28	0x3ca7a60e	0.020464923
29	0x3c46beb5	0.012130429
30	0x3c44d722	0.012014182
31	0x3c0f9455	0.008763392
32	0xbb2ff35d	-0.0026847937
33	0x3cb6ae62	0.02229995
34	0x3ca9adb8	0.020712718
35	0xbb78ad3c	-0.0037945053
36	0x3bd945fa	0.0066306563
37	0xbbfe6509	-0.007763509
38	0x3c9e256c	0.019304954
39	0xbbb8c308	-0.005638484
40	0x3b8e920d	0.0043509067
41	0x3bd836ff	0.006598353
42	0x3c2b28af	0.010446711
43	0x39f68192	0.00047017314
44	0x3cb3aba2	0.021932427
45	0x3c3dc54a	0.011582682
46	0xbb8783ad	-0.00413557
47	0x3cab30bd	0.020897264
48	0x3c9d67df	0.019214569
49	0xbb9b34af	-0.004736505
50	0xbb1cd30e	-0.002392951
51	0x3bed482c	0.0072412696
52	0x3c9b1481	0.018930675
53	0x3b08d9a2	0.0020881672
54	0xbb64f366	-0.0034935116
55	0x3cae0207	0.021241201
56	0x3c396789	0.011316189
57	0x3c87548b	0.016519805
58	0x3ca5104a	0.020149369
59	0x3ca095d4	0.019602694
60	0x3ca863dd	0.020555431
61	0xbb84af26	-0.0040491996
62	0x3cc71c5c	0.024305515
63	0x3c431f63	0.011909339
64	0x3cdecbee	0.02719685
65	0xbc33ae02	-0.01096678
66	0x3c17ca49	0.009264537
67	0x3c03dfa6	0.008048927
68	0xbb3840d0	-0.0028114803
69	0x3ca69716	0.020335715
70	0x3ce594f7	0.028025134
71	0x3cca903f	0.024726985
72	0x3c982254	0.018571056
73	0x3ada26eb	0.0016643679
74	0x3cc8884b	0.024479052
75	0x3b7b897d	0.003838151
76	0xbc339b36	-0.010962298
77	0x3c84d1c1	0.0162133
78	0x3cf0b994	0.029385366
79	0x3b74f2b3	0.0037376105
80	0x3b7cde20	0.0038584545
81	0x3c80ad1f	0.01570755
82	0x3c3564fe	0.011071442
83	0x3c1b09cd	0.009462786
84	0x3c8733eb	0.016504249
85	0xbbf9fc10	-0.007628925
86	0x3b80934f	0.0039238106
87	0xbb3ff5a6	-0.0029290705
88	0x3b055644	0.0020345608
89	0x3c3ded32	0.011592196
90	0x3cbd9933	0.02314434
91	0xbbf8bb25	-0.0075906687
92	0xbb850579	-0.0040594903
93	0x3c2d4ccd	0.010577393
94	0x3c1c3f1e	0.009536533
95	0x3a2bf4c4	0.0006559605
96	0x3bfefaa3	0.007781343
97	0x3c2f4de5	0.010699724
98	0x3c8a007f	0.01684594
99	0x3be59f51	0.0070075174
100	0x3acff43e	0.0015865637
101	0x3c5fbfcc	0.013656568
102	0x3c5573f3	0.013028133
103	0xb9be5c06	-0.00036308187
104	0x3c826b75	0.01592038
105	0x3ccd3e9f	0.025054274
106	0x3c85a3f7	0.016313536
107	0x3bdf0fb4	0.006807292
108	0x3c8b6a85	0.017018566
109	0x3c300ea1	0.010745675
110	0x3c8424ad	0.01613077
111	0x3cc97b60	0.024594963
112	0x3c972011	0.018447908
113	0x3caf919e	0.02143174
114	0x3cb8eebe	0.022574779
115	0x3b084ac3	0.0020796515
116	0x3c8e08c5	0.017338166
117	0x3c93a99b	0.01802521
118	0x3c97806c	0.018493854
119	0x3c4d8ff1	0.012546525
120	0x3cc1bd86	0.023649942
121	0x3c315eed	0.010825855
122	0x3d002150	0.03128177
123	0x3c173ced	0.009230834
124	0x3c5e8d51	0.013583497
125	0x3c230526	0.009949958
126	0x3b7631d3	0.0037566319
127	0x3d168e82	0.036757
128	0x3c72619d	0.014793781
129	0x3c7c8663	0.0154129
130	0x3a6b134e	0.0008967415
131	0x3cfa9721	0.030589642
132	0x3bed85e6	0.007248628
133	0x3bdba8ed	0.006703487
134	0x3a4f9aab	0.00079194707
135	0x3c0b753a	0.008511836
136	0x3ca23505	0.019800672
137	0x3c4343e4	0.011918042
138	0xbc186141	-0.009300531
139	0xbb8ca659	-0.004292291
140	0x3c283669	0.010266879
141	0x3c972aa0	0.018452942
142	0x3ca00dcf	0.019537834
143	0x3c4c556e	0.01247154
144	0x3be9d8ab	0.0071364245
145	0x3c7ec055	0.015548785
146	0x3c1b7ef8	0.009490721
147	0x3c612696	0.01374211
148	0x3ca78304	0.020448215
149	0x3ba56f4f	0.0050486694
150	0x3a38f354	0.00070553017
151	0x3c00c669	0.007859805
152	0xba0b8d76	-0.00053235085
153	0x3baad643	0.0052135303
154	0x3c8a4eab	0.016883215
155	0x3c07ea27	0.008295572
156	0x3caaf8a9	0.020870524
157	0x3aef3a73	0.0018251672
158	0x3c566431	0.013085411
159	0x3cc96b00	0.024587154
160	0x3c5db41c	0.013531711
161	0x3cb14587	0.021639599
162	0xbbaf985b	-0.0053587384
163	0x3b979f70	0.0046271607
164	0xb9775dbb	-0.00023590673
165	0x3c623819	0.01380732
166	0x3c7a3b1c	0.015272882
167	0x3caa62ea	0.020799119
168	0x3ab7b8eb	0.0014016902
169	0x3cb97004	0.022636421
170	0x3bb994ed	0.0056635053
171	0xbae77d50	-0.0017661247
172	0x3ca66715	0.020312825
173	0x3c0c46ac	0.008561771
174	0x3c932c17	0.01796536
175	0x3b4dd6ec	0.003140862
176	0xb99c3a32	-0.00029797998
177	0x3cc9b23f	0.024621127
178	0x3b00baca	0.0019642585
179	0x3c9ece91	0.019385608
180	0x3c55f79a	0.013059521
181	0xbbfe0343	-0.0077518537
182	0x3c29d8dc	0.010366645
183	0x3c47df29	0.012199202
184	0x3ce27251	0.027642401
185	0x3cc8be59	0.024504827
186	0x3c916700	0.01774931
187	0x3cbb03b1	0.022828909
188	0x3c891e0f	0.016737966
189	0x3a87fba3	0.0010374676
190	0x3bc7bc09	0.0060954136
191	0x3cb0e75a	0.021594692
192	0x3b098ac4	0.0020987252
193	0x3cbf9a11	0.023388894
194	0x3c901329	0.017587261
195	0x3b5d90f1	0.0033808316
196	0x3c7da6e7	0.015481687
197	0xb967a845	-0.00022092562
198	0xbb88e95c	-0.004178209
199	0x3adab3ca	0.0016685661
200	0x3c50951b	0.012730862
201	0x3a885673	0.001040174
202	0xbb6c8853	-0.0036091998
203	0x3c886df2	0.016653989
204	0x3cb74a42	0.022374276
205	0x3c8b00cb	0.016968152
206	0x39a078c8	0.00030607567
207	0x3c550a26	0.013002908
208	0x3c928f95	0.01789073
209	0x3ca8eb92	0.020620141
210	0x3c8655dd	0.016398365
211	0xbc2dab87	-0.010599977
212	0x3d01fecb	0.03173713
213	0x3c16d76b	0.009206633
214	0x3c720439	0.014771515
215	0x3c7d8568	0.015473701
216	0x3cc14dfc	0.023596756
217	0x3cbb6c9f	0.022878943
218	0x3cbe93e2	0.023263875
219	0x3ca8f63e	0.02062523
220	0x3bfdf326	0.007749933
221	0x3c80a932	0.015705679
222	0x3cb7eb71	0.022451134
223	0x3c244651	0.01002653
224	0x3c15df78	0.009147517
225	0x3bd9faea	0.0066522257
226	0x3cc7295c	0.024311714
227	0x39f79550	0.00047222758
228	0x3c03c749	0.008043119
229	0x3ca046e8	0.01956506
230	0x3c37573f	0.011190235
231	0x3cb4a607	0.022051824
232	0x3a7f8929	0.00097479165
233	0x3c9f9f21	0.019485058
234	0xbb4c1b8e	-0.0031144354
235	0xbb8e0b11	-0.0043348153
236	0xbb600d56	-0.0034187636
237	0x3c994baf	0.018712847
238	0x3b14f929	0.002273152
239	0x3c72d9b3	0.014822411
240	0x3cc00777	0.02344106
241	0x3c7f2000	0.015571594
242	0x3c0fc808	0.0087757185
243	0x3cdc2877	0.026874764
244	0x3ba6780b	0.005080228
245	0xbb9da8b1	-0.0048113693
246	0xbbf8a3c8	-0.0075878836
247	0xb9f72a61	-0.00047143086
248	0x3cd28c42	0.025701646
249	0x3cbdc73c	0.023166291
250	0x3c524818	0.012834571
251	0x3b65588e	0.003499541
252	0x3c373511	0.011182086
253	0x3c31e68c	0.010858189
254	0x38d42f84	0.00010117798
255	0x3b5aa3e1	0.003336184

network_body._body_endoder.seq_layers.2.weight f4 [256, 256]
0	0xbbb07f50	-0.0053862706
1	0x3cb0b5d9	0.021571087
2	0x3da59a62	0.08086087
3	0x3dbfbda8	0.09362346
4	0x3d94b01e	0.07260154
5	0xbd00343a	-0.031299807
6	0x3c1cfb18	0.00958135
7	0xbd4db308	-0.050219566
8	0xbdf2d614	-0.118572384
9	0x3c8d1a9b	0.0172246
10	0xbd27a0d2	-0.040924855
11	0xbdb489ca	-0.08815344
12	0x3dd89949	0.10576112
13	0x3dbe8e76	0.09304516
14	0xbd1c96a3	-0.038229596
15	0xbaf323e7	-0.0018550128
16	0xbc108e7d	-0.008823034
17	0xbd530900	-0.051522255
18	0xbc0e6c02	-0.008692743
19	0x3ded3084	0.11581519
20	0x3e335c8c	0.17515773
21	0xbd4cfe61	-0.050047282
22	0xbc44684a	-0.011987755
23	0x3d3eebee	0.04661172
24	0x3d15d657	0.036581364
25	0x3d2bcc09	0.04194263
26	0x3d5c811a	0.05383406
27	0x3d8702d3	0.065923356
28	0xbc2a4482	-0.01039231
29	0x3d85ea04	0.065387756
30	0xbd4b529d	-0.049639333
31	0xbde002bf	-0.10938024
32	0xbd193533	-0.03740425
33	0xbd801cb8	-0.06255478
34	0x3d368949	0.04456452
35	0x3dfbe577	0.12299626
36	0xbdf5dda7	-0.120051675
37	0x3d23f44d	0.040027905
38	0xbc891223	-0.016732281
39	0x3dccc3b7	0.09998267
40	0xb9ca72b4	-0.00038613903
41	0x3d6ef467	0.05833855
42	0xbd3b9657	-0.045797672
43	0xbda37db9	-0.07982964
44	0xbdac8ec9	-0.084256716
45	0xbe02a867	-0.12759553
46	0xbcacd996	-0.021099847
47	0xbd725571	-0.059163515
48	0xbdffa79a	-0.12483139
49	0x3dfb8f1e	0.12283157
50	0x3db98af0	0.09059703
51	0x3d045fea	0.032318033
52	0x3d4eb584	0.050466076
53	0x3cde0570	0.027102202
54	0xbba5fe2b	-0.0050656996
55	0x3db52b53	0.08846154
56	0xbbf8b886	-0.0075903563
57	0x3c6b4a57	0.014360986
58	0x3d6c7464	0.057728186
59	0xbc955b4f	-0.018232016
60	0x3cf78f28	0.03021963
61	0xbd984a94	-0.074361
62	0xbc9c7f70	-0.019103736
63	0xbd983fd9	-0.07434053
64	0xbdd3e0e1	-0.103456266
65	0xbda87c25	-0.08226804
66	0x3e0b5e68	0.13610232
67	0xbc9f74ce	-0.019464877
68	0x3e06a606	0.1314927
69	0x3d19524d	0.037432004
70	0x3d8e6457	0.06952732
71	0xbd46317f	-0.048387047
72	0x3dd60bdf	0.10451483
73	0xbd8231c1	-0.06357146
74	0x3ce6a397	0.028154178
75	0xbc346f07	-0.011012799
76	0xbd0d39df	-0.03447902
77	0x3dbf8140	0.09350824
78	0x3e2adcd9	0.16685809
79	0xbd119de5	-0.03555097
80	0xbd80505d	-0.06265328
81	0xbb3c12bf	-0.0028697697
82	0x3c8330ae	0.016014423
83	0xbd2e16f5	-0.042502362
84	0x3d3f56f9	0.046713803
85	0xbe156dee	-0.14592716
86	0xbdcd5cb4	-0.10027447
87	0xbda35d1a	-0.07976742
88	0xbd34a6af	-0.044104274
89	0xbc9d61c7	-0.019211663
90	0xbd10df00	-0.03536892
91	0x3cb52437	0.022111995
92	0x3c035abe	0.00801724
93	0xbd702a22	-0.05863393
94	0x3c7430ef	0.014904245
95	0x3d20854b	0.039189618
96	0x3dc502ac	0.0961965
97	0x3cfb6f01	0.03069258
98	0xbd80c511	-0.062875874
99	0xbcdfc63b	-0.027316203
100	0x3d56bafe	0.052424423
101	0x3d8d085b	0.06886359
102	0x3d92bdda	0.071651176
103	0x3b70761d	0.0036691495
104	0x3e47b993	0.19504385
105	0xbcd46cb7	-0.025930746
106	0xbce9f5b7	-0.028559549
107	0x3bc28084	0.0059357304
108	0xbe3111b4	-0.1729191
109	0x3d1b13dd	0.03786074
110	0xbdf2d524	-0.118570596
111	0x3d3059f9	0.043054555
112	0xbcf382e4	-0.0297255
113	0xbc71f133	-0.014766979
114	0x3e24021f	0.16016434
115	0x3dcc7149	0.09982545
116	0x3c3b1d0b	0.011420499
117	0xbd16c93d	-0.03681301
118	0x3d9a3a4c	0.075306505
119	0xbcd0b554	-0.025477089
120	0x3d82c5f7	0.06385415
121	0xbca2cec4	-0.019873984
122	0x3d99dc60	0.07512736
123	0x3b64b8e8	0.0034900252
124	0xbd3dd39d	-0.04634439
125	0x3d6e4d13	0.058178972
126	0x3cd2e125	0.025742123
127	0xbd987bbf	-0.07445478
128	0xbda005dd	-0.07813618
129	0xbde4f560	-0.11179614
130	0x3d2e9b88	0.042628795
131	0xbddcbda0	-0.107783556
132	0x3d3f4726	0.04669871
133	0x3d470863	0.048591983
134	0xbc410b0d	-0.01178242
135	0x3e0885d9	0.13332309
136	0xbd7f7df9	-0.062375996
137	0x3dd6d98e	0.10490714
138	0x3ca4ac60	0.020101726
139	0x3d6532f6	0.055956803
140	0x3d403bb6	0.046931945
141	0xbd0e7b07	-0.034785297
142	0xbc9dfb23	-0.01928479
143	0xbd27b3ab	-0.04094283
144	0xbdb77b5d	-0.089590766
145	0x3cb75f08	0.022384182
146	0x3d0720bf	0.032990213
147	0x3c9869ac	0.018605076
148	0xbd630257	-0.055422153
149	0x3cda49c0	0.026646495
150	0x3d873dce	0.06603585
151	0xbca2911b	-0.019844582
152	0xbcb97aab	-0.0226415
153	0xbde8be00	-0.113643646
154	0xbd2360e2	-0.039887317
155	0xbd1b9254	-0.037981346
156	0xbd1d3c36	-0.0383875
157	0xbcc18a6b	-0.023625573
158	0xbdd48705	-0.103773154
159	0x3d93cc7c	0.07216737
160	0xbd1a8341	-0.03772283
161	0x3bc4f9b2	0.0060112113
162	0xbd5fd3a9	-0.054645214
163	0xbd7aa36f	-0.06119102
164	0x3cc24a16	0.023716968
165	0x3d81f8e0	0.06346297
166	0x391dfdf7	0.00015067296
167	0x3d10419e	0.035218827
168	0xbcc8dbc6	-0.024518859
169	0xbd1b65dd	-0.03793894
170	0x3c13cdd5	0.009021242
171	0xbd9053a9	-0.07047207
172	0x3c631e1b	0.013862158
173	0xbd16e2e2	-0.036837466
174	0x3c1195c5	0.0088858055
175	0xbcb8a561	-0.022539796
176	0xbc9fb842	-0.01949704
177	0x3e090da6	0.13384113
178	0x3cb94bc5	0.022619138
179	0xbda0dbe4	-0.07854441
180	0x3e22ee21	0.15911151
181	0x3e0c507a	0.13702574
182	0xbd016ccf	-0.03159791
183	0xbb82cdcc	-0.003991818
184	0xbd1ee8ce	-0.03879624
185	0xbdd8b0ea	-0.10580619
186	0x3cbb9dbe	0.022902366
187	0xbe36fa3d	-0.17868896
188	0xbdc20e1f	-0.0947535
189	0x3cc2881c	0.023746543
190	0xbdb08581	-0.08619214
191	0xbd53b993	-0.05169065
192	0xbc9d06a9	-0.019168215
193	0x3d8af6d0	0.06785357
194	0xbd928a6f	-0.0715531
195	0xbd1677fd	-0.036735523
196	0xbc9b87db	-0.01898568
197	0xbccd2be7	-0.025045348
198	0xbd600f04	-0.05470182
199	0xbd1a027d	-0.03760003
200	0x3c979004	0.01850129
201	0xbc9b0ffd	-0.018928522
202	0xbd3abbec	-0.045589373
203	0x3d15b085	0.036545295
204	0xbd3a176d	-0.045432497
205	0x3d38d5ca	0.04512576
206	0x3da54c57	0.08071201
207	0xbbcce7b3	-0.0062532066
208	0x3c061b88	0.008185275
209	0xbc84a57b	-0.016192188
210	0x3d98904e	0.07449399
211	0x3ddb3f35	0.10705415
212	0x3e0b5f07	0.13610469
213	0x3d80a269	0.06280977
214	0x3cfffa40	0.031247258
215	0xbd04eee9	-0.032454405
216	0x3c0705d0	0.008241132
217	0xbcb414b2	-0.021982525
218	0xbd31f5d4	-0.04344733
219	0x3cc9de9f	0.024642287
220	0xbda98cf8	-0.08278841
221	0xbc8a229a	-0.016862202
222	0xbd87b298	-0.06625861
223	0x3d72a235	0.059236724
224	0xbd98e0ea	-0.07464774
225	0xbd6b5432	-0.05745334
226	0x3c88cd8e	0.016699579
227	0xbcf95fc9	-0.030441182
228	0xb9f931fd	-0.00047530225
229	0x3c99ef0d	0.018790746
230	0xbd5b199f	-0.05349123
231	0xbd19667d	-0.037451256
232	0x3dd7406b	0.105103336
233	0x3e1489d7	0.14505707
234	0x3d7d0895	0.061775763
235	0x3abf2228	0.0014582323
236	0xbda2d526	-0.07950811
237	0xbdefc474	-0.11707392
238	0x3d11f336	0.035632335
239	0x3e042914	0.12906295
240	0x3d2eddbe	0.04269194
241	0x3d1e0ff4	0.038589433
242	0x3d4a9d92	0.049466677
243	0xbc481b52	-0.012213545
244	0x3c8db7e0	0.017299592
245	0xbd3c949f	-0.046040174
246	0xbd1b47f4	-0.037910417
247	0x3d0eec97	0.0348936
248	0xbe295e9a	-0.16539994
249	0x3d137af0	0.036005914
250	0x3d62e7a6	0.0553967
251	0x3dc32dc2	0.09530212
252	0xbdcd7e1a	-0.100338176
253	0xbd8f7b9e	-0.07006
254	0xbe47a889	-0.19497885
255	0x3cc6f8fe	0.02428865
