Assets/6. Results/Staff_Stage1_V2_1.onnx (onnx, 303109 bytes, 9 tensors)

action_model._discrete_distribution.branches.0.bias f4 [2]
0.011661984 -0.011661621
00000000: e811 3f3c 6210 3fbc

action_model._discrete_distribution.branches.0.weight f4 [2, 256]
0.06320657 0.029311053 -0.07647362 -0.038521506 -0.07244795 0.033604648 -0.08002927 0.10564488
0.05420642 -0.06685214 -0.03201803 0.05523054 -0.029546125 -0.02393746 -0.0035846597 -0.083405174
-0.029398428 -0.07382911 -0.022933593 -0.028196666 -0.051726546 -0.016799694 0.008730912 0.015651474
0.05486896 -0.030478684 -0.05867857 0.027584096 -0.08941068 -0.06384921 0.041904893 0.013140836
-0.0063100914 -0.0014400724 0.023824008 -0.016279574 0.018403277 0.042883646 0.055396453 0.049276404
-0.055914238 0.0060633365 0.08135029 0.026570404 0.00034270063 0.08787112 -0.05995233 -0.0038147604
-0.0731232 -0.0740465 -0.06876732 -0.042098314 -0.051680118 0.016357308 0.036005106 0.018235829
0.092318185 -0.01661583 0.008251908 0.049087726 0.06694072 0.008733983 -0.06870205 0.0045336084
-0.09024061 -0.00031006246 -0.078079425 -0.06618465 -0.0008000962 0.044658095 -0.046730556 0.091094285
0.05972397 -0.069632426 -0.06505629 -0.012931405 -0.01667876 0.077215046 -0.07541086 -0.06653706
-0.034252673 0.052785177 -0.030198725 -0.03355028 0.08373673 0.09272393 0.026409438 0.048850123
0.021284934 -0.033294763 0.05579418 0.036400903 0.032416355 0.04588739 0.013094598 -0.06351325
-0.044924546 -0.07083779 0.03408238 0.005271568 -0.05018712 -0.04523035 -0.000529669 -0.028272403
-0.04696372 -0.017187076 -0.02363817 2.5197876e-05 -0.0568189 0.04297494 -0.058236193 0.09759176
0.037740007 -0.064110324 0.03923067 0.070486225 -0.031561185 0.102108814 -0.035970148 0.021170199
0.0008373004 0.06281216 -0.046287738 -0.05406284 -0.0010880213 0.06940158 -0.007269827 0.02480315
0.08614818 0.06928321 0.01744035 0.053550053 0.030162083 0.08815209 -0.0092323385 -0.05939417
-0.055008262 -0.037463915 0.054007065 -0.056135047 0.0071101114 -0.082619965 -0.00902261 -0.013989762
-0.055134635 0.0029632847 -0.054522287 -0.027434435 0.074386 -0.01587337 -0.015133839 0.031295396
-0.07787881 -0.041662917 0.10127137 -0.06980199 -0.0056986725 0.002716691 0.047489483 -0.030876782
-0.060628828 0.0903983 0.013062684 -0.017232427 0.019925114 -0.0508364 -0.08459203 -0.04710497
0.08459372 0.05869216 0.06190054 -0.06929687 -0.06794756 0.09774738 -0.030863928 0.06422945
0.084629774 -0.06583107 -0.024798336 0.04001321 -0.05668579 0.07566193 -0.07176582 -0.03922069
0.093025886 -0.10326666 -0.05417374 0.030170988 0.020234907 -0.07018112 -0.07720583 0.08283018
-0.015808292 0.010907642 -0.057138808 -0.07686965 -0.06568892 -0.014216569 0.019467385 0.101375535
-0.053030953 -0.06069066 -0.042123653 0.06431658 -0.058930222 0.008421126 -0.037399814 0.011545526
0.02535874 -0.08487427 -0.06630308 0.004371941 -0.040282745 0.09488047 -0.018341137 0.058534548
-0.012918345 -0.056864448 0.07560072 -0.009434177 0.01579756 -0.015344069 0.0047180685 -0.02640855
-0.06991476 -0.0020343068 -0.018738465 0.00024047248 0.036779404 0.040673286 -0.047642775 0.033633698
0.0679624 -0.0016628967 0.061021928 0.012634331 -0.03946527 -0.0075182794 0.05017359 0.08208756
-0.075718574 0.018537737 -0.08540763 0.014661962 0.026651334 0.0014032674 -0.029175676 -0.072281964
-0.06511938 0.09920753 -0.078938395 0.025421266 0.03916193 -0.04408867 -0.04542135 0.023995547
00000000: 7272 813d bc1d f03c 349e 9cbd bac8 1dbd
00000010: 975f 94bd 07a5 093d 63e6 a3bd 585c d83d
00000020: 8d07 5e3d c6e9 88bd 5625 03bd 6b39 623d
00000030: b70a f2bc 7e18 c4bc 9cec 6abb 55d0 aabd
00000040: f9d4 f0bc b733 97bd 3bdf bbbc b2fc e6bc
00000050: 37df 53bd 839f 89bc 190c 0f3c 8537 803c
00000060: 46be 603d 6fae f9bc f158 70bd 0bf8 e13c
00000070: f21c b7bd 60c3 82bd 77a4 2b3d a94c 573c
00000080: e2c4 cebb d0c0 bcba 912a c33c be5c 85bc
00000090: 78c2 963c c3a6 2f3d 64e7 623d 0ed6 493d
000000a0: 5406 65bd f4ae c63b fb9a a63d 2daa d93c
000000b0: 80ac b339 c6f5 b33d 9390 75bd 0f01 7abb
000000c0: 9ec1 95bd b1a5 97bd e1d5 8cbd 486f 2cbd
000000d0: 88ae 53bd c3ff 853c 177a 133d 4e63 953c
000000e0: 5111 bd3d ec1d 88bc 0333 073c 3610 493d
000000f0: 3718 893d fb18 0f3c a9b3 8cbd aa8e 943b
00000100: 12d0 b8bd e18f a2b9 1be8 9fbd d18b 87bd
00000110: 8cbd 51ba 68eb 363d 8a68 3fbd a48f ba3d
00000120: 1fa1 743d 729b 8ebd 3b3c 85bd 3ede 53bc
00000130: e5a1 88bc ec22 9e3d 0271 9abd 9544 88bd
00000140: 884c 0cbd 4535 583d 5163 f7bc 056c 09bd
00000150: 2a7e ab3d 0be6 bd3d 9b58 d83c 1117 483d
00000160: be5d ae3c 1760 08bd 7088 643d 1d19 153d
00000170: 03c7 043d 6af4 3b3d ba8a 563c 3c13 82bd
00000180: cd02 38bd 6713 91bd f799 0b3d 1ebd ac3b
00000190: 0291 4dbd 7643 39bd 7cd9 0aba 879b e7bc
000001a0: 085d 40bd e9cb 8cbc d6a4 c1bc 0760 d337
000001b0: efba 68bd 7e06 303d 1389 6ebd 30de c73d
000001c0: 4495 1a3d 464c 83bd 57b0 203d 155b 903d
000001d0: 4d46 01bd 6d1e d13d 6f55 13bd 206d ad3c
000001e0: 477e 5b3a a9a3 803d 3698 3dbd ff70 5dbd
000001f0: f09b 8eba 6a22 8e3d bb37 eebb fa2f cb3c
00000200: 756e b03d 5be4 8d3d 11df 8e3c 4d57 5b3d
00000210: 7916 f73c 1589 b43d 3c43 17bc 4d47 73bd
00000220: 5850 61bd c373 19bd 8336 5d3d dded 65bd
00000230: f0fb e83b a834 a9bd 92d3 13bc 5135 65bc
00000240: dbd4 61bd ab33 423b c352 5fbd 2ebe e0bc
00000250: b057 983d df08 82bc ecf3 77bc 9a2f 003d
00000260: ed7e 9fbd bca6 2abd 5d67 cf3d 59f4 8ebd
00000270: eebb babb 830a 323b 5584 423d 4ef1 fcbc
00000280: ef55 78bd be22 b93d de04 563c 052b 8dbc
00000290: fe39 a33c d439 50bd 963e adbd 24f1 40bd
000002a0: 793f ad3d 3167 703d 6c8b 7d3d 84eb 8dbd
000002b0: 1728 8bbd c72f c83d 59d6 fcbc bb8a 833d
000002c0: 6052 ad3d 71d2 86bd e125 cbbc e4e4 233d
000002d0: 5c2f 68bd a4f4 9a3d f5f9 92bd e0a5 20bd
000002e0: 5b84 be3d 787d d3bd 49e5 5dbd 2629 f73c
000002f0: adc3 a53c 1ebb 8fbd 171e 9ebd dfa2 a93d
00000300: 6480 81bc f7b5 323c 620a 6abd d66d 9dbd
00000310: ea87 86bd 9dec 68bc 117a 9f3c fa9d cf3d
00000320: fc36 59bd c596 78bd da89 2cbd 69b8 833d
00000330: d160 71bd c3f8 093c 8c30 19bd 7229 3d3c
00000340: 22bd cf3c 90d2 adbd e9c9 87bd 8042 8f3b
00000350: 85ff 24bd b150 c23d 2740 96bc ecc1 6f3d
00000360: 77a7 53bc b2ea 68bd 8dd4 9a3d ce91 1abc
00000370: e269 813c b165 7bbc 079a 9a3b be56 d8bc
00000380: 782f 8fbd 0152 05bb 6981 99bc 5727 7c39
00000390: 00a6 163d 0899 263d 1225 43bd 7dc3 093d
000003a0: df2f 8b3d 8ef5 d9ba 21f2 793d 3a00 4f3c
000003b0: 56a6 21bd e65b f6bb d382 4d3d 861d a83d
000003c0: 5712 9bbd 74dc 973c 32ea aebd ba38 703c
000003d0: e653 da3c d7ed b73a d401 efbc 9108 94bd
000003e0: 4f5d 85bd 512d cb3d 74aa a1bd 4240 d03c
000003f0: 4368 203d 5296 34bd bd0b 3abd 4f92 c43c

action_model._discrete_distribution.branches.1.bias f4 [3]
0.0048176786 -0.01817271 0.016351642
00000000: 9edd 9d3b efde 94bc e1f3 853c

action_model._discrete_distribution.branches.1.weight f4 [3, 256]
-0.04167 -0.04060175 0.02877195 0.00075552333 0.015417002 -0.044536427 0.039091587 -0.024686992
-0.022459993 0.016417734 0.004097187 -0.030184627 0.013224975 -0.008861279 -0.007049196 0.007969558
0.010065299 0.031342577 -0.007738016 -0.013228066 -2.981602e-05 -0.00058676285 0.009690901 0.024084112
-0.040404163 0.023689944 -0.008097418 -0.03141788 0.019160504 0.03795841 -0.008682931 -0.018207498
0.009955306 0.035746116 0.011256943 -0.019133033 -0.024240844 -0.032790706 0.0066742585 -0.016752474
-0.0022179915 -0.026618052 -0.017679226 -0.017387632 -0.03826005 -0.015968753 0.029012516 -0.0059809736
0.03210017 0.029850725 0.00646431 0.021008471 0.011535859 -0.056847263 0.022419013 0.014872081
-0.04386005 -0.012344238 -0.017382976 -0.034462668 -0.019067861 -0.021206813 0.0287866 -0.038002852
0.0030051493 -0.017928654 0.011313269 0.017170241 0.0041657905 -0.022905638 0.019422218 -0.010684811
-0.0037163352 0.043141812 0.024096958 -0.026401568 -0.002521708 -0.009569084 0.00837225 0.025637625
-0.02538798 -0.0036425812 0.012451124 0.010978961 -0.03913714 -0.010698891 0.052545197 0.015044616
-0.020278249 0.0037145822 -0.02811523 -0.039904367 -0.03219296 -0.020503301 -0.033128683 0.053454112
0.002386078 0.0015402085 -0.006557269 -0.016680049 -0.01786288 0.01459913 -0.020656787 0.023423994
0.003449868 0.019676251 0.0016900799 -0.015696725 0.0003389005 0.009379896 0.037602883 -0.025438128
-0.01331575 0.023541432 -0.005526068 0.0128119895 0.029587591 -0.003679089 0.045159914 0.010619328
-0.0006438494 0.0032503165 0.017312132 0.025049947 0.034182172 -0.036897384 -0.01733608 -0.031828374
-0.019184722 -0.004793432 -0.017199952 -0.030955285 -0.02295878 -0.0057125944 0.013983733 0.029713497
0.015692 -0.006705296 -0.0038406386 0.03078693 0.00070667325 0.0059471494 0.006579645 0.029561104
0.024427334 -0.026954208 0.013551869 0.0200665 0.021215761 -0.018235756 0.034666583 0.02744743
0.028000193 0.032419965 -0.011394206 0.018482404 0.020872682 -0.05631511 0.0069422997 0.0030854626
0.027107446 -0.022637948 0.029077724 0.013014107 -0.032027405 0.021371612 0.031362005 0.04508019
-0.006904678 -0.0024915398 -0.0110157225 0.02397007 0.006792907 -0.027909549 0.009944305 -0.037555464
-0.008131304 -0.0061079464 0.025835782 -0.030377435 0.019454006 -0.02422656 0.001693876 -0.023412501
-0.020736597 0.0030398578 -0.012949321 -0.0075232415 -0.0031853907 0.025724728 0.036063183 0.0071178162
0.013633694 -0.025275929 -0.004235093 0.002959853 -0.0037716962 -0.015344448 -0.046434216 -0.015863378
-0.016511485 -0.010249136 -0.015919982 0.002017254 0.009752151 -0.035157558 -0.00043735153 -0.02226316
-0.019870933 0.028820183 0.023445778 0.0089405365 0.0019407972 -0.032489568 0.000834913 -0.04217197
0.013494667 0.010840799 -0.026830686 0.0019397624 0.017691076 0.02912889 0.010096414 0.0183562
0.015588154 0.009659939 0.046149258 -0.028048769 -0.014334983 0.0116441045 -0.0141612245 -0.0008948665
0.028559964 0.010823944 0.001745914 0.020958206 0.005317599 0.042671233 -0.0027109943 -0.048072793
0.005528559 0.0019761152 0.0037182367 -0.023634069 0.017441582 -0.031229943 -0.023205545 0.007441636
0.022426913 -0.05424592 0.00943948 -0.015893709 0.018728724 0.017631546 -0.0013659474 -0.033282164
00000000: 29ae 2abd 054e 26bd 27b3 eb3c 500e 463a
00000010: 9897 7c3c d46b 36bd 801e 203d 603c cabc
00000020: 05fe b7bc 7c7e 863c b241 863b c045 f7bc
00000030: 91ad 583c e62e 11bc f1fc e6bb c092 023c
00000040: ede8 243c 1361 003d 2f8f fdbb 88ba 58bc
00000050: 6a1d fab7 fdd0 19ba 96c6 1e3c 0b4c c53c
00000060: d67e 25bd 6a11 c23c 08ab 04bc 09b0 00bd
00000070: 7df6 9c3c 477a 1b3d da42 0ebc e427 95bc
00000080: 941b 233c 856a 123d 0b6f 383c e1bc 9cbc
00000090: bc94 c6bc 8c4f 06bd bdb3 da3b 7c3c 89bc
000000a0: b95b 11bb 1a0e dabc 06d4 90bc 8270 8ebc
000000b0: 92b6 1cbd e7d0 82bc a8ab ed3c 0bfc c3bb
000000c0: 787b 033d 8289 f43c 90d2 d33b f519 ac3c
000000d0: e600 3d3c add8 68bd 14a8 b73c 07aa 733c
000000e0: 99a6 33bd 7d3f 4abc be66 8ebc ba28 0dbd
000000f0: 3434 9cbc e9b9 adbc e0d1 eb3c e1a8 1bbd
00000100: 0af2 443b 1ddf 92bc 4a5b 393c 9ba8 8c3c
00000110: 2f81 883b 9ba4 bbbc 581b 9f3c 580f 2fbc
00000120: c28d 73bb 78b5 303d fc66 c53c 1a48 d8bc
00000130: 3d43 25bb a6c7 1cbc c32b 093c ff05 d23c
00000140: 74fa cfbc 5fb8 6ebb cdff 4b3c 1ae1 333c
00000150: 444e 20bd 674a 2fbc a239 573d b17d 763c
00000160: 921e a6bc 5970 733b e951 e6bc c372 23bd
00000170: c4dc 03bd 8af6 a7bc f1b1 07bd b3f2 5a3d
00000180: bf5f 1c3b d2e0 c93a 5cde d6bb 99a4 88bc
00000190: 2d55 92bc 3031 6f3c 6c38 a9bc ade3 bf3c
000001a0: 2e17 623b 1730 a13c ac85 dd3a 6b96 80bc
000001b0: 75ae b139 23ae 193c 7b05 1a3d 9f63 d0bc
000001c0: 4e2a 5abc f6d9 c03c 0514 b5bb 61e9 513c
000001d0: ad61 f23c df1c 71bb 9af9 383d b1fc 2d3c
000001e0: 00c8 28ba 4303 553b 2cd2 8d3c 8c35 cd3c
000001f0: 9b02 0c3d b621 17bd 6504 8ebc 785e 02bd
00000200: 4729 9dbc 3912 9dbb eae6 8cbc f095 fdbc
00000210: 0d14 bcbc b730 bbbb 071c 653c b869 f33c
00000220: 828c 803c 1ab8 dbbb 39b3 7bbb df34 fc3c
00000230: 0a40 393a 4ee0 c23b 109a d73b 212a f23c
00000240: d51b c83c 12cf dcbc a908 5e3c 8062 a43c
00000250: adcc ad3c 2763 95bc 8cfe 0d3d 6fd9 e03c
00000260: a960 e53c ccca 043d c4ae 3abc 6968 973c
00000270: 30fd aa3c acaa 66bd 3b7c e33b 7935 4a3b
00000280: 6f10 de3c 3873 b9bc 6834 ee3c 1f39 553c
00000290: 2b2f 03bd 8513 af3c 7275 003d 01a6 383d
000002a0: a340 e2bb 1a49 23bb 4a7b 34bc e15c c43c
000002b0: 0997 de3b 91a2 e4bc 70ed 223c c2d3 19bd
000002c0: 2939 05bc 2b25 c8bb 90a5 d33c 19da f8bc
000002d0: 025e 9f3c c776 c6bc 0c05 de3a 93cb bfbc
000002e0: ccdf a9bc 5a38 473b 6429 54bc 8685 f6bb
000002f0: fdc1 50bb aabc d23c fdb6 133d 923c e93b
00000300: db5f 5f3c 770f cfbc 89c6 8abb 18fa 413b
00000310: 902e 77bb 4867 7bbc ce31 3ebd eaf3 81bc
00000320: 1843 87bc feeb 27bc 9f6a 82bc e833 043b
00000330: 7cc7 1f3c 5f01 10bd 544c e5b9 3b61 b6bc
00000340: 5ec8 a2bc 4e18 ec3c 5c11 c03c 547b 123c
00000350: 5962 fe3a c813 05bd 10de 5a3a 84bc 2cbd
00000360: bc18 5d3c 9b9d 313c 07cc dbbc a03f fe3a
00000370: e0ec 903c b69f ee3c 6e6b 253c be5f 963c
00000380: 7565 7f3c b944 1e3c 0107 3d3d 88c6 e5bc
00000390: 47dd 6abc eac6 3e3c 7b04 68bc 7995 6aba
000003a0: 96f6 e93c e956 313c 27d7 e43a 8bb0 ab3c
000003b0: 413f ae3b 08c8 2e3d f0aa 31bb fae7 44bd
000003c0: ea28 b53b b681 013b a9ad 733b 3c9c c1bc
000003d0: a6e1 8e3c f0d5 ffbc 8e19 bebc f8d8 f33b
000003e0: a5b8 b73c f830 5ebd 0ca8 1a3c 8633 82bc
000003f0: fb6c 993c 0870 903c 9709 b3ba e152 08bd

discrete_action_output_shape f4 [1, 2]
2.0 3.0
00000000: 0000 0040 0000 4040

network_body._body_endoder.seq_layers.0.bias f4 [256]
-0.020860596 -0.03568775 0.0112920515 -0.035769317 0.047671024 0.017501522 0.026935767 0.022925427
-0.07637374 -0.014445057 0.049853276 0.01274824 0.052037045 -0.013832796 -0.02070879 0.015661435
0.018561982 0.045735423 0.00060241553 0.012473313 0.064233385 0.003775207 0.043608397 0.027355233
-0.007271074 0.06508435 -0.04733821 0.02950827 -0.018260729 -0.01272164 0.053957414 0.0012905964
0.076213546 0.031803947 -0.029531725 -0.01046301 0.018715592 -0.013854532 0.0037606182 0.017448938
-0.041070245 0.06034379 -0.038076334 0.06852547 -0.03395698 0.020271592 0.04540858 0.063287765
0.005022985 0.0023837828 -0.027751286 -0.02198535 0.045251526 0.0608834 -0.0395947 0.05523771
0.03080752 0.0037623448 -0.016187267 -0.0001385787 0.03593026 0.02715247 -0.037413795 -0.023810025
0.004107094 -0.013540163 -0.009131086 0.048149604 0.045347262 0.045655023 0.057718135 -0.034100708
0.050122663 0.0199633 0.049091857 0.0005182893 -0.01989405 -0.042076692 -0.050054543 0.01330065
0.033198886 -0.03469717 0.04154775 0.02402247 0.019956697 0.013531593 0.030801954 0.027016103
0.0394376 0.059698176 0.035789307 0.027045986 0.025581097 0.023466323 -0.06424496 -0.0013878003
0.04724034 -0.0025915112 0.011444962 0.011967332 -0.018544057 -0.04341862 0.05625131 -0.046238445
-0.01306839 -0.0038752253 -0.036487713 -0.038747948 0.0092916265 0.019385677 0.026208129 0.013809993
0.05019871 -0.014179798 0.045555875 -0.0043213367 -0.03084592 0.029316366 0.057042032 -0.01721943
0.03853928 -0.022527363 0.050137576 -0.008397565 0.044374127 -0.022653997 0.04326999 0.048255775
-0.0040471624 0.016109742 0.019893048 -0.008248494 0.017008103 -0.02264326 0.022997823 0.0027252694
-0.045438197 -0.041588508 0.07948595 0.04467682 0.053859513 0.03034378 0.04525306 -0.03548633
0.015172423 -0.02157354 -0.0017358086 -0.0076209414 -0.018778544 0.023448879 -0.026336733 0.016113866
0.034785163 0.0043344414 0.01712431 0.009231396 -0.011312643 -0.005420364 0.02605826 0.050644767
0.032577727 -0.03842763 0.08077272 -0.05102435 0.020535044 -0.03374768 -0.044472404 0.03880142
-0.009659272 0.0010134386 0.06826952 0.04470179 0.050461724 -0.020166801 0.02223367 0.03084453
0.016545149 -0.00512641 0.050138246 0.029552078 -0.022340985 0.06200648 0.055738084 -0.017845068
-0.06424533 0.028126843 -0.063240886 -0.07460593 -0.07031948 -0.029175585 0.006036118 -0.018972434
-0.013281909 0.07541197 -0.028706402 0.057793275 0.093685396 0.04818989 -0.062003817 -0.09045604
-0.023258045 0.062915176 -0.009143268 -0.031445518 0.033670794 -0.007831246 0.06172042 0.002266821
0.037643168 0.009346706 0.05198977 0.009098453 0.07535022 -0.026586937 0.007212469 0.012592232
0.021247687 0.012366615 0.045720786 0.038342506 0.016225109 0.07287641 0.02533673 0.030750876
0.067679256 0.02925096 0.03717647 0.037954234 0.05110652 0.029581228 -0.029876098 0.0003034004
0.061119698 0.020002602 0.020278277 0.043234784 -0.01903384 -0.027136354 0.050616752 0.02146695
0.040655684 0.021789871 -0.0023927777 0.0048744367 0.025277639 -0.030140655 -0.027424669 0.044880025
0.03976605 -0.03493574 0.0072994595 -0.021074781 -0.012574002 0.04107564 0.03274032 0.039262585
00000000: d7e3 aabc 512d 12bd 4c02 393c d982 12bd
00000010: b142 433d 5a5f 8f3c 66a8 dc3c 1bce bb3c
00000020: d669 9cbd f6aa 6cbc f332 4c3d fedd 503c
00000030: cc24 553d f4a2 62bc 7ba5 a9bc 694c 803c
00000040: 4c0f 983c 1155 3b3d 6ceb 1d3a de5c 4c3c
00000050: cb8c 833d 7769 773b b89e 323d 1518 e03c
00000060: 3142 eebb f24a 853d b6e5 41bd 54bb f13c
00000070: 8697 95bc 6d6e 50bc 7302 5d3d 3b29 a93a
00000080: d915 9c3d db44 023d 84ec f1bc 0b6d 2bbc
00000090: 7151 993c 1efe 62bc b474 763b 13f1 8e3c
000000a0: 4639 28bd 0d2b 773d eef5 1bbd 1557 8c3d
000000b0: 7916 0bbd 9c10 a63c 59fe 393d 049d 813d
000000c0: da97 a43b 3d39 1c3b aa56 e3bc 9f1a b4bc
000000d0: aa59 393d df60 793d 0d2e 22bd f040 623d
000000e0: 0d60 fc3c ac91 763b 299b 84bc 704f 11b9
000000f0: 9c2b 133d db6e de3c 353f 19bd 3e0d c3bc
00000100: cd94 863b 8fd7 5dbc 8d9a 15bc 8538 453d
00000110: 0dbe 393d c300 3b3d da69 6c3d 2fad 0bbd
00000120: 6c4d 4d3d 138a a33c 8b14 493d cedd 073a
00000130: d9f8 a2bc 9c58 2cbd fe05 4dbd f8ea 593c
00000140: 8efb 073d 9f1e 0ebd f92d 2a3d c5ca c43c
00000150: 3a7c a33c 9db3 5d3c 6154 fc3c e050 dd3c
00000160: 5289 213d 1386 743d cf97 123d 8b8f dd3c
00000170: 738f d13c 723c c03c dd92 83bd dae6 b5ba
00000180: 167f 413d 58d6 29bb a683 3b3c a112 443c
00000190: b5e9 97bc b9d7 31bd c667 663d 8664 3dbd
000001a0: cd1c 56bc 7ef7 7dbb 2474 15bd 2bb6 1ebd
000001b0: e83b 183c b6ce 9e3c 6eb2 d63c 4f43 623c
000001c0: 2a9d 4d3d 6252 68bc cc98 3a3d 009a 8dbb
000001d0: 95b0 fcbc e028 f03c e8a4 693d c30f 8dbc
000001e0: 5ddb 1d3d 4e8b b8bc 0f5d 4d3d f195 09bc
000001f0: a5c1 353d e094 b9bc df3b 313d d9a7 453d
00000200: 0f9e 84bb 94f8 833c bff6 a23c b124 07bc
00000210: 9454 8b3c 5c7e b9bc ee65 bc3c 6f9a 323b
00000220: 671d 3abd b658 2abd 88c9 a23d 0bff 363d
00000230: cb9b 5c3d 8593 f83c 465b 393d 1d5a 11bd
00000240: c195 783c feba b0bc 1284 e3ba 17b9 f9bb
00000250: 76d5 99bc dd17 c03c 22c0 d7bc 3a01 843c
00000260: e37a 0e3d ee07 8e3b 4848 8c3c 483f 173c
00000270: aa58 39bc 4f9d b1bb 2278 d53c e370 4f3d
00000280: 3970 053d 4a66 1dbd 2b6c a53d e9fe 50bd
00000290: 1c39 a83c 023b 0abd b228 36bd 3dee 1e3d
000002a0: ec41 1ebc 5bd5 843a e4d0 8b3d 3919 373d
000002b0: f4b0 4e3d d934 a5bc 6323 b63c abad fc3c
000002c0: b189 873c 72fb a7bb c35d 4d3d 3317 f23c
000002d0: 7104 b7bc 82fa 7d3d 9e4d 643d d22f 92bc
000002e0: 0e93 83bd 446a e63c 7084 81bd feca 98bd
000002f0: a903 90bd a301 efbc a1ca c53b 146c 9bbc
00000300: 5d9c 59bc 9771 9a3d b029 ebbc a4b8 6c3d
00000310: 21de bf3d c362 453d b7f7 7dbd 0441 b9bd
00000320: a887 bebc acd9 803d a5cd 15bc 04cd 00bd
00000330: 63ea 093d a04e 00bc 8dce 7c3d f28e 143b
00000340: b92f 1a3d ed22 193c 3af3 543d ae11 153c
00000350: 3751 9a3d d9cc d9bc 9356 ec3b a64f 4e3c
00000360: a10f ae3c 589d 4a3c b845 3b3d 080d 1d3d
00000370: 85ea 843c 3a40 953d f98e cf3c 43e9 fb3c
00000380: 6c9b 8a3d b69f ef3c 5b46 183d e675 1b3d
00000390: 1255 513d 5554 f23c b8be f4bc b611 9f39
000003a0: a658 7a3d 7fdc a33c a11e a63c f516 313d
000003b0: dbec 9bbc 0f4d debc 8353 4f3d 75db af3c
000003c0: 9386 263d ac80 b23c 26d0 1cbb bdb9 9f3b
000003d0: 0d13 cf3c 89e9 f6bc b3a9 e0bc 1ed4 373d
000003e0: bae1 223d c718 0fbd 4e30 ef3b 05a5 acbc
000003f0: 3003 4ebc ee3e 283d b71a 063d ced1 203d

network_body._body_endoder.seq_layers.0.weight f4 [256, 30]
0.24661937 0.04065194 0.24352218 -0.119772784 0.087689534 -0.026990931 0.27445048 0.28201863
0.00928236 0.26541218 -0.12094044 0.007610524 -0.16104141 0.0751909 -0.39630458 -0.03799198
0.06973142 0.018211491 0.020659525 -0.22193536 0.07934073 0.05388455 0.031151572 -0.29354617
0.17757131 0.08994901 0.15008901 -0.12877558 0.04743648 0.08217534 -0.13317506 0.19574533
-0.049483325 -0.029324794 -0.21033475 -0.20308653 0.38487 -0.4422424 -0.26356632 -0.58241075
0.019365598 -0.06499337 0.19609286 0.11877987 -0.25011528 0.003202218 -0.03919831 0.12546732
0.13606463 0.19981217 0.24028574 0.12847048 0.10003534 0.06670902 0.21680705 -0.092535615
0.04396029 -0.21090575 -0.08272777 0.17983961 0.016996779 -0.16996233 0.039026007 -0.14190869
-0.28190967 0.43473718 -0.081215 0.005323783 0.03681947 -0.01454313 -0.101330675 -0.16232842
0.109588474 0.32887107 -0.07812723 0.071465135 -0.031141838 0.20614645 0.037842415 0.16956541
0.090963356 0.20629972 -0.090950266 -0.067552105 0.25198606 0.13968259 0.2356104 -0.1625154
0.005642624 -0.082599625 -0.033029124 0.036287524 0.020087676 -0.19543892 0.015441875 0.015262399
0.09303343 0.24467655 0.16366689 -0.08761783 -0.020040559 -0.0958177 0.037012808 -0.10784728
0.03137433 0.11957502 -0.15917134 0.21317439 0.080226846 -0.03885625 -0.44754797 -0.13707437
-0.17722254 -0.028827248 -0.0053203 -0.021331372 0.35078543 0.11358387 -0.1732309 -0.38863376
-0.049269143 -0.28970477 -0.1495489 0.1373401 0.02046227 -0.032063127 -0.10054724 0.06669432
-0.08143943 0.38377187 -0.107140385 0.033604655 -0.037303817 0.07870802 -0.033273295 0.35864812
0.078728974 0.17830423 0.16797747 0.28527552 -0.22674994 0.13783595 0.38096708 -0.03919792
-0.16678078 -0.27492443 -0.22063383 0.08966962 0.004664372 -0.29309532 -0.11259304 0.18245888
-0.35863772 0.04781001 -0.115992926 0.0841993 -0.33057022 -0.14728183 -0.0392639 -0.152377
-0.008795916 0.12580469 0.27337432 0.23110668 -0.025228666 0.14958449 0.07176415 0.11339395
-0.019655673 -0.25550124 0.08982984 -0.07055091 -0.09088767 0.31607527 -0.38951394 -0.15029287
0.11523379 -0.29988748 0.049423035 -0.30688855 -0.037451748 -0.061466392 -0.41719303 -0.10749826
-0.07682847 0.13290697 0.102767624 0.3598836 0.01067258 -0.08869999 0.054053597 0.025631761
-0.0038199169 0.25262353 -0.021658598 0.1787051 0.07936077 -0.20999396 0.35194582 -0.16554697
-0.13860284 0.019012114 0.14200807 0.004207498 0.23929048 0.08566648 0.43162468 0.4166165
-0.014758076 0.13166393 0.29704076 0.31019416 -0.122637905 0.12026078 -0.053435773 -0.061713498
0.43840063 -0.033659033 -0.036243893 0.14960594 0.0039336015 0.087404095 0.044878427 0.00684873
0.22626197 -0.5686127 -0.025331626 0.38153398 -0.073099606 -0.2719452 -0.21396416 -0.07783596
0.011747141 -0.11412551 0.26923767 -0.023161482 -0.08609243 0.02653678 0.061238255 0.12739806
-0.13864593 0.16801442 -0.2864963 -0.22073686 -0.02990168 0.2049963 0.3183997 0.025174726
0.103802 -0.1854865 -0.15657333 -0.21663333 -0.026682874 -0.1293604 -0.39341176 0.014646047
00000000: ca89 7c3e a682 263d e15d 793e 6f4b f5bd
00000010: 9296 b33d 161c ddbc c684 8c3e bf64 903e
00000020: 0a15 183c 1be4 873e 9faf f7bd b461 f93b
00000030: 0ae8 24be b0fd 993d 6fe8 cabe 7a9d 1bbd
00000040: 59cf 8e3d 4430 953c 2a3e a93c 0643 63be
00000050: 657d a23d 0cb6 5c3d 9531 ff3c af4b 96be
00000060: 41d5 353e 3037 b83d efb0 193e bfdd 03be
00000070: c14c 423d 8b4b a83d 0b5f 08be 7771 483e
00000080: 07af 4abd 8d3a f0bc fe61 57be eaf5 4fbe
00000090: ae0d c53e 996d e2be 2af2 86be df18 15bf
000000a0: 9aa4 9e3c 3e1b 85bd 91cc 483e dc42 f33d
000000b0: 1c0f 80be 4edc 513b 688e 20bd 817a 003e
000000c0: 8754 0b3e 909b 4c3e 770d 763e c48d 033e
000000d0: 54df cc3d bd9e 883d ab02 5e3e 5083 bdbd
000000e0: b40f 343d adf7 57be 2d6d a9bd e027 383e
000000f0: d43c 8b3c 9b0a 2ebe bcd9 1f3d 8350 11be
00000100: 7756 90be df95 de3e 0d54 a6bd 2173 ae3b
00000110: 03d0 163d 4f46 6ebc 7586 cfbd 6c39 26be
00000120: ec6f e03d ca61 a83e 2b01 a0bd 505c 923d
00000130: 2b1d ffbc 0e18 533e a600 1b3d 8ea2 2d3e
00000140: ff4a ba3d 3c40 533e 2244 babd c258 8abd
00000150: 5104 813e f408 0f3e da43 713e 706a 26be
00000160: c3e5 b83b fe29 a9bd 8c49 07bd 3aa2 143d
00000170: e98e a43c 2421 48be ebff 7c3c 240f 7a3c
00000180: 5088 be3d 7d8c 7a3e 4b98 273e fa70 b3bd
00000190: 192c a4bc 123c c4bd be9a 173d 09df dcbd
000001a0: 5f82 003d c0e3 f43d d0fd 22be 634a 5a3e
000001b0: f94d a43d bb27 1fbd 0225 e5be 395d 0cbe
000001c0: d379 35be 1f27 ecbc e955 aebb 21bf aebc
000001d0: 269a b33e a99e e83d 7163 31be 01fb c6be
000001e0: 71ce 49bd 2f54 94be 5923 19be e2a2 0c3e
000001f0: 7ea0 a73c a054 03bd b6eb cdbd 0897 883d
00000200: b7c9 a6bd bf7d c43e 6b6c dbbd 09a5 093d
00000210: e3cb 18bd ac31 a13d 9449 08bd baa0 b73e
00000220: a83c a13d 6295 363e 4902 2c3e a20f 923e
00000230: 2331 68be de24 0d3e 1e0e c33e 008e 20bd
00000240: 95c8 2abe e5c2 8cbe d6ed 61be b5a4 b73d
00000250: 97d7 983b 9710 96be 2e97 e6bd 80d6 3a3e
00000260: 5d9f b7be 6ed4 433d b38d edbd af70 ac3d
00000270: 8040 a9be 0cd1 16be 2fd3 20bd b708 1cbe
00000280: bf1c 10bc f2d2 003e b8f7 8b3e 3ba7 6c3e
00000290: 59ac cebc ad2c 193e 15f9 923d 163b e83d
000002a0: ef04 a1bc 0fd1 82be b5f8 b73d ff7c 90bd
000002b0: 5123 babd 9ed4 a13e 5f6e c7be 60e6 19be
000002c0: b1ff eb3d da8a 99be cf6f 4a3d 7f20 9dbe
000002d0: 0167 19bd 2fc4 7bbd 539a d5be 0c28 dcbd
000002e0: 3f58 9dbd c418 083e d577 d23d aa42 b83e
000002f0: 0cdc 2e3c 57a8 b5bd 4e67 5d3d b3f9 d13c
00000300: 9257 7abb df57 813e 5f6d b1bc 78fe 363e
00000310: e687 a23d a808 57be 3e32 b43e 2585 29be
00000320: e7ed 0dbe 4bbf 9b3c 906a 113e 0ddf 893b
00000330: 9008 753e e871 af3d e9fd dc3e c24e d53e
00000340: dbcb 71bc e9d2 063e ba15 983e c5d1 9e3e
00000350: 9529 fbbd 494b f63d 78df 5abd 4bc7 7cbd
00000360: 0c76 e03e 0ede 09bd 7a74 14bd 4d32 193e
00000370: 71e5 803b eb00 b33d 71d2 373d 506b e03b
00000380: 38b1 673e 9a90 11bf 4584 cfbc 6c58 c33e
00000390: 3fb5 95bd 673c 8bbe 6c19 5bbe 7668 9fbd
000003a0: 1577 403c a3ba e9bd 85d9 893e 26bd bdbc
000003b0: 3a51 b0bd a963 d93c f7d4 7a3d a374 023e
000003c0: 33f9 0dbe f90b 2c3e a5af 92be d808 62be
000003d0: 5ef4 f4bc 8dea 513e 4905 a33e 3a3b ce3c
000003e0: 2596 d43d 2cf0 3dbe c254 20be 21d5 5dbe
000003f0: 0b96 dabc 0d77 04be 446d c9be f9f5 6f3c

network_body._body_endoder.seq_layers.2.bias f4 [256]
0.030628864 0.053767707 -0.0020070835 0.055343684 -0.011824636 0.043068174 -0.011985381 0.034435354
0.060793083 -0.016208047 -0.011581521 0.027425088 -0.011151617 -4.1857467e-05 -0.028881423 -0.009960074
-0.018133372 -0.017092997 -0.024946366 -0.008242235 -0.027308011 -0.029200017 0.0068376563 0.022168413
0.04997721 -0.0039050158 0.020950975 0.015939724 -0.015834605 -0.021577043 0.041834526 0.015480559
0.040164232 0.03662369 0.0027845828 0.035317834 0.004827886 -0.0030936901 0.02416536 0.035588518
-0.001176959 -0.0003098705 0.03874104 0.031555273 0.01106004 0.051460337 -0.008724227 -0.013268072
0.015073588 -0.019931076 -0.022662934 -0.023309814 -0.024736864 0.04332289 0.03677758 -0.0029157961
0.03649863 -0.016667934 0.0049681854 0.029598603 0.04075146 0.028754994 -0.013426095 0.006005693
-0.018642692 0.05202437 -0.002663021 -0.026638541 0.061112583 0.059765913 0.043875355 0.048477333
0.012149886 -0.0046984586 -0.02635297 -0.005130322 -0.004349804 0.03612324 0.01978534 0.0030790886
0.016518578 0.05114983 -0.024111448 0.007078001 0.055333514 0.046320535 0.019989857 0.024055846
0.013614425 -0.027200826 0.037341923 0.049142692 0.017075902 0.05320166 0.05460811 -0.005970281
-0.025923498 -0.022045963 -0.009131486 0.04844914 -0.0074031292 -0.022973722 0.046066128 -0.023781229
-0.023787836 -0.030623917 0.0032717835 0.015153099 -0.026281707 0.037920363 -0.013048834 0.043373715
0.032898977 -0.021180782 0.04843596 0.04312817 -0.003258817 0.04349841 -0.00016252957 0.014368525
-0.03466274 0.025435053 -0.025914555 -0.03484079 -0.001308397 0.0110754315 0.00027559703 0.04737958
0.026518589 0.04356169 0.021830847 0.017217427 0.015764628 0.038353555 -0.014750625 0.0096154185
0.027463917 -0.017929899 0.048251934 -0.016373705 0.027745683 -0.011652814 -0.004510125 0.0054791514
0.029347742 0.018285597 -0.027063971 0.0023467597 0.0095223915 -0.002958157 -0.01952292 0.009243607
-0.019841256 -0.010609481 0.03989085 0.0030292117 0.017659305 0.05173483 0.037239287 0.00028645893
0.029472338 0.057005383 -0.0042591924 0.0031403932 0.06834229 -0.01638462 -0.006883054 -0.008142304
0.04052632 0.022505134 0.04279569 -0.022842947 -0.025072867 0.03274409 0.037733078 0.039193008
0.031882897 -0.011253716 0.03931257 0.055756792 -0.0074523133 0.041824162 0.009239161 0.01876651
0.047189955 -0.0080525745 0.0030600852 0.027229816 0.017672358 0.0030215 -0.02139222 0.03096812
0.006463402 0.021410082 0.043051153 -0.022770014 0.019159907 0.0012129098 0.024565767 0.036910463
-0.0020205893 0.020870412 -0.021973459 0.036637627 0.009543084 0.044720072 0.0065789176 0.060904074
0.003906436 -0.014450711 -0.019255072 0.012459812 0.008274393 0.051118694 0.037429847 0.020906046
0.0010396861 -0.013616142 0.04747765 0.0037914 0.01762561 0.03566552 -0.018687883 -0.016597996
-0.011518453 0.01393735 -0.0028626448 -0.0017306486 -0.006839595 0.03267143 0.018649776 0.032591466
0.023542069 -0.008451834 0.029551102 0.011281577 -0.005310568 -0.0023317183 0.055895735 0.03826488
-0.012839544 0.050808813 -0.008383948 0.032102283 0.008860115 -0.012278831 -0.009071539 -0.018934777
-0.009008938 0.053421397 0.0017727768 0.062217135 0.039615486 -0.025500203 0.041964546 0.0194256
00000000: 62e9 fa3c 873b 5c3d 4689 03bb 0fb0 623d
00000010: 1ebc 41bc 4168 303d 555e 44bc 160c 0d3d
00000020: 2b02 793d bdc6 84bc 6bc0 3dbc 94aa e03c
00000030: 46b5 36bc 1d90 2fb8 bc98 ecbc 942f 23bc
00000040: 708c 94bc 9d06 8cbc 525c ccbc 700a 07bc
00000050: 0db5 dfbc e034 efbc 6b0e e03b 889a b53c
00000060: e7b4 4c3d 4beb 7fbb 61a1 ab3c 0694 823c
00000070: 93b7 81bc 57c2 b0bc ae5a 2b3d 2ca2 7d3c
00000080: 4083 243d b902 163d 8c7d 363b 6fa9 103d
00000090: 3e33 9e3b 82bf 4abb 6ff6 c53c 44c5 113d
000000a0: 3144 9aba 1d76 a2b9 edae 1e3d 1a40 013d
000000b0: 2c35 353c 13c8 523d 0ff0 0ebc 5462 59bc
000000c0: 36f7 763c 7f46 a3bc 9ea7 b9bc 39f4 bebc
000000d0: f7a4 cabc 5873 313d 16a4 163d f116 3fbb
000000e0: 967f 153d 318b 88bc 29cc a23b c578 f23c
000000f0: 01eb 263d 988f eb3c 20f9 5bbc 68cb c43b
00000100: 8fb8 98bc 8117 553d 1486 2ebb 1239 dabc
00000110: 3051 7a3d 1acd 743d a5b6 333d 2b90 463d
00000120: 5110 473c 87f5 99bb 2fe2 d7bc 431c a8bb
00000130: cd88 8ebb f6f5 133d de14 a23c 89ca 493b
00000140: f851 873c 7c82 513d 5f85 c5bc 93ee e73b
00000150: 65a5 623d 9aba 3d3d c5c1 a33c c410 c53c
00000160: 0a0f 5f3c 44d4 debc d8f3 183d d949 493d
00000170: c3e2 8b3c fce9 593d c1ac 5f3d 59a2 c3bb
00000180: 845d d4bc bc99 b4bc 3a9c 15bc 9b72 463d
00000190: f395 f2bb 6333 bcbc d6af 3c3d dad0 c2bc
000001a0: b5de c2bc 02df fabc 6b6b 563b b444 783c
000001b0: bc4c d7bc 6252 1b3d c7ca 55bc a3a8 313d
000001c0: 14c1 063d 5283 adbc c964 463d 2aa7 303d
000001d0: e091 55bb 642b 323d b36c 2ab9 f669 6b3c
000001e0: 84fa 0dbd 2c5d d03c c34a d4bc 37b5 0ebd
000001f0: 857e abba ba75 353c 027e 9039 1711 423d
00000200: 833d d93c be6d 323d 9bd6 b23c 900b 8d3c
00000210: d224 813c 9e18 1d3d 9bac 71bc fd89 1d3c
00000220: 02fc e03c b9e1 92bc d2a3 453d 2622 86bc
00000230: ea4a e33c 72eb 3ebc acc9 93bb 748a b33b
00000240: ad6a f03c adcb 953c 43b5 ddbc 18cc 193b
00000250: ce03 1c3c a4dd 41bb 88ee 9fbc 7f72 173c
00000260: 218a a2bc 63d3 2dbc 9764 233d bd85 463b
00000270: 3faa 903c e7e7 533d 3988 183d de2f 9639
00000280: f96f f13c 7a7e 693d b290 8bbb 0ecf 4d3b
00000290: 0bf7 8b3d 0a39 86bc 3e8b e1bb 4c67 05bc
000002a0: edfe 253d b05c b83c 894a 2f3d 2221 bbbc
000002b0: 9d65 cdbc ab1e 063d 008e 1a3d d988 203d
000002c0: a497 023d 8261 38bc 3806 213d 3c61 643d
000002d0: 8932 f4bb d04f 2b3d da5f 173c 39bc 993c
000002e0: 414a 413d f2ee 03bc b68b 483b 1011 df3c
000002f0: 9fc5 903c 5c04 463b bd3e afbc dbb0 fd3c
00000300: f2ca d33b 3264 af3c 6856 303d 2e88 babc
00000310: 3df5 9c3c 80fa 9e3a 263e c93c 6d2f 173d
00000320: dd6b 04bb 6df8 aa3c af01 b4bc 5611 163d
00000330: 985a 1c3c 652c 373d f693 d73b 8d76 793d
00000340: 8f01 803b adc2 6cbc d0bc 9dbc 3d24 4c3c
00000350: 5291 073c d661 513d 0a50 193d 2843 ab3c
00000360: 1446 883a 3d16 5fbc ed77 423d 2379 783b
00000370: 9563 903c 0216 123d 5517 99bc 85f8 87bc
00000380: e5b7 3cbc 7c59 643c 369b 3bbb eed6 e2ba
00000390: ae1e e0bb 7ad2 053d 6ac7 983c a17e 053d
000003a0: 4cdb c03c 9079 0abc 2715 f23c 5dd6 383c
000003b0: 4604 aebb becf 18bb edf2 643d a3bb 1c3d
000003c0: f35c 52bc e71c 503d d45c 09bc af7d 033d
000003d0: 042a 113c 262d 49bc cba0 14bc 1b1d 9bbc
000003e0: 3a9a 13bc 65d0 5a3d 855c e83a 65d7 7e3d
000003f0: d943 223d cde5 d0bc 04e3 2b3d 7022 9f3c

network_body._body_endoder.seq_layers.2.weight f4 [256, 256]
0.047094002 0.035769906 -0.14016125 0.04155448 0.1322624 -0.0019965123 0.092325166 -0.019896837
-0.034778707 -0.12705943 -0.059887186 0.017408313 0.0010415735 -0.07960651 -0.0154911475 0.05871792
-0.025590975 0.00033385403 -0.13473074 0.06109871 0.050817225 -0.080104224 -0.004925105 -0.025564712
-0.05829164 0.076724626 0.10904112 0.008548015 -0.083905816 0.07880735 0.074561566 0.03367073
0.11138136 0.0024991988 -0.002803435 -0.19856533 -0.018827537 -0.09019137 0.098739915 0.15960048
0.02502683 -0.00054147386 -0.054015037 -0.05757114 0.05009117 0.074428 0.077139355 -0.002443452
0.12074092 0.05729757 0.029244706 -0.022853112 -0.04159356 0.07754591 -0.074438564 0.08469301
0.031063654 0.013741597 0.03673713 -0.08929027 -0.076047815 0.024985516 -0.028746737 -0.033565257
0.05205116 -0.071386196 0.056095235 -0.0045408686 -0.04148561 0.0014044354 0.039450623 -0.045892876
-0.028034832 0.055370685 -0.030912276 0.025525078 -0.0062234905 -0.08545039 -0.015261367 0.16902614
-0.08682189 -0.119197644 0.075927645 -0.080360994 -0.0054968884 0.039082948 -0.05721649 -0.029662756
-0.028420195 0.0127125075 0.01948281 -0.029283062 0.058212463 0.022718366 -0.015694322 0.0051809847
0.019860202 -0.0362581 -0.03594116 -0.050741725 0.03389122 0.009645826 0.07929061 -0.070181675
-0.12122445 0.00073551125 -0.042142168 0.024463285 0.032739647 -0.044835445 -0.026928537 0.04402416
-0.014685111 -0.120660886 0.07282457 -0.090301566 0.047136888 0.085983045 -0.011515277 -0.017473636
0.072621256 -0.005650802 0.15572813 -0.054300424 -0.0019638797 -0.12555921 0.063362844 0.04207171
0.09700778 0.0016709932 0.070749104 -0.1261895 0.111947216 0.0018814168 -0.069141746 0.13798696
-0.03952883 -0.043097533 0.071121775 0.026598157 0.1326914 0.008510842 -0.024366975 -0.022481801
-0.05997575 -0.018301778 0.04540406 0.024908707 -0.05484066 0.04695282 -0.022690773 0.061251298
0.030291174 0.0023688732 -0.0423267 -0.012275033 0.030326812 -0.051670272 -0.057717882 0.058628835
0.09832509 -0.053988487 -0.06014745 0.040970664 -0.016453318 -0.0317628 -0.0034062562 0.008904156
0.019511199 0.00012012856 0.04633577 -0.0026133487 0.015008132 -0.0565748 0.07119159 0.02539766
0.070116036 0.08243952 0.025612336 -0.012245767 0.06900858 -0.001347902 0.06789058 -0.14899622
-0.17630227 0.1300838 0.038708553 -0.050976507 0.00967199 0.016826525 -0.010748314 -0.09015705
-0.0050206394 0.18736441 -0.014856664 0.05971146 0.09099217 0.05271313 -0.09511338 -0.086710066
-0.069808386 0.10883889 0.032175183 -0.009111203 -0.028194344 -0.031208944 0.2251611 -0.0043529724
-0.12347002 -0.061083492 0.16663721 -0.053703498 0.1553743 -0.05110351 0.09349347 -0.14099604
-0.00512497 0.041307032 0.01595896 -0.019094164 -0.096275315 -0.033011433 0.009980078 0.03757443
-0.006797981 0.011908246 0.003799948 0.020857066 0.096085265 -0.0190096 -0.002396145 -0.04798816
0.0329504 -0.07886758 0.05035035 0.17362915 0.0893407 -0.009820009 -0.022091348 0.06974489
-0.017964605 0.07748104 -0.12018881 -0.10681965 -0.010344435 -0.031624425 -0.00858593 0.0660247
0.041599475 0.024633689 0.11169951 -0.0006687513 -0.0048280745 0.06314808 -0.05173002 0.116646506
00000000: a4e5 403d 7783 123d 6e86 0fbe 0835 2a3d
00000010: cb6f 073e ebd7 02bb fa14 bd3d b1fe a2bc
00000020: 1e74 0ebd de1b 02be 444c 75bd e19b 8e3c
00000030: 6885 883a bd08 a3bd 95ce 7dbc 3482 703d
00000040: 2aa4 d1bc 2109 af39 dbf6 09be a442 7a3d
00000050: b925 503d af0d a4bd c662 a1bb 166d d1bc
00000060: 37c3 6ebd cd21 9d3d f350 df3d f90c 0c3c
00000070: d0d6 abbd bf65 a13d bcb3 983d 52ea 093d
00000080: e91b e43d 99c9 233b d6b9 37bb b654 4bbe
00000090: 353c 9abc 41b6 b8bd 2738 ca3d 4f6e 233e
000000a0: 1105 cd3c b2f1 0dba df3e 5dbd b7cf 6bbd
000000b0: 662c 4d3d b56d 983d 3dfb 9d3d 5222 20bb
000000c0: 0447 f73d dbb0 6a3d 9892 ef3c 7336 bbbc
000000d0: 025e 2abd 64d0 9e3d 3f73 98bd 8773 ad3d
000000e0: 3479 fe3c 6f24 613c ac79 163d d1dd b6bd
000000f0: f5be 9bbd 6dae cc3c 477e ebbc b97b 09bd
00000100: 9933 553d ed32 92bd 1ec4 653d 91cb 94bb
00000110: d1ec 29bd 0815 b83a fa96 213d 2bfa 3bbd
00000120: 4ea9 e5bc 5fcc 623d be3b fdbc f819 d13c
00000130: 6cee cbbb 9d00 afbd d00a 7abc 3015 2d3e
00000140: adcf b1bd e51d f4bd f47f 9b3d 4e94 a4bd
00000150: 3e1f b4bb 7115 203d d75b 6abd 4fff f2bc
00000160: 78d1 e8bc 1f48 503c 6a9a 9f3c 08e3 efbc
00000170: 3170 6e3d de1b ba3c 6191 80bc 40c5 a93b
00000180: ddb1 a23c 6083 14bd 0a37 13bd 8ed6 4fbd
00000190: 85d1 0a3d 8709 1e3c 1e63 a23d 69bb 8fbd
000001a0: 8644 f8bd 53cf 403a 449d 2cbd 3a67 c83c
000001b0: 021a 063d 5fa5 37bd 3c99 dcbc ad52 343d
000001c0: d299 70bc 0e1d f7bd 0c25 953d 07f0 b8bd
000001d0: 9c12 413d e117 b03d 93aa 3cbc df24 8fbc
000001e0: 74ba 943d 5d2a b9bb 3277 1f3e 1f6a 5ebd
000001f0: 6fb4 00bb 9892 00be 61c4 813d 6353 2c3d
00000200: 04ac c63d 3a05 db3a e8e4 903d d237 01be
00000210: 9544 e53d df99 f63a 309a 8dbd 744c 0d3e
00000220: fce8 21bd 0a87 30bd 4ba8 913d 61e4 d93c
00000230: 41e0 073e 0f71 0b3c 409d c7bc c12b b8bc
00000240: 22a9 75bd 9ced 95bc 9cf9 393d 580d cc3c
00000250: 9aa0 60bd 9a51 403d 00e2 b9bc a4e2 7a3d
00000260: 3225 f83c 193f 1b3b c35e 2dbd 381d 49bc
00000270: ef6f f83c 35a4 53bd 9669 6cbd ca24 703d
00000280: aa5e c93d 0823 5dbd 2c5d 76bd dbd0 273d
00000290: 1cc9 86bc b619 02bd 7f3b 5fbb bde2 113c
000002a0: f3d5 9f3c 88ed fb38 94ca 3d3d b744 2bbb
000002b0: abe4 753c faba 67bd e5cc 913d c10e d03c
000002c0: ff98 8f3d 0dd6 a83d f6d0 d13c 78a2 48bc
000002d0: 5f54 8d3d 16ac b0ba 370a 8b3d 7792 18be
000002e0: 9588 34be b034 053e dc8c 1e3d becc 50bd
000002f0: 4477 1e3c c8d7 893c b219 30bc 42a4 b8bd
00000300: 2d84 a4bb 75dc 3f3e 5e69 73bc 0194 743d
00000310: 1a5a ba3d b9e9 573d ceca c2bd 0c95 b1bd
00000320: b3f7 8ebd ede6 de3d 20ca 033d 2847 15bc
00000330: d3f7 e6bc e6a9 ffbc a290 663e 61a3 8ebb
00000340: dadd fcbd af32 7abd f2a2 2a3e 33f8 5bbd
00000350: 711a 1f3e ea51 51bd 8179 bf3d 4461 10be
00000360: 5def a7bb 9031 293d 5dbc 823c 5d6b 9cbc
00000370: fe2b c5bd ff36 07bd 7b83 233c a5e7 193d
00000380: 99c1 debb ce1a 433c 8c08 793b 70dc aa3c
00000390: 5ac8 c43d 05ba 9bbc a408 1dbb 3c8f 44bd
000003a0: 00f7 063d 5385 a1bd 2b3c 4e3d d7cb 313e
000003b0: 42f8 b63d 1ae4 20bc eaf8 b4bc 69d6 8e3d
000003c0: 822a 93bc 61ae 9e3d 8d25 f6bd 43c4 dabd
000003d0: b57b 29bc 9d88 01bd 00ac 0cbc f537 873d
000003e0: 3664 2a3d 97cc c93c b6c2 e43d 244f 2fba
000003f0: d334 9ebb c853 813d dce2 53bd 5de4 ee3d
