Assets/6. Results/Staff_Stage2_V5.onnx (onnx, 290784 bytes, 9 tensors)

action_model._discrete_distribution.branches.0.bias f4 [2]
0	0xbc32ede8	-0.010920979
1	0x3c32ede3	0.010920974

action_model._discrete_distribution.branches.0.weight f4 [2, 256]
0	0xbd108062	-0.035278685
1	0xbcc81f28	-0.024428919
2	0xbd7dce13	-0.061964106
3	0x3cc1871c	0.023623995
4	0x3cc42198	0.0239418
5	0x3c871629	0.016490059
6	0xbc1538d2	-0.009107785
7	0x3d3daa23	0.046304833
8	0xbc07ef8c	-0.0082968585
9	0x38f180eb	0.00011515788
10	0x3d98a12c	0.07452616
11	0xbca8a640	-0.020587087
12	0x3c3e4332	0.0116127
13	0xbcdded16	-0.02709059
14	0xbc772286	-0.015083915
15	0xbd9a8141	-0.075441845
16	0x3d2b3438	0.041797847
17	0x3c3dd1d8	0.011585675
18	0xbb91d972	-0.0044509703
19	0xbd324260	-0.04352033
20	0xbcc7f6cf	-0.02440968
21	0xbe19a285	-0.15003403
22	0xbb4ffb6f	-0.003173556
23	0x3d49d201	0.04927254
24	0x3cb67b96	0.022275727
25	0xbc662bbc	-0.014048513
26	0xbd9d5250	-0.076817155
27	0xbda17221	-0.078830965
28	0xbd25b28d	-0.040453482
29	0x3d16a33f	0.036776777
30	0xbc692100	-0.014229059
31	0xbb5fa369	-0.00341245
32	0xb9f2e348	-0.00046327175
33	0xbb897fdf	-0.0041961516
34	0x3b3bd8e3	0.002866321
35	0xbd03d031	-0.03218097
36	0xbb55bb1d	-0.003261275
37	0xbd0ccdfb	-0.034376126
38	0xbd111b6e	-0.03542655
39	0xbb284a18	-0.002567893
40	0x3be2d129	0.0069219065
41	0xbd5c8fac	-0.053847954
42	0xbd8bc0a5	-0.068238534
43	0xbd924cb0	-0.07143533
44	0xbdc48dbb	-0.095973454
45	0xbc9c5ad3	-0.019086277
46	0x3c07ab43	0.008280578
47	0xbb803ad0	-0.003913261
48	0xbcbd9a8e	-0.023144986
49	0x3c9ebf0e	0.019378211
50	0x3d89bafe	0.06725119
51	0xbcc05e3a	-0.02348243
52	0xbbb281ad	-0.0054475875
53	0xbc8170a5	-0.015800783
54	0xbb8d418b	-0.004310792
55	0xbdc2e8c1	-0.095170505
56	0xbda7ed0e	-0.081995115
57	0x3d4026ce	0.046912007
58	0xbdb2902e	-0.08718906
59	0xbd70ae97	-0.05876025
60	0x3c152be0	0.009104699
61	0xbe23a03d	-0.15979095
62	0xbd494ac4	-0.049143568
63	0x3c24e380	0.010064006
64	0xbba0c5eb	-0.004906406
65	0x3d556681	0.05209971
66	0xbdf38264	-0.118901044
67	0x3c935266	0.017983627
68	0xbc42ee2f	-0.011897608
69	0x3cec4a67	0.028844072
70	0x3c293898	0.010328434
71	0x3d124f6a	0.035720266
72	0x3b1d8e2d	0.0024041042
73	0x3aa1623b	0.00123126
74	0xbd50e1e3	-0.050996672
75	0x3d94d669	0.07267458
76	0x3be4d8c1	0.006983847
77	0x3b8dc05f	0.004325911
78	0xbd70a096	-0.058746897
79	0x3ac87e5a	0.0015296445
80	0x3c4e5541	0.012593568
81	0xbca65bc7	-0.020307435
82	0xbb3a2c81	-0.0028407874
83	0x3bb1e4dd	0.005428894
84	0xbd0a0fff	-0.03370666
85	0x3b1ec1b3	0.002422434
86	0xbcd699bc	-0.026196353
87	0xbdcf260a	-0.10114677
88	0x3d47913a	0.048722483
89	0xbd4b784e	-0.04967528
90	0x3be4fe63	0.006988333
91	0xb806d5d2	-3.2147225e-05
92	0x3b2a8f60	0.00260254
93	0x3c9f53c7	0.019449128
94	0x3b7a7a81	0.003821999
95	0x3c74f7f6	0.014951697
96	0xbcce0970	-0.025150985
97	0xbd0fda44	-0.035120264
98	0xbc80ec47	-0.015737666
99	0x3c30527c	0.010761853
100	0x3b8eb548	0.0043551065
101	0xbb71014d	-0.0036774457
102	0x3d4ddcc1	0.050259355
103	0xbd9a01db	-0.07519885
104	0xbe28acc2	-0.16472152
105	0xbba21ded	-0.004947415
106	0xba076716	-0.00051652023
107	0xbd8619e6	-0.065479085
108	0xbd66087f	-0.056160446
109	0xbd213c5d	-0.039364208
110	0xbd8b6142	-0.0680566
111	0xbd22a5b2	-0.0397088
112	0x3dc243bd	0.09485576
113	0xbc95df78	-0.018295035
114	0xbc6b0e28	-0.014346637
115	0xbc468be5	-0.012118314
116	0xbd67d2ef	-0.056597646
117	0xbd82e0ae	-0.063905105
118	0x3cf5ef2e	0.030021276
119	0x3d287a1e	0.041132085
120	0x3b9ae7b0	0.0047273263
121	0xbc8d2c76	-0.017233115
122	0xbd00f792	-0.0314861
123	0xbd19278c	-0.03739123
124	0xbb581651	-0.0032972286
125	0x3c0e41a0	0.008682638
126	0x3ccdbebe	0.025115367
127	0xbbb57da5	-0.0055386596
128	0xbb17e2b1	-0.002317589
129	0xbc46b34b	-0.012127708
130	0xbb57a190	-0.0032902695
131	0x3d795838	0.060875148
132	0xbd9a89aa	-0.075457886
133	0x3d9d34f0	0.07676113
134	0xbbfbdad1	-0.007685997
135	0xbaaaee9e	-0.0013041084
136	0xbd6a78f7	-0.057244267
137	0x3d8e44d2	0.0694672
138	0xbc16c85f	-0.009203046
139	0xbdfd7ba5	-0.12377099
140	0xbe08c445	-0.13356121
141	0xbac28942	-0.0014841931
142	0x3dbe5d8d	0.09295187
143	0x3d82de34	0.06390038
144	0x3c954796	0.018222611
145	0x3bfada97	0.0076554525
146	0x3c9370e5	0.017998168
147	0xbcdc5862	-0.026897613
148	0xbc8227e3	-0.01588816
149	0xbd53ce17	-0.051710214
150	0x3d3fd8f4	0.046837762
151	0x3c1f6fe0	0.009731263
152	0x3da85ceb	0.08220848
153	0xbd834cbb	-0.064111196
154	0xbb863ecc	-0.0040968414
155	0x3d0afeb1	0.0339343
156	0x3c9b8d1f	0.01898819
157	0x3b863a37	0.004096295
158	0xbd2b175b	-0.04177032
159	0x3cb9721c	0.02263742
160	0x3aa571b8	0.0012622392
161	0xbc20c352	-0.009812193
162	0x3d8da443	0.06916096
163	0xbe062381	-0.13099481
164	0x3c8ffc2c	0.0175763
165	0xbce2478a	-0.027622003
166	0xbc8f08e5	-0.017460296
167	0xbcb4fb65	-0.02209253
168	0x3d0ef34f	0.034900006
169	0x3ceea1bf	0.02912986
170	0x3c2cb51e	0.010541229
171	0xb9b2a980	-0.00034077093
172	0xbd57d222	-0.052690633
173	0x3dab5d8c	0.08367452
174	0x3c8a2525	0.016863415
175	0xbbb3dc41	-0.005488903
176	0xbd78af6a	-0.060714163
177	0xbd0b45a6	-0.03400197
178	0xbab78fc0	-0.0014004633
179	0x3d09befe	0.03362941
180	0x3bcaeb5e	0.0061926087
181	0x3d107ed6	0.03527721
182	0x3d3263e5	0.043552298
183	0xbb953165	-0.0045530074
184	0x3ccb1a17	0.024792714
185	0xbc9e3b43	-0.019315368
186	0xbd08c6c4	-0.033392683
187	0xbbb86dab	-0.005628308
188	0xbddd2464	-0.107979566
189	0x3d14976f	0.03627723
190	0xbd11e638	-0.035619944
191	0xbbd58ed5	-0.006517271
192	0x3cecd3da	0.028909612
193	0x3d8c6d5c	0.06856796
194	0xbd1ece7a	-0.03877113
195	0x3c38faa5	0.011290227
196	0xbdbd3645	-0.09238867
197	0x3ca1f26a	0.019768912
198	0x3de393b5	0.11112157
199	0xbd64cc90	-0.05585915
200	0x3d9eba69	0.07750399
201	0xbd09b10e	-0.033616118
202	0xbcc997f3	-0.024608588
203	0x3d051115	0.032486994
204	0xbd103bf2	-0.03521342
205	0x3c07b23a	0.008282239
206	0xbcb699c9	-0.022290127
207	0xbcda05c5	-0.02661408
208	0xbdab655a	-0.08368941
209	0xbcf393e1	-0.0297336
210	0x3cdc22f6	0.02687214
211	0x3c2383c9	0.0099801505
212	0x3b449e75	0.0030001674
213	0xbbb0e1c3	-0.0053980066
214	0x3c827265	0.015923688
215	0x3ca601bb	0.020264497
216	0xbcd0f7b4	-0.025508739
217	0xbdcf42b1	-0.10120142
218	0x3ced20c4	0.028946288
219	0xbb77860e	-0.0037769112
220	0x3d2e9589	0.042623077
221	0xbe281932	-0.16415861
222	0xbbb42ed1	-0.005498745
223	0x3d927024	0.071502954
224	0xbc9e8eaf	-0.019355146
225	0xbbc82f07	-0.0061091217
226	0x3da59fa2	0.08087088
227	0x3c3619f6	0.011114588
228	0xbe12fb8c	-0.1435377
229	0xbcf25138	-0.029579744
230	0x3d3a3c20	0.045467496
231	0xbd1feef4	-0.039046243
232	0x3d668bc8	0.05628565
233	0xbbb6586d	-0.0055647404
234	0x3ccf161c	0.025279097
235	0xbb211f41	-0.002458528
236	0xbb3193d9	-0.002709618
237	0xbc861002	-0.016365055
238	0xbd7c8e5c	-0.061659202
239	0x3dacddfb	0.08440777
240	0x3c524e9a	0.012836123
241	0x3c61888b	0.013765465
242	0xbcf0c50e	-0.029390838
243	0xbc6ee76b	-0.0145815415
244	0x3cbe5a3d	0.023236388
245	0x3d996012	0.07489027
246	0x3cae1007	0.021247877
247	0xbe206e11	-0.15666987
248	0x3d371793	0.044700217
249	0xbd1579d4	-0.036493137
250	0x3c85baa5	0.01632435
251	0x3d08ea39	0.033426497
252	0xbd98c19f	-0.07458805
253	0x3caf1581	0.021372559
254	0xbc15a200	-0.009132862
255	0x3ca072e4	0.019586034

action_model._discrete_distribution.branches.1.bias f4 [3]
0	0xbbc11d7a	-0.0058934065
1	0x3d06a9e6	0.03287687
2	0xbd047638	-0.032339305

action_model._discrete_distribution.branches.1.weight f4 [3, 256]
0	0x3d0e17ad	0.034690548
1	0x3c4d6e8c	0.012538563
2	0x3cfaeaa0	0.030629456
3	0xbcb3e970	-0.021961898
4	0xbcac60ec	-0.02104231
5	0xbbdfe466	-0.006832647
6	0xbc948791	-0.01813105
7	0xbd8eb549	-0.06968171
8	0x3b53cc9b	0.0032318
9	0x3cdf882b	0.02728661
10	0xbd00a19b	-0.03140412
11	0xbc237d1d	-0.00997856
12	0x3bb2d4b0	0.005457483
13	0x3b2528a5	0.0025201228
14	0x38e6dbd1	0.000110081986
15	0x3d93e467	0.07221299
16	0xbc322774	-0.010873664
17	0xbbe7dfdf	-0.007076248
18	0x3c0bac3a	0.008524949
19	0xbb010328	-0.001968572
20	0x3d39368a	0.045218028
21	0x3c87cda7	0.016577555
22	0xbc85983b	-0.01630794
23	0xbcddace1	-0.027059974
24	0xbb97d811	-0.0046339114
25	0xbc812a85	-0.015767345
26	0x3d580bd7	0.052745666
27	0x3d89e4fd	0.06733129
28	0x3c7367b0	0.014856264
29	0xbcab98a1	-0.020946803
30	0xbc7dc5f1	-0.015489087
31	0x3c07e01a	0.008293176
32	0x3c320166	0.010864591
33	0x3bbe991a	0.005816591
34	0xbb577abf	-0.003287956
35	0xbba5f687	-0.0050647887
36	0xba19238a	-0.00058417825
37	0x3b7ad645	0.0038274687
38	0x3cc9d3cc	0.024637125
39	0x3b4292b0	0.0029689483
40	0xbb148c42	-0.0022666608
41	0xbc29da8d	-0.010367048
42	0xbc0e6639	-0.008691364
43	0xbb2ed197	-0.0026675218
44	0x3d1fb605	0.038991947
45	0x3c6bc081	0.014389158
46	0xbc6409ab	-0.013918321
47	0x3c6e537d	0.014546272
48	0xbb9e76ee	-0.004835955
49	0xbb9d36a1	-0.004797772
50	0xbcd6ae06	-0.026206028
51	0xbc7129e3	-0.014719459
52	0xbc6abdb3	-0.014327454
53	0xbbc04a72	-0.0058682496
54	0xba5ddc1c	-0.000846328
55	0x3bdd51ec	0.0067541506
56	0x3c701524	0.014653478
57	0xbd21132e	-0.03932493
58	0x3d233e7c	0.03985451
59	0x3d257dfc	0.04040335
60	0xbc8b16a4	-0.01697857
61	0x3d9bd620	0.076092005
62	0x3bdca3a2	0.0067333737
63	0x3c076d06	0.008265739
64	0xbb0e76e9	-0.0021738356
65	0xbc8c1e6b	-0.017104348
66	0x3d2cdd10	0.04220301
67	0x3c802343	0.015641814
68	0xbb89264b	-0.004185473
69	0xbbfb149a	-0.007662368
70	0xbc31e722	-0.010858329
71	0xbd0872c4	-0.033312574
72	0xbb228d75	-0.0024803553
73	0x3bb8d4fc	0.005640624
74	0x3a8a379f	0.0010545141
75	0xbd6f79d4	-0.058465794
76	0x3caad9d8	0.02085583
77	0xbc00abba	-0.007853443
78	0x3c823c65	0.015897939
79	0x3bb55c90	0.005534716
80	0x3a8db0b3	0.0010810107
81	0xbc275b65	-0.010214661
82	0x3bb6366f	0.005560688
83	0xbbe242cf	-0.006904937
84	0x3cb981b2	0.022644851
85	0xbb7c0528	-0.0038455222
86	0xbbc9833d	-0.006149678
87	0x3d2d82e5	0.04236116
88	0xbc419dbe	-0.011817394
89	0x3c365e2c	0.011130851
90	0xbbb4cd59	-0.0055176434
91	0xbcad06e1	-0.021121444
92	0xba3fd148	-0.0007317257
93	0xbc358698	-0.011079453
94	0x3c7d4bf4	0.015460003
95	0xbc88370b	-0.016627809
96	0xbb8acfb9	-0.0042361883
97	0x3b81dec0	0.0039633214
98	0x3bcf8972	0.0063335234
99	0xbb44efb6	-0.0030050105
100	0xbc128899	-0.0089437
101	0x3ba2a4c7	0.0049634906
102	0xbd92d828	-0.07170135
103	0x3cab5fa8	0.020919636
104	0x3dd2c00d	0.10290537
105	0x3c818eb9	0.015815126
106	0x3bab4872	0.005227142
107	0x3d757e5a	0.05993495
108	0x3a94693a	0.0011322864
109	0xbbcabbda	-0.0061869444
110	0x3d349a5a	0.044092514
111	0xbc285650	-0.010274485
112	0xbdae52e3	-0.08511903
113	0xba84067f	-0.0010072737
114	0x3b71e70d	0.0036911399
115	0xbc942790	-0.018085271
116	0x3ca332a4	0.019921608
117	0xbcdaf912	-0.026730094
118	0xbc58c079	-0.013229483
119	0xbbebeffd	-0.0072002397
120	0xbc257a98	-0.010100029
121	0xbca0e151	-0.01963869
122	0xbb256aeb	-0.002524073
123	0x3c32c75f	0.010911792
124	0xbc879bd3	-0.016553795
125	0x3b388c2c	0.002815972
126	0x3c0eb83f	0.00871092
127	0x3c9a473c	0.018832795
128	0x3b42d141	0.0029726776
129	0x3c632e89	0.013866075
130	0x3b24041f	0.002502687
131	0xbc9fe44f	-0.019518046
132	0x3d343489	0.043995414
133	0xbd100a48	-0.035166055
134	0xbc8069d2	-0.015675459
135	0xbbaf4c7d	-0.0053496943
136	0x3bdb307e	0.0066891303
137	0xbcfe8ae9	-0.031072097
138	0x3c90197c	0.017590277
139	0x3cc36130	0.023850054
140	0x3ccebcae	0.025236454
141	0x3a0da4c8	0.00054032775
142	0xbd96b102	-0.0735798
143	0xbd34523a	-0.04402373
144	0xbcf1b0c8	-0.029503241
145	0xbc94d7ea	-0.018169362
146	0x3c1fc429	0.009751358
147	0xbad310d4	-0.0016103038
148	0xbb8a8fea	-0.0042285817
149	0x3d0bbc0c	0.034114882
150	0xbd808f34	-0.06277314
151	0xbc9adf96	-0.018905442
152	0xbd9d139a	-0.07669754
153	0xbbb5dbbd	-0.0055498765
154	0x3bad7c77	0.0052943784
155	0xbcb4ca79	-0.022069203
156	0xbc54ea99	-0.012995386
157	0xbbe37e2c	-0.006942531
158	0x3c02fd8c	0.007995021
159	0xbbfcc1bc	-0.0077135246
160	0xbc1c2f2b	-0.00953273
161	0xbc90c9e9	-0.017674403
162	0xbccd437d	-0.025056595
163	0x3c8539bf	0.016262887
164	0xbba4cc5e	-0.0050292453
165	0x3c0888da	0.008333409
166	0xbc114abf	-0.0088679185
167	0x3cea543d	0.028604621
168	0x3c0f9baa	0.008765141
169	0xbc6d488a	-0.014482627
170	0x3b052e88	0.0020321924
171	0x3bf4cb52	0.0074705267
172	0x3cae6771	0.02128956
173	0xbcd405be	-0.025881644
174	0xbc5a5af1	-0.013327346
175	0x3b82ad4a	0.003987943
176	0x3ca4c498	0.020113274
177	0xbb4bcfc8	-0.003109919
178	0x3ae74ec3	0.0017647374
179	0x39b6e0e5	0.00034881305
180	0x3c9e8976	0.019352656
181	0x3ccc2e06	0.02492429
182	0x3aea28ca	0.0017864939
183	0xbc27f799	-0.010251903
184	0x3b9fa318	0.004871737
185	0xbc6d8b5c	-0.014498558
186	0x3b75d403	0.0037510402
187	0x3c110df9	0.008853429
188	0x3d8c1f0e	0.06841861
189	0xbc85a984	-0.016316183
190	0x3bf9fd66	0.0076290844
191	0x3bf5a548	0.0074965097
192	0x3c6500f4	0.013977278
193	0xbd2f7229	-0.04283348
194	0xba9dcf17	-0.0012039867
195	0x3c71bc40	0.014754355
196	0x3d0ee740	0.034888506
197	0xbd3a245a	-0.045444824
198	0xbdc0f479	-0.094216295
199	0x3ccb1b86	0.024793398
200	0xbcf3354b	-0.029688498
201	0x3c52b737	0.012861065
202	0xbc680bbe	-0.014162956
203	0xbba4219e	-0.0050088903
204	0x3ccae39c	0.024766736
205	0x3b7e1661	0.0038770663
206	0xbc7224c3	-0.0147792725
207	0xbb317805	-0.0027079594
208	0x3d09e9ac	0.033670112
209	0xbcafb465	-0.021448324
210	0xbc54368d	-0.012952459
211	0x3adac23f	0.001668997
212	0x3c302d9b	0.010753061
213	0xbbd7ce99	-0.0065859077
214	0x3bbdeaa0	0.0057957917
215	0x3a829213	0.0009961746
216	0x3c13820b	0.009003173
217	0x3cd9343e	0.026514169
218	0xbc0cfc67	-0.008605099
219	0x3b16a8a5	0.0022988704
220	0xbc6b65f7	-0.014367572
221	0x3c769c3e	0.0150518995
222	0xbacc1153	-0.0015569128
223	0xbd8d4cba	-0.068994
224	0xbc41e1c6	-0.011833614
225	0xbc6ec13f	-0.014572441
226	0xbd185e85	-0.037199516
227	0xba428730	-0.0007420657
228	0x3d014489	0.0315595
229	0xbc238cd1	-0.009982304
230	0xbd8f237a	-0.069891885
231	0x3c9dc0fa	0.019257057
232	0xbd0c70ee	-0.034287386
233	0xbbbe1f8e	-0.0058021015
234	0xbc6bfa5d	-0.014402953
235	0x3c25d638	0.0101218745
236	0x3c4ff6a3	0.01269308
237	0xbbb708b3	-0.005585754
238	0x3c94345a	0.01809137
239	0xbcfea2b9	-0.031083452
240	0x3c144a48	0.009050913
241	0xbcd2ef01	-0.025748732
242	0x3cc7076d	0.024295533
243	0x3d257ab1	0.04040021
244	0xbcdc6d24	-0.026907511
245	0xbd1dd6d4	-0.038534954
246	0xbb589f13	-0.00330538
247	0x3cc350c7	0.023842229
248	0xbcb1516a	-0.021645267
249	0xbc5208c1	-0.01281947
250	0xbd82f22a	-0.063938454
251	0xbcbd7d1e	-0.02313095
252	0x3d24d172	0.040238805
253	0xb9b7f7c2	-0.00035089074
254	0xbb90dac4	-0.00442061
255	0xbd243941	-0.040093664

discrete_action_output_shape f4 [1, 2]
0	0x40000000	2.0
1	0x40400000	3.0

network_body._body_endoder.seq_layers.0.bias f4 [256]
0	0xbd2dc48c	-0.04242377
1	0xbce49a0f	-0.027905492
2	0x3bb99b78	0.0056642853
3	0xbd629cb6	-0.055325232
4	0x3d67a3f7	0.056552853
5	0xbc31fcd5	-0.0108635025
6	0xbd90c4be	-0.070687756
7	0xbd2f4b74	-0.042796567
8	0x3e04ab46	0.1295596
9	0xbc2b2633	-0.010446119
10	0xbd653ce3	-0.05596627
11	0x3c1a50c8	0.009418674
12	0x3d09646a	0.033543028
13	0xbc1dc7ed	-0.009630186
14	0xbd0bd3aa	-0.034137405
15	0x3d921a8c	0.0713397
16	0xbbd988f2	-0.0066386396
17	0xbd5ebe57	-0.05438074
18	0xbbd38f79	-0.0064563123
19	0x3cc48c39	0.023992645
20	0xbc90690b	-0.017628213
21	0x3bc1a7e4	0.0059099067
22	0xbd46138d	-0.04835849
23	0x3de1aeb0	0.11019647
24	0x3cfeade7	0.031088782
25	0xbc8f38ef	-0.017483203
26	0x3c905423	0.017618245
27	0xbd582c09	-0.05277637
28	0xbd63e6be	-0.055639975
29	0xbd5e99da	-0.054345943
30	0x3c11a07e	0.008888362
31	0x3d57aaaa	0.052652992
32	0x3afeb31b	0.001943204
33	0xbc5e36d5	-0.013562878
34	0xbd42931b	-0.047503572
35	0xbb915075	-0.00443464
36	0xbd89cf48	-0.06728989
37	0x3bf6eb5a	0.0075353803
38	0xbba4cf91	-0.0050296267
39	0x3e0399e3	0.12851672
40	0x3c1a19f9	0.009405606
41	0xbd2b4012	-0.04180915
42	0x3d9666bc	0.07343814
43	0xbc835100	-0.016029835
44	0x3e0400e2	0.12890962
45	0x3cb9d76e	0.022685733
46	0xbd7f3138	-0.062302798
47	0xbd65c536	-0.056096278
48	0x3dc79f2c	0.097471565
49	0x3d26804a	0.04064969
50	0xbcb1155e	-0.021616634
51	0x3d6f20ae	0.058380775
52	0x3dbf46b1	0.09339655
53	0xbc81800d	-0.01580813
54	0x3dc49fd8	0.096008
55	0x3b808270	0.0039217994
56	0x3bfce3cd	0.0077175857
57	0xbbc2c16f	-0.0059434692
58	0x3d55b16e	0.052171163
59	0xbc87df0a	-0.016585846
60	0x3d2c7bd5	0.042110283
61	0x3c574a61	0.013140292
62	0xbb6be3ab	-0.0035993855
63	0x3db1f960	0.08690143
64	0xbc8e3ad9	-0.017362045
65	0xbd1b7e7d	-0.037962426
66	0x3b711caa	0.0036790767
67	0x3d65707d	0.05601548
68	0x3b8838f4	0.00415718
69	0xbd366ba6	-0.044536255
70	0x3cd34479	0.025789486
71	0x3d01eec7	0.031721856
72	0x3d303043	0.043014776
73	0x3d087662	0.033316024
74	0xbd0c0ca6	-0.03419175
75	0x3d9fafe8	0.07797223
76	0x3c64acc4	0.013957206
77	0x3d33f9b4	0.043939307
78	0xbd46aa5c	-0.04850231
79	0x3d2a6ca6	0.04160752
80	0xbbe96f06	-0.0071238307
81	0xbd18d4cd	-0.037312318
82	0xbc0a0feb	-0.008426647
83	0x3c0b3ba2	0.008498104
84	0x3d725ca4	0.05917038
85	0x3c0e30e3	0.008678648
86	0xbd0fd879	-0.035118554
87	0x3b79c11c	0.0038109487
88	0xbc46c39a	-0.012131596
89	0xbbb8903e	-0.0056324294
90	0x3d17170a	0.036887206
91	0xbd725110	-0.05915934
92	0x3c7c506f	0.015400036
93	0x3da33846	0.07969718
94	0xbc4fb4e0	-0.012677401
95	0xbd20700d	-0.03916936
96	0x3d2e670f	0.042578753
97	0x3c19617a	0.009361619
98	0xbd8f09ae	-0.06984268
99	0x3d6a983f	0.0572741
100	0xbac5dc7b	-0.0015095616
101	0x3d43e136	0.0478222
102	0x3d48a8ab	0.04898898
103	0x3d849b67	0.06474953
104	0x3d6ded0a	0.058087386
105	0x3dbd72e5	0.0925043
106	0x3d325da8	0.04354635
107	0x3d322333	0.0434906
108	0x3c46d0aa	0.01213471
109	0xbcca264d	-0.024676466
110	0x3d5e9cc9	0.05434874
111	0xbc938000	-0.018005371
112	0xbc0802e4	-0.00830147
113	0x3d6d49f8	0.05793187
114	0xbd335718	-0.04378423
115	0xbca054ac	-0.019571625
116	0x3dbf3445	0.093361415
117	0xbc7f1f5b	-0.015571441
118	0xbd1fa11e	-0.038972013
119	0x3d2d8237	0.04236051
120	0x3cc72b0a	0.024312515
121	0x3db09a2c	0.08623156
122	0xbda3bc6f	-0.07994925
123	0x3ced4779	0.028964745
124	0x3cf710a2	0.030159298
125	0xbdc52609	-0.09626395
126	0xbb85b8f6	-0.004080887
127	0xbd908b68	-0.0705784
128	0xbd5e693f	-0.05429959
129	0xbc711087	-0.014713413
130	0x3ddac87c	0.106827706
131	0x3d6f7ef4	0.05847068
132	0xbcb86269	-0.022507863
133	0xbd13526f	-0.035967287
134	0x3c126914	0.008936185
135	0x3d0ddb82	0.034633167
136	0x3cdc8eb4	0.026923515
137	0xbd5929c6	-0.053018354
138	0x3cd7f0b3	0.026359892
139	0xbd8359eb	-0.06413635
140	0xbd19d065	-0.037552256
141	0x3d87a668	0.06623536
142	0xbcc7d30d	-0.024392629
143	0xbd01be7d	-0.031675804
144	0x3d6f4254	0.058412865
145	0xbd4b2131	-0.0495922
146	0x3d953827	0.07286101
147	0x3d9a0fcd	0.07522545
148	0xbce1dc2a	-0.027570803
149	0x3c3ea24e	0.011635376
150	0x3da7c354	0.08191553
151	0x3cb13fc8	0.021636859
152	0x3dc854e8	0.097818196
153	0xbd9a43fa	-0.07532497
154	0xbdb35b14	-0.08757606
155	0x3d0916ad	0.03346889
156	0xbba7010a	-0.0050965594
157	0xbc979a31	-0.018506141
158	0xbd2a22f5	-0.041537244
159	0x3c7be547	0.015374488
160	0xbc61d18d	-0.013782871
161	0x3d6257c5	0.055259485
162	0x3c76b5e9	0.015058019
163	0x3d4f4161	0.05059946
164	0xbc2cebeb	-0.010554294
165	0x3c07917c	0.008274432
166	0x3ca03f14	0.019561328
167	0x3c9dbd7c	0.019255392
168	0x3ccaf27f	0.024773834
169	0x3dd01bef	0.10161578
170	0x3d4a18be	0.049340002
171	0x3d2c39c8	0.042047292
172	0xbb835869	-0.004008342
173	0x3d21ac3b	0.039470892
174	0x3d2ea47f	0.042637344
175	0xbc56f725	-0.013120447
176	0x3e08baeb	0.13352554
177	0xbd3ef283	-0.046617996
178	0xbc19e281	-0.009392382
179	0xbb59a67c	-0.0033210805
180	0x3cf872e2	0.030328218
181	0x3b982244	0.0046427567
182	0x3bf71eab	0.0075414977
183	0x3d99597a	0.074877694
184	0xbce10e80	-0.027472734
185	0xbd48720f	-0.0489369
186	0xbd1ed38a	-0.038775958
187	0x3d949df5	0.072566904
188	0x3d1c7040	0.038192987
189	0x3da8828e	0.08228026
190	0x3cec6fb7	0.028861864
191	0xbc1b0e5d	-0.009463874
192	0x3cc66354	0.024217285
193	0x3afc2139	0.0019235975
194	0x3d82799d	0.06370852
195	0x3da14391	0.078742154
196	0xbba8cbba	-0.005151239
197	0xbc20c251	-0.009811954
198	0xbc9bbe87	-0.019011749
199	0x3a9d9609	0.0012022863
200	0xbd05ce09	-0.032667194
201	0xbda26cfe	-0.07930945
202	0x3d694d95	0.056958754
203	0x3c9dc214	0.019257583
204	0x3d446f32	0.047957607
205	0x3e027ff0	0.12744117
206	0x3d53a6da	0.051672794
207	0x3d3b41df	0.045717116
208	0x3cb9609c	0.022629075
209	0x3d1c0e49	0.03809956
210	0x3d045cea	0.032315172
211	0x3d2e891e	0.042611234
212	0xbd9fb947	-0.07799011
213	0xbce52716	-0.02797274
214	0xbba42c58	-0.005010169
215	0xbcce8764	-0.025211044
216	0x3b7f32d5	0.003894021
217	0xbcbd894f	-0.023136763
218	0x3cb6377e	0.022243258
219	0x3cf504ae	0.029909458
220	0x3d774bed	0.060375143
221	0xbd7ce740	-0.061743975
222	0x3c0d662f	0.0086303195
223	0xbc141c7d	-0.009039995
224	0x3c6c1187	0.014408476
225	0xbd37bdc2	-0.0448587
226	0xbc1c6458	-0.009545408
227	0xbd58c391	-0.05292088
228	0x3c707d67	0.014678336
229	0x3b088405	0.0020830643
230	0x3d5ede45	0.05441119
231	0xbc9fdb9e	-0.019513901
232	0xbc1e7afe	-0.009672878
233	0x3c7b36f7	0.015332929
234	0x3c7143c4	0.014725629
235	0x39d4016f	0.0004043686
236	0x3c2bf45d	0.010495272
237	0xbc470c0c	-0.012148868
238	0xbd4835cb	-0.048879426
239	0xbd877c5f	-0.06615519
240	0x3d21a65d	0.039465297
241	0x3d067145	0.032822866
242	0x3cda6e80	0.026664019
243	0x3d8435d5	0.0645558
244	0xbd859b25	-0.06523732
245	0xbbcc68ae	-0.0062380647
246	0xbd5f00c5	-0.054444093
247	0xbcb6d070	-0.022316188
248	0x3db3846d	0.087654926
249	0xbd563c08	-0.052303344
250	0xbc5dcbb8	-0.01353734
251	0xbcbb18db	-0.022839
252	0x3d3b9d6f	0.045804437
253	0xbbcf29d7	-0.0063221264
254	0x3cc5646c	0.024095736
255	0x3d8df29f	0.06931042

network_body._body_endoder.seq_layers.0.weight f4 [256, 18]
0	0x3f1a544e	0.6028489
1	0x3cec39f3	0.028836226
2	0xbdcb7ef0	-0.09936321
3	0xbd5a90ed	-0.05336087
4	0x3e954788	0.29156137
5	0x3ea6453f	0.32474706
6	0xbecd8598	-0.40140986
7	0x3e10d2c0	0.14142895
8	0xbe62586a	-0.2210404
9	0x3cdf74db	0.0272774
10	0xbe7e28cd	-0.24820252
11	0xbe875caa	-0.26437885
12	0x3ea8fd36	0.33005685
13	0x3e6ab8e4	0.22922093
14	0x3e381cc3	0.17979722
15	0x3e041bec	0.12901276
16	0xbe7da2c0	-0.24769115
17	0x3eaa8b32	0.33309323
18	0xbe25f0f6	-0.162052
19	0x3e5c2d52	0.21501663
20	0x3d612afa	0.054972626
21	0xbdf13d10	-0.11779225
22	0x3e60acc9	0.21940912
23	0xbefbbfb5	-0.49169698
24	0x3e3582b4	0.1772564
25	0xbd093857	-0.033500995
26	0xbdc6192c	-0.0967277
27	0xbebee0bf	-0.37280843
28	0xbe6f3c5f	-0.23362873
29	0xbe6298a0	-0.22128534
30	0xbeb5cfee	-0.355102
31	0xbeecf2b7	-0.46278927
32	0x3e85c522	0.26126963
33	0x3e28ad69	0.164724
34	0x3dc55dd6	0.096370384
35	0xbcd84d1e	-0.02640396
36	0x3ef7c098	0.48389125
37	0xbef127e9	-0.47100762
38	0xbde6b94b	-0.112658106
39	0x3d6266f8	0.05527398
40	0x3dad1c7d	0.08452699
41	0x3ecda7da	0.40167123
42	0xbe07b542	-0.13252738
43	0x3eacf346	0.33779353
44	0x3c2ef98c	0.010679614
45	0x3d849105	0.06472973
46	0xbebb35df	-0.36564538
47	0x3e462677	0.1935061
48	0x3e97bc57	0.2963588
49	0xbe82ff34	-0.2558533
50	0xbe367067	-0.17816316
51	0x3e84f585	0.25968567
52	0xbf16b825	-0.5887473
53	0x3ccb771c	0.02483707
54	0xbef63faf	-0.48095462
55	0x3eb2d5e1	0.34928802
56	0xbe9d8e56	-0.30772656
57	0xbe747ee5	-0.23876531
58	0x3ea42712	0.32061058
59	0x3d9bfde3	0.076167844
60	0x3eaedd4e	0.34153217
61	0x3de84371	0.113409884
62	0x3dc279ca	0.09495886
63	0xbdd96518	-0.10614985
64	0x3ec3750d	0.3817524
65	0xbc85e14b	-0.01634278
66	0x3e147ead	0.14501448
67	0x3d4c3be6	0.04986181
68	0xbde74ecd	-0.11294327
69	0xbe41df1a	-0.18932763
70	0xbdd3ca2b	-0.10341295
71	0x3ec1ff10	0.3788991
72	0x3c55138d	0.01300515
73	0xbe062dfc	-0.13103479
74	0xbef14bac	-0.47128046
75	0x3ee1ce0f	0.44102523
76	0xbed65148	-0.41858888
77	0x3eaa0fa9	0.33215073
78	0x3e2c75ce	0.16841814
79	0xbe137412	-0.14399746
80	0x3d8efcd5	0.06981818
81	0x3d024de8	0.03181258
82	0x3eef0b99	0.46688536
83	0xbe50dd6e	-0.20396969
84	0x3e0743ca	0.13209453
85	0xbd594d0c	-0.053051993
86	0x3e4d1edc	0.20031303
87	0xbe526603	-0.20546727
88	0x3cc8f0f1	0.024528952
89	0x3d1db681	0.038504127
90	0x3e77fbc2	0.24217132
91	0x3ddba91f	0.10725617
92	0xbf128822	-0.5723897
93	0x3ef48f2e	0.47765487
94	0x3e160ba0	0.14652872
95	0xbeb4c8a8	-0.3530934
96	0x3ee412a8	0.44545484
97	0x3cb44763	0.022006696
98	0x3d9edcaa	0.07756932
99	0x3ed3dcd1	0.41379407
100	0xbe37cb31	-0.17948605
101	0x3efac426	0.48977774
102	0xbdfca29f	-0.12335705
103	0xbe9f21f3	-0.3108059
104	0x3e909d70	0.28245115
105	0x3d6df1bf	0.058091875
106	0xbdcca1fc	-0.099918336
107	0x3eb4d7a8	0.35320783
108	0xbef9595d	-0.4870099
109	0x3e1ceaff	0.15324019
110	0xbe91e1cc	-0.28492582
111	0xbe0b9283	-0.13630109
112	0x3e86a00e	0.26293987
113	0xbea8d2b7	-0.32973263
114	0x3e33b8fe	0.17551038
115	0xbee34e30	-0.4439559
116	0xbdb68f7e	-0.08914088
117	0x3dc06d99	0.09395904
118	0xbeb03efb	-0.3442305
119	0x3eb5a373	0.35476264
120	0xbe705642	-0.23470405
121	0x3e3d9df2	0.18517283
122	0xbd80e943	-0.06294491
123	0x3e843fb8	0.25829864
124	0x3e82a930	0.25519705
125	0x3ef35009	0.47522
126	0xbf86a060	-1.0517693
127	0xbecc73e0	-0.39932156
128	0xbee27796	-0.44231862
129	0x3ceef92d	0.02917155
130	0xbe5fcd22	-0.21855596
131	0x3eb31992	0.34980446
132	0x3e6c4e2a	0.23076692
133	0x3cbeecee	0.023306336
134	0x3f290d69	0.6603609
135	0x3ebf9d3c	0.37424648
136	0xbebdbc52	-0.3705774
137	0x3eb63f08	0.35594964
138	0xbe456cb5	-0.1927975
139	0x3c874c50	0.01651588
140	0xbe48c09e	-0.19604728
141	0xbef7b863	-0.48382863
142	0x3ec3ae47	0.382189
143	0x3ea85d11	0.32883504
144	0xbf755e37	-0.95846885
145	0xbeaa68c3	-0.33283052
146	0xbeb66f75	-0.3563191
147	0xbec7b729	-0.39006928
148	0x3e15f1e5	0.14643057
149	0xbed36c43	-0.41293535
150	0xbda3900d	-0.0798646
151	0x3ea3db91	0.32003453
152	0xbe73163c	-0.2373895
153	0xbc962341	-0.018327357
154	0x3e372b5f	0.17887639
155	0xbe2d1a2c	-0.16904515
156	0x3edda975	0.43293348
157	0x3e704338	0.23463142
158	0x3d8a1ada	0.06743403
159	0x3e426e17	0.18987308
160	0xbe1e7d0d	-0.1547739
161	0xbe9134a6	-0.2836048
162	0x3ec630e7	0.38709185
163	0x3d1d8c9d	0.038464177
164	0xbe2be4dd	-0.16786523
165	0xbe84edac	-0.2596258
166	0xbd76873b	-0.06018756
167	0xbeeeb58e	-0.4662289
168	0x3f215709	0.6302343
169	0x3c0bbd40	0.008529007
170	0xbd6c65e4	-0.057714358
171	0x3e95411b	0.29151234
172	0x3e7708f3	0.24124508
173	0x3e01dc82	0.12681773
174	0xbc0a72f3	-0.008450258
175	0xbe24a4f5	-0.16078551
176	0x3dc93344	0.09824231
177	0xbdfc5b13	-0.123220585
178	0x3e8be382	0.27322012
179	0x3e274116	0.16333422
180	0x3c4a0161	0.01232943
181	0x3d47b75b	0.048758846
182	0x3ddce543	0.10785916
183	0xbe25b430	-0.16182017
184	0x3dbfb609	0.09360892
185	0x3f180c2d	0.5939358
186	0xbd991a62	-0.07475735
187	0xbe9ae74a	-0.30254585
188	0x3e833692	0.2562757
189	0x3d832316	0.064031765
190	0xbe8ce606	-0.27519244
191	0x3ea9ec80	0.33188248
192	0xbe9adce2	-0.30246645
193	0xbe55a661	-0.2086425
194	0xbe15df7c	-0.14636034
195	0x3e335bfa	0.17515555
196	0x3e870ab1	0.26375344
197	0x3e27ccbc	0.16386694
198	0x3ddb56bc	0.10709903
199	0xbe558a2d	-0.20853491
200	0xbf0b9d7a	-0.54537165
201	0x3f1bd29b	0.60868233
202	0x3e355807	0.17709361
203	0x3e1b7862	0.15182641
204	0x3e818e1d	0.25303736
205	0x3eb7f15d	0.35926333
206	0xbd92d5ba	-0.07169671
207	0x3dbb249b	0.09137841
208	0xbc298d4a	-0.010348627
209	0x3e51a2ac	0.2047221
210	0x3e97f370	0.29677916
211	0x3db6b83e	0.0892186
212	0xbe459878	-0.19296443
213	0xbed8131f	-0.42202088
214	0xbef26d6c	-0.47349107
215	0xbda14168	-0.078738034
216	0x3bf15c4b	0.0073657385
217	0xbe159a2c	-0.14609593
218	0xbed67117	-0.41883156
219	0xbe7f5ca4	-0.24937683
220	0x3ac6f2c7	0.0015178554
221	0x3e32d73b	0.17464916
222	0xbca5e2b5	-0.020249704
223	0x3e3747ba	0.17898455
224	0xbcfcada0	-0.03084451
225	0xbe58f34b	-0.21186559
226	0xbe588656	-0.21144995
227	0x3e246616	0.16054568
228	0x3f0d6d2e	0.5524472
229	0x3df4660b	0.11933526
230	0x3e1eed06	0.15520105
231	0x3e501fb8	0.203246
232	0x3dc531dd	0.09628651
233	0xbd981890	-0.0742656
234	0x3ec56e00	0.38560486
235	0x3e0398ac	0.12851208
236	0xbf057a28	-0.5213952
237	0xbd7951d8	-0.060869068
238	0xbe33c46f	-0.17555402
239	0xbe3151b7	-0.17316328
240	0xbdd3b145	-0.10336546
241	0x3d53e670	0.051733434
242	0x3e1e81c8	0.15479195
243	0x3e6501af	0.22363923
244	0xbdc0ec8d	-0.094201185
245	0x3eacfb09	0.33785275
246	0xbe84c0b4	-0.2592827
247	0x3e632fcf	0.22186206
248	0x3e02f891	0.12790133
249	0x3e445a8a	0.19175163
250	0xbe075c91	-0.13218905
251	0xbdacecd8	-0.08443612
252	0x3ea7dec2	0.32787138
253	0xbcb8247b	-0.022478333
254	0xbf55b492	-0.83478653
255	0xbe913e1a	-0.28367692

network_body._body_endoder.seq_layers.2.bias f4 [256]
0	0x3c009bf7	0.007849685
1	0x3c3f8ceb	0.011691312
2	0x3cb58c26	0.022161555
3	0x3bcea050	0.006305732
4	0xbc8b70a7	-0.01702149
5	0xbc6a3769	-0.014295437
6	0xbc9ffb1e	-0.019528922
7	0x3d056bb8	0.03257343
8	0xbcb7dc30	-0.02244386
9	0xbc589033	-0.0132179735
10	0xbc8d43d5	-0.017244259
11	0xbc437495	-0.011929651
12	0xbb9f2177	-0.0048562842
13	0xbcc3d931	-0.023907276
14	0xbcdcbc37	-0.026945217
15	0x3cfba4d1	0.030718239
16	0xbc016f9b	-0.007900144
17	0x3bcc4f0c	0.006235009
18	0xbc6e3f91	-0.014541523
19	0xbb1735ba	-0.0023072795
20	0x3c37e80e	0.01122476
21	0x3c4077c2	0.0117473025
22	0xbd1e58fb	-0.038659077
23	0x3ceb91ec	0.028756104
24	0xbb2cd322	-0.0026370962
25	0xbd0def3a	-0.034651972
26	0x3c80229c	0.015641503
27	0x3c8d0f87	0.017219318
28	0xba8fafae	-0.0010962391
29	0xbacce29c	-0.00156315
30	0xb9cb6649	-0.00038795386
31	0xbcc8a50b	-0.024492761
32	0xbccbc662	-0.02487487
33	0xbcdd6da0	-0.027029812
34	0xbc641078	-0.013919942
35	0xbc99d9cc	-0.018780611
36	0xbb5f3228	-0.0034056995
37	0xbce60a89	-0.028081195
38	0x3bc2dd1a	0.0059467675
39	0xbcc1ee85	-0.023673305
40	0x3ac0f06d	0.001472009
41	0xbc258964	-0.010103557
42	0x3c64ccff	0.0139648905
43	0xbb1237ec	-0.0022311164
44	0xbc475417	-0.012166045
45	0xbc8f7478	-0.017511591
46	0xbad045e9	-0.0015889975
47	0x3c33ad7b	0.010966654
48	0xbc87d40e	-0.016580608
49	0xbb978f5a	-0.004625243
50	0xbca0c998	-0.019627377
51	0xbc963f59	-0.018340753
52	0xbcf2aeb6	-0.029624324
53	0xbd0c193d	-0.034203757
54	0xbc817edc	-0.015807562
55	0xbc850579	-0.016237961
56	0x3ce6f623	0.028193539
57	0xbb6babab	-0.0035960476
58	0x3c7d4708	0.01545883
59	0x3ca99cb2	0.020704601
60	0xbba50f46	-0.005037221
61	0x3c61f07f	0.013790249
62	0xba8f109b	-0.0010914983
63	0xbba600a1	-0.005065993
64	0xbd294565	-0.041325945
65	0xb86e8943	-5.6871457e-05
66	0x3cfd5711	0.030925306
67	0xbc8a390c	-0.016872905
68	0xbbdb4ffc	-0.0066928845
69	0xbcb8865b	-0.022525003
70	0xbbefac8c	-0.0073142704
71	0xbc22b141	-0.009929956
72	0xbd128f38	-0.035781115
73	0xbc85ec21	-0.016347947
74	0x3b3090fe	0.002694189
75	0xbcbfd3e4	-0.023416467
76	0xbce6e347	-0.028184546
77	0xbcd28652	-0.025698815
78	0x3bdf7c75	0.0068202564
79	0xbd144523	-0.036198746
80	0xbb73709c	-0.0037145978
81	0x3c312227	0.010811365
82	0x3aae378d	0.0013291702
83	0xbcef6c89	-0.029226558
84	0x3c37480d	0.011186612
85	0xbcbe5d0c	-0.023237728
86	0xbc850910	-0.016239673
87	0x3c01d86c	0.007925134
88	0xbb47978f	-0.0030455326
89	0x3b26a781	0.002542943
90	0xbc87d544	-0.016581185
91	0xbc95c18f	-0.018280772
92	0xbd32e5eb	-0.043676298
93	0xbc361697	-0.011113784
94	0xbcc8cd43	-0.024511939
95	0x3b33dc7d	0.0027444654
96	0xbc447acf	-0.0119921705
97	0xbbc8c8c9	-0.006127451
98	0x3c097c78	0.008391492
99	0xbc9c45ed	-0.019076312
100	0xbce6c090	-0.028167993
101	0xbca7716a	-0.020439822
102	0x3c62b278	0.013836496
103	0xbc3a4889	-0.011369833
104	0x3a4a0f44	0.0007707963
105	0xbca2ccac	-0.019872986
106	0xbcc04347	-0.02346958
107	0x3c45d0ac	0.012073677
108	0x3b12a59e	0.0022376548
109	0xbc577b4a	-0.013151953
110	0x3c8f5d74	0.017500617
111	0xb939c6dd	-0.00017717057
112	0x3c996d2a	0.018728811
113	0xbc14af5e	-0.009075014
114	0xbcc24bfb	-0.023717871
115	0x3b34c576	0.0027583516
116	0x3a8cd195	0.0010743613
117	0xbc0baa01	-0.008524419
118	0xbc166cff	-0.00918126
119	0x39a2f952	0.00031084806
120	0xbc95d669	-0.018290715
121	0xbc57134a	-0.013127157
122	0xbb6fc2d4	-0.0036584632
123	0xbc2eda9f	-0.0106722405
124	0xbcbcf672	-0.023066733
125	0xbca6fced	-0.020384276
126	0x3c7265f6	0.014794817
127	0xbb45d479	-0.0030186458
128	0xbc68163c	-0.014165457
129	0xbccffbfd	-0.025388712
130	0xbc8a578d	-0.01688745
131	0x3d1fe01d	0.03903209
132	0xbb5e675d	-0.003393612
133	0xbd29966b	-0.041403215
134	0xbcc7c9e6	-0.024388265
135	0xbc78cec9	-0.01518602
136	0x3c41ec4b	0.011836122
137	0x3b3cc38e	0.0028803083
138	0x3c2ac6ef	0.010423406
139	0x3c214e15	0.009845276
140	0xbcac6231	-0.021042915
141	0xbc86583b	-0.016399493
142	0x3c877c43	0.016538745
143	0x3c6fe977	0.014643065
144	0xbc92c955	-0.017918268
145	0xbcc610e4	-0.024177976
146	0xbce7e779	-0.028308617
147	0xbc9cc978	-0.019139037
148	0xbcd9fc4a	-0.026609559
149	0x3cd615b7	0.026133401
150	0x3c66d95a	0.014089907
151	0xbc32b74f	-0.010907962
152	0xbc95f894	-0.018307008
153	0xbae05ed5	-0.0017118106
154	0x3a1a0352	0.00058751286
155	0x3c8947e0	0.016757905
156	0xbcb1ba00	-0.021695137
157	0xbb99f22e	-0.0046980595
158	0x3aa9dd04	0.0012959545
159	0xbc7b8012	-0.015350359
160	0xbc88d5bd	-0.01670348
161	0xbccb0c1b	-0.024786046
162	0xbb077465	-0.0020668742
163	0x3bd95962	0.0066329697
164	0xbbc83d7d	-0.0061108456
165	0x3c8690d7	0.016426487
166	0xbcae41da	-0.021271635
167	0x3c0b8d06	0.008517509
168	0x3befb871	0.0073156883
169	0xbc7f0d91	-0.015567199
170	0xbb9a9ab3	-0.0047181486
171	0xbc7b2ecf	-0.015330984
172	0xbac732c5	-0.0015197626
173	0xbc335beb	-0.010947208
174	0x3b373279	0.0027953668
175	0xbc71b402	-0.01475239
176	0x3c8e66c6	0.01738299
177	0x3bde2a2e	0.0067799306
178	0xbc3d2e44	-0.011546675
179	0x3bbaa318	0.005695712
180	0xbca6e230	-0.020371526
181	0xbc491b44	-0.012274567
182	0xbca03ae3	-0.01955933
183	0xbcb135da	-0.021632124
184	0xbca488cf	-0.020084767
185	0xbc983625	-0.018580506
186	0x3b3da917	0.0028939897
187	0xbc481c24	-0.0122137405
188	0x3ced1d85	0.02894474
189	0xbb940516	-0.004517208
190	0xbb3bff93	-0.002868627
191	0x3bf995a5	0.007616716
192	0xbc81edaf	-0.015860407
193	0x3ca3c31f	0.019990502
194	0xbb4b5270	-0.0031024478
195	0x39c17c38	0.0003690438
196	0x3cf993f1	0.030466052
197	0x3bc0c36e	0.005882672
198	0xbb617c40	-0.0034406334
199	0x3c861882	0.016369108
200	0xbbfcb598	-0.0077120773
201	0xbce083bf	-0.027406571
202	0xbc8424ae	-0.016130771
203	0x3bfa6831	0.007641815
204	0x3c03ce52	0.008044796
205	0xbca70757	-0.020389242
206	0xbcc2592f	-0.023724167
207	0xbaf9feee	-0.0019073167
208	0x3c91ba50	0.017789036
209	0x3a9775ea	0.0011555527
210	0x3b93c47b	0.0045095063
211	0xbcb48465	-0.022035787
212	0xbc8b9199	-0.0170372
213	0xbc8b86ef	-0.017032115
214	0xbbccac05	-0.0062460923
215	0xbcc84aae	-0.024449673
216	0x3c89b9c3	0.01681221
217	0xba0a5c7f	-0.0005278065
218	0xbbebb00b	-0.007192617
219	0xbcf87e09	-0.030333536
220	0x3c0eec00	0.008723259
221	0x3c1a90a7	0.009433902
222	0xbd19ed59	-0.037579868
223	0x3cac786b	0.021053514
224	0xbc4b7475	-0.012417902
225	0xb8f7562e	-0.0001179393
226	0xbb95bb70	-0.0045694634
227	0xbc7295fa	-0.014806265
228	0x3c2bfa25	0.010496651
229	0xbc6a1731	-0.014287756
230	0x3b9a6906	0.004712227
231	0xbbf2eb9e	-0.0074133417
232	0x3b87ea5a	0.00414781
233	0xbc7a31ad	-0.015270633
234	0xbcbb0615	-0.022830049
235	0xbb1f81d1	-0.0024338851
236	0xbc82be37	-0.015959842
237	0xbca8e2d4	-0.020615973
238	0x3add0285	0.0016861713
239	0x3b9d4a5e	0.004800125
240	0x3c8268c2	0.015919093
241	0xbbae5a05	-0.0053207898
242	0x3c84ec5e	0.01622599
243	0x3bd0533c	0.0063575786
244	0xbc1ceab9	-0.009577447
245	0x3c52bed9	0.012862884
246	0x3bc825b7	0.0061080116
247	0x3cf54b55	0.029943148
248	0xbb5037ad	-0.0031771467
249	0xbc27f330	-0.0102508515
250	0x3b70a99f	0.0036722196
251	0xbc2867f7	-0.010278693
252	0xbb03bd12	-0.0020101708
253	0xbca86b24	-0.020558901
254	0x3bc9b4ec	0.006155601
255	0x3c4bcf4f	0.012439563

network_body._body_endoder.seq_layers.2.weight f4 [256, 256]
0	0x3dbd616e	0.09247099
1	0x3dbc7993	0.09202876
2	0xbd8ac84b	-0.06776484
3	0xbca5d7b8	-0.020244464
4	0x3b0bf928	0.0021358225
5	0x3cbca67e	0.023028608
6	0xbe104d61	-0.14092018
7	0xbc406645	-0.011743133
8	0xbdee8934	-0.11647263
9	0xbd298452	-0.041385956
10	0xbdbc2c9e	-0.091881976
11	0x3cd3bccb	0.02584686
12	0xbd59b7eb	-0.053153913
13	0xbcf1c2a1	-0.029511752
14	0x3c38d9ac	0.011282366
15	0x3da31f06	0.079649016
16	0xbdaf389f	-0.085557215
17	0xbdaf7e04	-0.085689574
18	0xb95ea209	-0.00021231933
19	0x3bd507d0	0.0065011755
20	0xbdf5ded1	-0.120053895
21	0x3cd04618	0.025424048
22	0x3d1160d5	0.035492737
23	0x3d37c5ec	0.044866487
24	0x3d0589a7	0.03260198
25	0x3c25807e	0.010101436
26	0x3d0b08c8	0.03394392
27	0xbddcf5ac	-0.10789046
28	0xbd086404	-0.033298507
29	0x3e09eed3	0.1347001
30	0xbbf49a2b	-0.0074646673
31	0xbdd9a59b	-0.1062729
32	0xbdb1bb78	-0.08678335
33	0x3d5fa7ed	0.054603506
34	0xbbe4824b	-0.00697354
35	0xbd93bf05	-0.072141685
36	0x3da6c4db	0.08143016
37	0x3d16bb75	0.036799867
38	0xba93da92	-0.0011280349
39	0xbd89b8df	-0.067247145
40	0xba6a70f4	-0.0008943223
41	0xbc99605a	-0.018722702
42	0x3d229f69	0.039702807
43	0xba6dfbea	-0.00090783706
44	0xbddcbb7a	-0.10777946
45	0xbdb08021	-0.08618189
46	0x3ca93f22	0.020659987
47	0xbe15445a	-0.14576855
48	0xbd079730	-0.033103168
49	0x3d3b33b3	0.0457036
50	0xbd4e9804	-0.050437942
51	0x3c99b698	0.018763825
52	0x3bd19afb	0.006396649
53	0x3d8e14ec	0.06937584
54	0xbd55ce78	-0.052198857
55	0xbd044f39	-0.032302115
56	0xbdad50a7	-0.08462649
57	0xbdd70703	-0.10499384
58	0xbe225c04	-0.15855414
59	0x3dcad6fd	0.09904287
60	0x3c30dbe2	0.010794612
61	0x3d398989	0.04529718
62	0x3d83f4ad	0.064431526
63	0xbda01f49	-0.07818467
64	0xbd435756	-0.047690712
65	0xbe0c288e	-0.13687345
66	0xbddcdcc4	-0.10784295
67	0x3dbd6b8f	0.09249031
68	0x3dd56824	0.10420254
69	0x3d133420	0.035938382
70	0xbd6c230b	-0.057650607
71	0x3cee31bf	0.029076455
72	0x3dc0a129	0.09405739
73	0xbd17fe84	-0.03710796
74	0x3da25369	0.079260655
75	0xbd8577f2	-0.065170184
76	0xbe163221	-0.1466756
77	0x3d25936e	0.040423803
78	0xbbab918f	-0.005235858
79	0xbe54d8ec	-0.20785874
80	0xbe22e6fd	-0.15908428
81	0x3c5e4665	0.013566588
82	0xbe00818a	-0.12549415
83	0xbdd3bc1e	-0.10338615
84	0xbcb7ce51	-0.022437247
85	0xbcee928c	-0.029122613
86	0x3e041c1d	0.1290135
87	0x3cedabda	0.02901261
88	0xbcc84ea7	-0.024451567
89	0xbd39316e	-0.045213155
90	0x3e41e057	0.18933235
91	0x3d4288ff	0.04749393
92	0xbd3c81a0	-0.046022058
93	0xbd812c9b	-0.06307336
94	0x3cf8cab1	0.030370088
95	0x3dbb5e08	0.091487944
96	0xbc7d6d4e	-0.015467955
97	0xbde2486e	-0.11048971
98	0xbd666a73	-0.05625386
99	0xbd067fdf	-0.03283679
100	0x3dbfe740	0.09370279
101	0x3dc605e4	0.09669092
102	0x3ce43021	0.02785498
103	0xbd9e3990	-0.07725823
104	0x3d3a58f2	0.04549498
105	0x3d9e9df0	0.07744968
106	0x3b8a7704	0.0042256135
107	0xbda5bf24	-0.08093098
108	0xbd8807c2	-0.06642105
109	0xbd003635	-0.031301696
110	0x3d0d5ddd	0.034513343
111	0xbbb177b1	-0.0054158797
112	0x3dbff0ea	0.093721226
113	0x3cd1774c	0.02556958
114	0xbdcbbde0	-0.09948325
115	0xbc47e43f	-0.012200414
116	0xbd2af2bb	-0.041735392
117	0x3d406531	0.046971504
118	0xbd6c5ec5	-0.057707567
119	0x3cada009	0.021194475
120	0x3d4c8029	0.04992691
121	0xbcec8b6e	-0.028875079
122	0xbdca6087	-0.098816924
123	0xbe1055eb	-0.14095275
124	0x3e5b5ded	0.21422549
125	0xbc608784	-0.013704184
126	0xbca38225	-0.019959519
127	0xbdbc5e8f	-0.09197723
128	0x3d79eefa	0.06101892
129	0x3bdd3906	0.0067511825
130	0xbdb8b642	-0.09019138
131	0xbd797c3b	-0.06090949
132	0x3d486b69	0.04893056
133	0xbd64f43d	-0.055896986
134	0xbde0deb8	-0.1097998
135	0xbbee291c	-0.007268084
136	0xbdc1322f	-0.094334
137	0x3d04d14f	0.032426175
138	0x3d07162a	0.03298012
139	0xbd5fe732	-0.054663844
140	0xbc9f2535	-0.019426921
141	0xbdc82b33	-0.097738646
142	0xbb0f9ca8	-0.0021913443
143	0xbc4d7591	-0.012540237
144	0x3cb10d06	0.021612655
145	0x3d84025b	0.06445762
146	0x3d5b9b0e	0.05361467
147	0xbd1f224e	-0.038851075
148	0x3b68ee0c	0.0035542278
149	0x3dd1e2cd	0.10248337
150	0x3c28128d	0.010258329
151	0xbdd26bf2	-0.10274495
152	0xbda34038	-0.07971233
153	0xbc461290	-0.012089387
154	0xbe01d8db	-0.1268038
155	0xbe11e481	-0.14247324
156	0xbc6e42c1	-0.014542283
157	0x3d783317	0.060595598
158	0x3de3f6cf	0.111310594
159	0xbd5fd8bd	-0.054650057
160	0xbc2e9c2d	-0.010657352
161	0x3da8135c	0.082068175
162	0xbdf27683	-0.118390106
163	0xbd836d2c	-0.06417307
164	0x3e155ba2	0.14585736
165	0xbd3dde9d	-0.04635488
166	0xbdbfee09	-0.093715735
167	0xbc26b96b	-0.010176043
168	0xbdae5054	-0.08511415
169	0x3d9bcd28	0.0760749
170	0x3e615bcb	0.22007672
171	0xbdb8ea96	-0.09029119
172	0xbd816bed	-0.06319413
173	0xbe080777	-0.13284098
174	0xbc296660	-0.0103393495
175	0xbd49f694	-0.04930742
176	0xbd4f15d8	-0.05055794
177	0x3d3f7643	0.046743643
178	0xbce41058	-0.027839825
179	0x3d727f4b	0.059203427
180	0x3ca65c41	0.020307662
181	0xbd6b4cca	-0.05744628
182	0x3d36ac07	0.04459765
183	0xbc0d082c	-0.008607905
184	0xbd37c884	-0.04486896
185	0x3b60ba3e	0.0034290696
186	0xbd5012ca	-0.05079917
187	0xbd2dacd7	-0.04240116
188	0xbd428bba	-0.047496535
189	0x3dd32780	0.103102684
190	0x3d762428	0.060093075
191	0xbd4cd8f3	-0.050011586
192	0xbe411a96	-0.18857798
193	0x3da5a83e	0.0808873
194	0xbd337fef	-0.04382318
195	0xbd0a5bf8	-0.033779114
196	0x3d02e14e	0.03195315
197	0xbda9aaab	-0.082845055
198	0x3d84a55c	0.06476852
199	0xbc1fbfab	-0.009750287
200	0x3d730b7c	0.059337124
201	0xbc32be51	-0.010909633
202	0xbe02e732	-0.12783507
203	0xbe27b95a	-0.163793
204	0xbdeb3daa	-0.11486371
205	0xbe68e962	-0.22745278
206	0xbde669e3	-0.11250665
207	0x3d8ea3f0	0.06964862
208	0xbdf485a0	-0.119395494
209	0xbcfc8545	-0.030825267
210	0x3db8be39	0.09020657
211	0xbc263706	-0.010144955
212	0xbdaa5068	-0.083161175
213	0xbe4c0d23	-0.19926886
214	0xbd383083	-0.04496814
215	0xbb413e71	-0.002948668
216	0xbc2adf8f	-0.010429277
217	0xbda02ac4	-0.07820657
218	0xbd0630d6	-0.032761417
219	0x3e183c02	0.14866641
220	0xbd4fb461	-0.050709132
221	0x3d800eb3	0.06252804
222	0x3c95b209	0.01827337
223	0x3d0a316d	0.033738542
224	0xbd6995b5	-0.057027537
225	0xbd60031e	-0.054690473
226	0x3d64f39b	0.055896383
227	0xbc28b0dc	-0.010296073
228	0xbbf822d7	-0.0075725126
229	0xbd9e1577	-0.07718938
230	0xbde12ce2	-0.10994889
231	0x3dd1447d	0.10218141
232	0x3dcb6835	0.09931985
233	0xbd8ce243	-0.068790935
234	0x3e0704aa	0.13185373
235	0xbd3b489a	-0.045723535
236	0x3d40f81e	0.047111623
237	0xbb65ca9e	-0.0035063396
238	0xbcf59413	-0.029977834
239	0xbd71b164	-0.059007064
240	0xbda356f9	-0.07975573
241	0xbd15d7c8	-0.03658274
242	0xb86fb401	-5.7149682e-05
243	0xbd20bd27	-0.03924289
244	0x3db84ae9	0.08998663
245	0xbca8e4d2	-0.020616923
246	0xbe207103	-0.1566811
247	0xbbc5a3cd	-0.0060314895
248	0xbd723b48	-0.059138566
249	0x3d5568dd	0.05210196
250	0x3d940f8c	0.07229528
251	0x3d040daa	0.032239594
252	0x3ce35de2	0.027754728
253	0xbc9f061d	-0.019412095
254	0xbdbcf933	-0.092272185
255	0x3c011453	0.007878381
