Assets/6. Results/Staff_Stage1_V4.onnx (onnx, 279518 bytes, 9 tensors)

action_model._discrete_distribution.branches.0.bias f4 [2]
0	0xbcf6fe1f	-0.030150471
1	0x3cf6fedb	0.030150821

action_model._discrete_distribution.branches.0.weight f4 [2, 256]
0	0xbd4be127	-0.04977527
1	0x3d9520b8	0.07281631
2	0xbcb76af6	-0.02238987
3	0xbd8b75e8	-0.06809598
4	0xbcde8683	-0.02716375
5	0xbcf1fda0	-0.029539883
6	0x3d1fc5fa	0.039007165
7	0x3d1216b7	0.035666194
8	0xbddb6c0b	-0.10713967
9	0x3c621331	0.013798521
10	0x3d093853	0.03350098
11	0xbce93743	-0.028468734
12	0xbbc99534	-0.0061518196
13	0xbd731574	-0.05934663
14	0x3d1dd378	0.03853175
15	0xbbcf67fa	-0.0063295336
16	0x3ce52ab0	0.027974457
17	0x3c8358c9	0.016033547
18	0x3c82bb26	0.01595838
19	0x3d01fb11	0.031733576
20	0x3d480061	0.048828486
21	0xbd4b90ed	-0.04969876
22	0x3cf46c27	0.029836727
23	0x3dea5a27	0.114429764
24	0xbd23d1e3	-0.039995085
25	0xbd495482	-0.04915286
26	0x3d91fa71	0.07127846
27	0xbda30df6	-0.07961647
28	0xbd0e60d8	-0.034760326
29	0x3d30df54	0.043181732
30	0x3caad24e	0.020852234
31	0xbc981638	-0.018565282
32	0xbdd3807c	-0.10327241
33	0xbdaac679	-0.08338637
34	0x3d8059c5	0.06267122
35	0x3cc5c3b9	0.02414118
36	0x3ca3e6e5	0.02000756
37	0x3c34c329	0.011032858
38	0x3d32f59f	0.043691274
39	0x3c342714	0.010995645
40	0xbc054178	-0.008133285
41	0x3cc21c09	0.023695009
42	0x3c9905b4	0.018679477
43	0x3b977c2a	0.004622956
44	0x3cb39d54	0.021925606
45	0x3cf5a346	0.029985081
46	0x3dd2cd9c	0.10293123
47	0x3d90efb5	0.070769705
48	0x3d8b640a	0.0680619
49	0xbe1c98f3	-0.1529272
50	0xbc068255	-0.0082097845
51	0x3c76e0c2	0.015068235
52	0xbd298a3b	-0.041391592
53	0xbd05433f	-0.032534834
54	0x3cf7a2bd	0.030228967
55	0x3cfcdd88	0.030867353
56	0x3d955585	0.07291702
57	0xbc37aa9f	-0.011210113
58	0xbe4513f3	-0.19245891
59	0x3c4a27ee	0.012338622
60	0xbb797e5a	-0.0038069696
61	0xbdf6548e	-0.12027846
62	0xbe046afd	-0.12931438
63	0x3cb83b02	0.022489075
64	0x3d5a57c7	0.053306367
65	0x3d0174a6	0.031605385
66	0x3be104eb	0.0068670413
67	0xbdd302b2	-0.103032485
68	0x3d41d84e	0.047325425
69	0x35b37bbf	1.3372554e-06
70	0xbdb99b66	-0.09062843
71	0xbcb479c4	-0.022030719
72	0xbd2920ed	-0.041291166
73	0xbde14274	-0.10999003
74	0xbe0c7932	-0.13718107
75	0x3c41603b	0.011802728
76	0x3d838a24	0.064228326
77	0x3cfeafbe	0.03108966
78	0x3c22b3d8	0.009930573
79	0xbb8f38ce	-0.0043707853
80	0x3d11cbc9	0.035594735
81	0x3d92e1d8	0.071719825
82	0x3c3546bf	0.01106423
83	0x3d6f0eb2	0.058363624
84	0x3d57b681	0.052664284
85	0x3d9bf6e3	0.07615449
86	0xbac5c5e8	-0.0015088888
87	0x3ce2e658	0.027697727
88	0xbe11304b	-0.14178579
89	0xbd9c5935	-0.076342024
90	0xbb95cf16	-0.0045718057
91	0xbdc0bbf1	-0.09410847
92	0x3d90b9f6	0.07066719
93	0x3cded037	0.027198894
94	0x3c0908a2	0.008363875
95	0x3cf54052	0.029937897
96	0x3d0fe67c	0.035131916
97	0xbe365f5f	-0.17809819
98	0x3dd17587	0.10227495
99	0x3c6f1933	0.01459341
100	0xbe4be46e	-0.19911358
101	0x3d74dab9	0.059778903
102	0xbd059eaa	-0.032622017
103	0x3cd61e89	0.026137607
104	0xbd8ee3e9	-0.06977064
105	0x3cf46900	0.029835224
106	0xbca60f70	-0.020271033
107	0xbd047e3e	-0.032346956
108	0xbe59515a	-0.2122244
109	0x3d542999	0.051797483
110	0x3caf3b5c	0.02139061
111	0xbe3ea5f7	-0.18617998
112	0xbe043422	-0.12910512
113	0x3d7aff05	0.06127836
114	0x3c89dee7	0.016829921
115	0xbabba116	-0.0014314975
116	0x3d1f5945	0.038903493
117	0x3c6ec9af	0.014574452
118	0xbcf6cef1	-0.030127974
119	0x3d103508	0.035206825
120	0x3c703ae2	0.014662476
121	0x3d03c7b8	0.03217289
122	0xbe116d8c	-0.14201945
123	0xbdb3cd44	-0.08779386
124	0x3c8a98af	0.016918508
125	0x3d52a976	0.05143114
126	0x3d9d0f93	0.07668986
127	0xbd9bcd33	-0.07607498
128	0xbd13d8cf	-0.036095437
129	0xbdc7e6b5	-0.09760801
130	0x3d3b2969	0.04569379
131	0xbd35c132	-0.0443737
132	0x3d51980a	0.051170386
133	0xbc8cbf94	-0.017181195
134	0x3d9c07a3	0.07618644
135	0x3d17000f	0.03686529
136	0xbe701d70	-0.2344873
137	0xbc4eefdf	-0.012630432
138	0x3cf813d4	0.030282892
139	0x3bfc9185	0.007707777
140	0xbcc80874	-0.024418093
141	0xbd250a49	-0.04029301
142	0xbd974ce1	-0.0738771
143	0xbe1ba978	-0.15201366
144	0x3dc4b7fd	0.096054055
145	0x3c68c590	0.014207259
146	0xbe64e295	-0.22352059
147	0x3d26347e	0.040577404
148	0x3cf86c4a	0.030325074
149	0x3be97040	0.007123977
150	0xbd15c16a	-0.036561407
151	0xbb86017e	-0.0040895334
152	0x3cc99f35	0.024612049
153	0x3cc4b012	0.024009738
154	0x3d88f053	0.06686463
155	0x3d88e171	0.066836245
156	0xbdd24500	-0.10267067
157	0xbd4cd7ed	-0.05001061
158	0xbab58de7	-0.0013851494
159	0x3d0b5801	0.034019474
160	0xbba21540	-0.004946381
161	0xbdecd7de	-0.11564611
162	0xbc6ef117	-0.0145838475
163	0x3ca96e2d	0.020682419
164	0x3dc72640	0.097240925
165	0x3c31a49f	0.010842471
166	0xbddc7713	-0.10764899
167	0xbc139523	-0.009007725
168	0xbdc6d46f	-0.09708487
169	0xbce7bdc0	-0.028288722
170	0x3cb64b04	0.022252567
171	0xba41827a	-0.0007381808
172	0xbdb956de	-0.09049772
173	0xbcd915d4	-0.026499666
174	0x3c98e677	0.018664582
175	0xbd25d73b	-0.040488463
176	0xbdeea22f	-0.11652028
177	0xbd79d31d	-0.06099235
178	0x3d53ddd3	0.05172522
179	0xbe01140b	-0.12605302
180	0xbd792e20	-0.060835004
181	0x3d779144	0.06044127
182	0x3cd1fcf6	0.025633316
183	0x3cf5d9d5	0.030011097
184	0xbc16d24d	-0.009205413
185	0xbc5d8232	-0.0135198105
186	0x3d004b8f	0.03132206
187	0xbded73e2	-0.115943685
188	0xbd5ff65e	-0.054678313
189	0x3cbed63a	0.02329551
190	0xbe068e13	-0.13140135
191	0xbdb0ab56	-0.0862643
192	0x3d453260	0.048143744
193	0x3c1a5524	0.009419713
194	0xbd8df1b5	-0.069308676
195	0xbe65e9a6	-0.22452411
196	0x3d2de2ca	0.04245261
197	0x3b31006b	0.0027008306
198	0xbc024420	-0.007950813
199	0xbcb50344	-0.022096284
200	0x3bfbd59d	0.007685377
201	0x3c6fb09b	0.014629508
202	0x3d7765aa	0.06039969
203	0xbd026d07	-0.031842258
204	0x3c59cbbf	0.013293206
205	0xba9da0d0	-0.0012026075
206	0xbca10e1e	-0.019660052
207	0xbe64958c	-0.22322673
208	0xbd3f3bb5	-0.0466878
209	0x3d1baf63	0.03800906
210	0xbbf76821	-0.007550255
211	0xbd8cbc0c	-0.068718046
212	0x3cfefa09	0.031125085
213	0xbcb7a10a	-0.022415657
214	0xbdf931a5	-0.12167672
215	0xbd63ede3	-0.05564679
216	0x3cbd3cd4	0.023100294
217	0xbc237381	-0.009976269
218	0xbe69df1a	-0.22839013
219	0x3ddcf448	0.107887805
220	0xba22cde0	-0.00062104873
221	0x3d28a05e	0.041168563
222	0x3d78ba4b	0.060724538
223	0x3d393ed2	0.045225926
224	0x3d892c5e	0.066979155
225	0xbd1223a8	-0.035678536
226	0xbcc5f474	-0.024164416
227	0xbd52e0b7	-0.051483836
228	0xbccc5335	-0.02494202
229	0x3d018f73	0.031630944
230	0x3d02bc0e	0.031917624
231	0xbdc9f17d	-0.09860513
232	0xbcccfecd	-0.025023842
233	0xbd29c220	-0.041444898
234	0x3bb3f167	0.005491424
235	0xbd1e3869	-0.038628016
236	0x3cc9b4b9	0.024622308
237	0x3c84d463	0.016214555
238	0xbcd2982a	-0.025707323
239	0xbda018cb	-0.07817229
240	0x3cb28aae	0.021794643
241	0xbd3b1b9f	-0.04568064
242	0xbd2b6ccf	-0.041851815
243	0xbc23e694	-0.010003705
244	0x3c80ff97	0.015746875
245	0xbd07b167	-0.03312817
246	0x3bb26a41	0.0054447954
247	0xbd9cac3d	-0.07650039
248	0xbc1e8d28	-0.009677209
249	0x3d1d5b93	0.03841741
250	0x3c8c2b16	0.017110389
251	0x3d56f4e7	0.05247965
252	0x3b94d3d2	0.0045418525
253	0xbc85cb47	-0.016332282
254	0xbcec620f	-0.028855352
255	0xbe590e2a	-0.2119681

action_model._discrete_distribution.branches.1.bias f4 [3]
0	0xbc605133	-0.013691234
1	0x3cdad4b9	0.026712762
2	0xbc2ba574	-0.010476459

action_model._discrete_distribution.branches.1.weight f4 [3, 256]
0	0xbc4853f2	-0.012227045
1	0x3a41bcf5	0.00073905225
2	0xbb40559f	-0.002934791
3	0x3c12bc7c	0.008956071
4	0xbae2b83d	-0.0017297339
5	0x3caceb69	0.021108346
6	0xbcfddce8	-0.030989125
7	0xbad63ba3	-0.0016344677
8	0x3c18e0a1	0.009330899
9	0xbd366534	-0.04453011
10	0xbc08769d	-0.008329061
11	0x3d20bb5e	0.039241187
12	0xbc09a86a	-0.008401969
13	0xbc82de9c	-0.015975289
14	0x3b8a4bcc	0.0042204615
15	0x3c2bcb2e	0.0104854535
16	0x3cf5aa07	0.029988302
17	0x3c7373b5	0.01485913
18	0x3b20b8f3	0.00245243
19	0x3b24c1ba	0.0025139884
20	0xbcee394d	-0.029080058
21	0x39db2a89	0.00041802626
22	0xbd71ac3f	-0.059002157
23	0x3cecb148	0.028893128
24	0xbd610840	-0.05493951
25	0xbbd7a517	-0.0065809595
26	0x3d310c70	0.043224752
27	0x3d0c61e0	0.03427303
28	0x3b6b6cb1	0.003592294
29	0xbca72e7b	-0.020407906
30	0x3c585cf2	0.013205754
31	0x3c159b2d	0.009131235
32	0xbb3138c7	-0.0027041899
33	0x3c6ec903	0.014574292
34	0xbcbb94f4	-0.022898175
35	0xbc190cb5	-0.0093414085
36	0x3c407749	0.01174719
37	0x3af87ea7	0.0018958644
38	0xbc812d23	-0.015768593
39	0x3bd6bc37	0.0065531987
40	0xbb0f79fa	-0.0021892772
41	0xbd30e62a	-0.04318825
42	0x3ce969b2	0.028492782
43	0xbc734628	-0.0148482695
44	0x3bd35521	0.006449357
45	0xbc9f8178	-0.019470915
46	0x3a997af1	0.0011709613
47	0xbc11de44	-0.00890309
48	0xb8c0b9c9	-9.1898786e-05
49	0x3cc5204c	0.024063252
50	0x3be3c1a0	0.006950572
51	0xbcc625d5	-0.024187962
52	0x3bf66327	0.007519144
53	0xbc464a9d	-0.01210275
54	0xbc133ce2	-0.008986684
55	0xbad16dc4	-0.0015978147
56	0x3ba06068	0.004894305
57	0xbc9e4a94	-0.019322671
58	0x3b285fdf	0.002569191
59	0x3cd318ca	0.025768656
60	0xbce7bb97	-0.028287692
61	0xbbdbfb9d	-0.0067133442
62	0x395ceb3f	0.00021068471
63	0xbb8ad8e5	-0.0042372816
64	0xbd0374d7	-0.03209385
65	0x3c8149dd	0.015782291
66	0xbca8f6c0	-0.020625472
67	0xbc1125d7	-0.008859119
68	0xbb686472	-0.003546026
69	0xbd1cf33e	-0.03831791
70	0xba2c49fe	-0.0006572305
71	0xbd4cd334	-0.050006106
72	0xbcdf335b	-0.027246168
73	0x3c73bce0	0.014876574
74	0xbb1dbdd9	-0.0024069457
75	0x3cbce808	0.02305986
76	0xbb91efaa	-0.004453619
77	0x3c2b35b8	0.010449819
78	0x3c5593a8	0.013035692
79	0x3be3073f	0.006928354
80	0xbc92eb5a	-0.01793449
81	0x3c4bc75e	0.01243767
82	0xbd3bc633	-0.045843314
83	0x3c9f533e	0.019448873
84	0x3a7be204	0.0009608569
85	0x3b6d38fb	0.0036197293
86	0x3baa8945	0.005204352
87	0xbcbe9c5e	-0.023267921
88	0xbd6d9031	-0.05799884
89	0xba26b9bc	-0.0006360074
90	0x3c5409e3	0.01294181
91	0x3c498515	0.012299796
92	0x3bb68515	0.005570064
93	0x3c79a7d5	0.015237768
94	0xbd1d9f43	-0.038481962
95	0x3c225128	0.0099070445
96	0xbc951da4	-0.01820261
97	0x3c063211	0.008190648
98	0x3d371e56	0.044706665
99	0x3c68b51a	0.014203334
100	0xbc15a80b	-0.009134303
101	0xbd3c584d	-0.045982648
102	0xbc29bfca	-0.0103606675
103	0xbc144be9	-0.0090513015
104	0xbcab1e26	-0.0208884
105	0x3c34d6c7	0.011037535
106	0x3c0265e1	0.00795886
107	0xbca8f8cf	-0.020626454
108	0xbd46fd20	-0.048581243
109	0xbc114100	-0.008865595
110	0xbd688cac	-0.05677478
111	0xbd0fc8c6	-0.03510358
112	0x3ca2d9f3	0.019879317
113	0xbad19f59	-0.0015992924
114	0xbbd68c8b	-0.0065475157
115	0xbc9341f7	-0.01797579
116	0xbc3d93fd	-0.011570928
117	0xbc5ec7e7	-0.013597465
118	0x3c02bb79	0.007979267
119	0x3c0ed051	0.008716659
120	0x396080e2	0.00021410317
121	0x3cbafc0e	0.022825267
122	0x38a7711c	7.984249e-05
123	0xbafc4bcd	-0.0019248665
124	0xbc2d50b3	-0.010578322
125	0x3d306fe6	0.043075465
126	0x3d6b452f	0.057439025
127	0xbc862bea	-0.016378362
128	0x3ccd4067	0.025055123
129	0xbd7ba41f	-0.061435815
130	0x3b4807b4	0.003052217
131	0xbbe60f62	-0.0070208767
132	0x3c8b8be9	0.017034488
133	0xbd2e746f	-0.04259151
134	0x3d70238c	0.05862765
135	0xbc38d0cd	-0.011280251
136	0xbca4d3d8	-0.020120546
137	0x37e22036	2.6956299e-05
138	0xbbd0e7be	-0.006375282
139	0xbc34e793	-0.01104154
140	0x3b968410	0.00459338
141	0xbd5df18e	-0.054185443
142	0x3ca0deaf	0.019637434
143	0xbd817f93	-0.06323161
144	0x3c257ff4	0.010101307
145	0x3c612bb3	0.013743329
146	0xbc6180d4	-0.013763625
147	0x3beeec66	0.0072913645
148	0x3d0bfbb5	0.034175593
149	0x3c69b7ed	0.014265043
150	0x3c8ce020	0.017196715
151	0xbc91dbae	-0.017804947
152	0xbd2ba376	-0.041903935
153	0xbc88a66f	-0.016680924
154	0xbc4c594b	-0.012472461
155	0xbbcc9a0d	-0.00624395
156	0x3c06d8f8	0.00823044
157	0x3a7d2b63	0.0009657649
158	0xbd89c7b6	-0.06727545
159	0xbc84556f	-0.01615402
160	0x3c22fb3a	0.009947592
161	0xb96920ff	-0.00022232904
162	0x3c832e32	0.016013239
163	0xbce5bf13	-0.028045213
164	0x3c135662	0.008992763
165	0xbc5af767	-0.013364649
166	0x3b357393	0.0027687296
167	0x3ab6fbbe	0.0013960523
168	0xbaa1528a	-0.0012307924
169	0xbd136f51	-0.03599483
170	0x3c7a1528	0.015263833
171	0x3c6b68d6	0.014368257
172	0x3b8efaf6	0.004363413
173	0xbb4b5360	-0.0031025037
174	0xbcba0e02	-0.022711758
175	0x3b013780	0.0019716918
176	0x3c8f6632	0.017504785
177	0xbac9f5ab	-0.0015408298
178	0x3c8ff255	0.017571608
179	0x3c54f1a3	0.012997064
180	0xbbb2dda6	-0.0054585515
181	0x3c027088	0.0079614
182	0x3c8bc9b2	0.01706395
183	0x3bea3fab	0.007148703
184	0xbc67d8b1	-0.014150784
185	0x3ca6b062	0.020347778
186	0xbc683a04	-0.014173988
187	0x3c696e3d	0.014247474
188	0x3cb18237	0.021668537
189	0x3d10ed8f	0.035382804
190	0xbda2406f	-0.07922446
191	0x3aefb72c	0.0018288842
192	0xbcbb71e5	-0.022881458
193	0x3b868a03	0.0041058077
194	0xbbe874ed	-0.0070940168
195	0xbcc7b23e	-0.024376985
196	0xbc125b2a	-0.008932868
197	0x3ce42105	0.027847776
198	0xbb30a7f7	-0.0026955584
199	0x3d08998b	0.033349555
200	0xbc281a11	-0.010260121
201	0xbc4eeb34	-0.012629319
202	0x3d6e7e2e	0.058225803
203	0xbd82c017	-0.063842945
204	0x3b636667	0.0034698488
205	0x3bd1a151	0.0063974042
206	0xba00a080	-0.0004906729
207	0xbd0c05e4	-0.034185305
208	0xbd884ff5	-0.066558756
209	0xbd1ee950	-0.038796723
210	0xbbd11693	-0.006380865
211	0xbd4f1f2f	-0.05056685
212	0x3cb85403	0.022500997
213	0xbc951b2d	-0.018201435
214	0x3cdac06d	0.026703084
215	0x3c2a70f3	0.010402906
216	0xbb9c2668	-0.0047653206
217	0x3cabea20	0.020985663
218	0xbbe090b2	-0.0068531865
219	0x3d167f15	0.03674229
220	0xbc9ea415	-0.01936535
221	0x3c70949f	0.0146838715
222	0x3d5f0cb1	0.054455463
223	0x39ac98cd	0.00032920242
224	0x3c497ef7	0.012298337
225	0xbc816b8d	-0.015798355
226	0x3cafeeaa	0.021476109
227	0xbbb70daa	-0.0055863457
228	0x3ba6081f	0.005066886
229	0xbc3aad10	-0.0113938
230	0xbd68a8d3	-0.05680163
231	0x3cb1cb37	0.021703346
232	0xbc9e6198	-0.019333646
233	0xbae57cb6	-0.001750848
234	0xbc15cbb3	-0.009142804
235	0xba99225c	-0.0011683214
236	0xbd17cca2	-0.037060387
237	0x3b88ae45	0.004171165
238	0xbb9202ea	-0.004455914
239	0x3c8bfa43	0.017087108
240	0xbd0ca673	-0.034338426
241	0xbc085374	-0.008320678
242	0x3bf4728e	0.007459945
243	0x3c56d912	0.013113277
244	0xbbe308ba	-0.0069285305
245	0xbc3f7f88	-0.011688121
246	0x3b36229c	0.0027791625
247	0xbc8e2ba5	-0.017354796
248	0xbc97518a	-0.018471498
249	0xba1c44f0	-0.00059612
250	0xbc896e84	-0.01677633
251	0x3c0b3f52	0.008498983
252	0xbd70a4d3	-0.05875094
253	0xbc0b811d	-0.00851467
254	0xb865602e	-5.468743e-05
255	0xbce5dfe8	-0.028060868

discrete_action_output_shape f4 [1, 2]
0	0x40000000	2.0
1	0x40400000	3.0

network_body._body_endoder.seq_layers.0.bias f4 [256]
0	0xbcc3b6e1	-0.023890914
1	0x3d761bb7	0.060085025
2	0xbd0adb20	-0.03390038
3	0xbce6c801	-0.028171541
4	0x3cac98ab	0.021068892
5	0x3c32f83f	0.010923444
6	0x3dc14dec	0.094386905
7	0x3c30417b	0.010757799
8	0x3d24274b	0.040076535
9	0x3c4898ee	0.0122434925
10	0x3ccb614c	0.024826668
11	0x3c06e17d	0.0082324715
12	0x3d65a034	0.056060985
13	0x3d02de5c	0.03195034
14	0x3d851b47	0.06499343
15	0x3cada639	0.021197425
16	0xbb3df3d0	-0.0028984435
17	0x3ce93aff	0.028470514
18	0x3c9077e1	0.017635288
19	0x3d1ff4d6	0.039051853
20	0x3d44eeab	0.048079174
21	0x3d9eabb1	0.07747591
22	0x3c5fa1bf	0.013649403
23	0x3c96ff29	0.018432217
24	0x3cd6e97f	0.026234386
25	0xbd2a5a55	-0.041590054
26	0x3ceb07df	0.028690277
27	0xbca06040	-0.019577146
28	0x3d939ae7	0.0720728
29	0x3c96947c	0.01838135
30	0xbcee52ad	-0.029092157
31	0x3ddc6adc	0.10762569
32	0x3d074e41	0.033033613
33	0x3cfde693	0.030993735
34	0xbac70528	-0.0015184032
35	0x3d88eb52	0.06685509
36	0x3b15c32d	0.002285193
37	0x3c8d4618	0.017245337
38	0x3ce704dd	0.028200561
39	0x3d409adb	0.04702268
40	0x3d35270e	0.0442267
41	0x3cdcf7a1	0.026973547
42	0x3dd48d9e	0.10378574
43	0x3bbf1ebc	0.0058325212
44	0x3d2801b0	0.041017234
45	0x3d4af83f	0.049553152
46	0xbc1d7040	-0.009609282
47	0x3b268137	0.0025406608
48	0xbaae81a5	-0.0013313784
49	0x3d098a60	0.03357923
50	0x3d444d03	0.047925007
51	0x3cb3dd60	0.021956146
52	0x3cc8c3da	0.024507452
53	0x3cd2d0fe	0.02573442
54	0x3c68e2b3	0.014214206
55	0x3d071fa6	0.032989167
56	0x3b8621dc	0.004093392
57	0x3bc89925	0.006121772
58	0xb7fea6fb	-3.0356916e-05
59	0x3d765055	0.060135204
60	0xbbcc2b6d	-0.0062307627
61	0xbd3bbdf7	-0.04583546
62	0x3ce9ff7f	0.028564213
63	0x3d2f3d90	0.04278332
64	0x3ce57aeb	0.028012713
65	0x3d31e34c	0.043429658
66	0x3d0d46d8	0.03449139
67	0x3cb8c05b	0.02255266
68	0x3c8d8286	0.017274152
69	0x3cd3bdcf	0.025847344
70	0xbb61cf52	-0.0034455848
71	0x3d5f1630	0.05446452
72	0x3d659678	0.0560517
73	0x3cce2e34	0.025168516
74	0x3d640036	0.055664264
75	0x3c0f1632	0.008733319
76	0xbd316372	-0.04330773
77	0x3cefb84a	0.02926268
78	0x3e030e46	0.12798414
79	0x3d652018	0.05593881
80	0x3d8cf7d0	0.06883204
81	0x3d754fc0	0.05989051
82	0xbd050836	-0.032478534
83	0x3ab8be4b	0.0014094798
84	0x3d1bb5db	0.038015228
85	0x3dad9b1b	0.0847685
86	0x3c37ee71	0.011226282
87	0xbcfa6a43	-0.030568248
88	0x3d2b0b5c	0.04175888
89	0x3d28779f	0.041129705
90	0x3c959065	0.01825733
91	0xbc64b1ae	-0.013958378
92	0xbd3f22a2	-0.046663888
93	0x3cb165ba	0.021654952
94	0xbccff0cb	-0.025383374
95	0x3c368225	0.011139427
96	0x3d3f58e5	0.046715636
97	0xbc972627	-0.01845081
98	0x3d259810	0.04042822
99	0xbb57d440	-0.0032932907
100	0x3da75135	0.08169786
101	0x3d2c4aa6	0.042063378
102	0x3ce9a774	0.02852223
103	0xbcf15181	-0.02945781
104	0x3cc453ec	0.023965798
105	0x3dd24712	0.10267462
106	0x3d428adf	0.04749572
107	0xbcae7b5f	-0.021299062
108	0x3cb47ff1	0.022033663
109	0x3d6088ad	0.054817844
110	0x3d80d9f2	0.0629157
111	0x3c56f798	0.013120554
112	0x388af08b	6.6251574e-05
113	0x3da3907d	0.07986543
114	0x3c3c5a53	0.011496144
115	0x3c0a68fc	0.008447882
116	0x3d649085	0.055801887
117	0xbc35c25d	-0.011093703
118	0x3dbdd1b9	0.09268517
119	0x3ba0cb1d	0.0049070255
120	0x3d3fd489	0.04683355
121	0x396c7493	0.00022550141
122	0x3d1611d5	0.0366381
123	0x3bb9c6b2	0.0056694383
124	0x3d17efbb	0.03709386
125	0xbca1630e	-0.019700553
126	0xbbbb9be1	-0.0057253693
127	0xbc80d9cf	-0.01572886
128	0xbc5db3a0	-0.0135315955
129	0xbd14e161	-0.03634775
130	0x3c39d8db	0.011343206
131	0x3d864448	0.06555992
132	0x3c9d25f4	0.019183137
133	0xbbf24156	-0.0073930426
134	0xbd19d2fc	-0.037554726
135	0xbc28eeb6	-0.010310819
136	0x3dd762db	0.10516902
137	0xbd89a956	-0.067217514
138	0xbcce3576	-0.025171977
139	0x3d7d42c0	0.061831236
140	0xbd5cd077	-0.053909745
141	0x3d98bfad	0.07458434
142	0xbbb275a1	-0.0054461514
143	0x3da40588	0.080088675
144	0x3dbe9be4	0.093070775
145	0x3c2936d0	0.01032801
146	0x3dcbf56a	0.099589184
147	0x3bf52678	0.0074813925
148	0xbb15597e	-0.0022788937
149	0x3d5a3e99	0.053282354
150	0x3d61272d	0.054969
151	0x3db4fdbd	0.08837459
152	0x3d9e5ea6	0.077328965
153	0x3c0bf8dd	0.00854322
154	0xbc39aab1	-0.0113322
155	0xbc926862	-0.01787204
156	0x3d710ffd	0.05885314
157	0xbd4fed82	-0.050763614
158	0x3c0f959e	0.008763699
159	0x3da50e9f	0.080594294
160	0x3c23f542	0.0100072045
161	0x3d0baf07	0.034102466
162	0x3d82792e	0.063707694
163	0x3d55580e	0.05208593
164	0x3d9c0b98	0.07619399
165	0xbb9c8f33	-0.004777813
166	0x3d165185	0.036698837
167	0x3c864e70	0.016394824
168	0x3d2df18e	0.042466693
169	0x3de822c4	0.11334756
170	0x3da73d88	0.08166033
171	0x3d93b14d	0.07211552
172	0x3c4a45fb	0.012345786
173	0xbd34853c	-0.044072375
174	0x3cbf1313	0.023324525
175	0x3c65ff7c	0.014037963
176	0x3d1923e3	0.03738774
177	0x3d91a030	0.071106315
178	0xbc526887	-0.012842304
179	0x3d6e6377	0.058200326
180	0x3d81ee5a	0.0634429
181	0x3da0aa83	0.078450225
182	0x3c353fd3	0.01106258
183	0x3d0e94f0	0.034810007
184	0x3d348b81	0.044078354
185	0x3d2685bc	0.040654883
186	0xbb61cadb	-0.0034453187
187	0xbd8c0cc1	-0.0683837
188	0xbc9333e9	-0.017969089
189	0x3c81f722	0.015864912
190	0x3d56d94d	0.052453328
191	0x3d46df52	0.04855282
192	0x3d84ccf1	0.06484402
193	0xbd097723	-0.033560883
194	0x3c4a36de	0.012342183
195	0xbd4101ea	-0.047120966
196	0xbba0abb5	-0.0049032816
197	0xbd02a9cd	-0.031900216
198	0x3d8fc6e9	0.07020361
199	0x3cbcfb2e	0.02306899
200	0x3c70c34f	0.014695003
201	0xbd14d2ad	-0.03633373
202	0x3d53d61f	0.051717874
203	0xba3198ac	-0.0006774764
204	0x3c66daab	0.01409022
205	0x3c9f1fbb	0.01942431
206	0xbc8f02d3	-0.017457401
207	0xbcc2766d	-0.02373811
208	0x3c512f3d	0.01276761
209	0x3dbc8b6b	0.09206279
210	0x3d678bdc	0.056529865
211	0x3d59c9bd	0.05317091
212	0xbd31a75b	-0.043372493
213	0x3d19ecff	0.037579533
214	0x3d30d21a	0.04316912
215	0x3d5ea789	0.054358993
216	0xbbc5f0d3	-0.0060406714
217	0x3ccc28ea	0.024921853
218	0x3d1a740e	0.037708335
219	0x3c395087	0.011310703
220	0x3d6c7052	0.057724304
221	0x3d563a2a	0.052301563
222	0x3d0d0a00	0.034433365
223	0x3cde52f2	0.02713916
224	0x3d26700a	0.040634193
225	0x3cb44f81	0.022010567
226	0x3d206c22	0.039165623
227	0x3d49ec78	0.04929778
228	0x3da38a88	0.07985407
229	0x3df03d6a	0.11730464
230	0xbd09191f	-0.033471223
231	0x3d0c51f4	0.034257844
232	0xbd348b5b	-0.044078212
233	0x3c085a97	0.00832238
234	0x3d83cf1a	0.06435986
235	0x3e026c3a	0.12736598
236	0x3d51e008	0.051239043
237	0x3a938fa4	0.0011258018
238	0x3d0f388f	0.034966048
239	0x3cd6f0b4	0.026237823
240	0x3d6032cf	0.054735955
241	0x3b884bb3	0.0041594147
242	0x3d1545ea	0.03644363
243	0x3d05be72	0.032652326
244	0x3d0e1a33	0.034692954
245	0x3df75ef3	0.12078657
246	0x3d71995c	0.058984146
247	0x3b6a3ab7	0.0035740563
248	0xbc982d13	-0.01857618
249	0x3dd73a0b	0.10509118
250	0x3e06a862	0.1315017
251	0x3c2ee25c	0.0106740855
252	0xbcd78339	-0.026307689
253	0x3d70c004	0.05877687
254	0x3dc1fd75	0.09472171
255	0xbd0cb946	-0.034356378

network_body._body_endoder.seq_layers.0.weight f4 [256, 7]
0	0x3ea6ac61	0.3255339
1	0x3f50142b	0.81280774
2	0xbed5d3b0	-0.41763067
3	0xbecc9c85	-0.39963165
4	0x3eec9b61	0.46212295
5	0x3d6ace1d	0.05732547
6	0xbea72584	-0.3264581
7	0x3e15103b	0.14556973
8	0x3dde1353	0.108435296
9	0x3e73e6c6	0.23818502
10	0xbf1576c0	-0.58384323
11	0x3c420625	0.011842285
12	0xbdc68d6c	-0.09694943
13	0x3f3a3388	0.7273488
14	0xbf10d0b5	-0.5656846
15	0xbf0fd442	-0.56183255
16	0x3edc426c	0.43019426
17	0x3ede46b0	0.43413305
18	0x3ec7d745	0.39031425
19	0x3dfe0c49	0.12404687
20	0xbe875f71	-0.26440004
21	0xbe76ef23	-0.24114661
22	0x3f25fef8	0.64842176
23	0xbc9ec35f	-0.01938027
24	0xbe3ab2ca	-0.18232265
25	0x3f209b59	0.6273704
26	0x3f9006da	1.1252091
27	0xbe194909	-0.14969267
28	0xbf1edbef	-0.6205434
29	0x3f0515f5	0.5198663
30	0xbe91e567	-0.28495333
31	0x3ee78a38	0.4522264
32	0xbeedf4e9	-0.46475914
33	0x3e36057b	0.17775528
34	0xbb91386d	-0.0044317753
35	0x3e728902	0.23685077
36	0x3dcf45b8	0.1012072
37	0xbf5386e7	-0.8262772
38	0x3e2c025d	0.16797777
39	0x3c7ccdb0	0.015429899
40	0xbe16e662	-0.14736322
41	0xbf017d05	-0.5058139
42	0xbe84957f	-0.25895306
43	0x3f547008	0.82983446
44	0xbcb50ba1	-0.022100272
45	0xbf0aa1ad	-0.5415295
46	0x3ef0dec3	0.47044954
47	0xbf4503b7	-0.76958793
48	0x3da24388	0.07923037
49	0xbed3c6a5	-0.4136249
50	0x3e3faf1e	0.18719146
51	0x3f553c8e	0.83295524
52	0x3e82acc4	0.25522435
53	0xbf4e38d6	-0.80555475
54	0x3f0c89ae	0.5489758
55	0x3f0317ed	0.5120838
56	0xbee6b92b	-0.45063147
57	0xbd9d2441	-0.076729305
58	0x3ef892f2	0.4854961
59	0xbd9fad16	-0.077966854
60	0xbf040fd0	-0.5158663
61	0x3ea70dbd	0.3262767
62	0x3e90842f	0.28225848
63	0x3e2a4a16	0.16629824
64	0xbf181d4c	-0.59419703
65	0x3dd8b7ce	0.10581933
66	0x3f1ddc96	0.6166471
67	0x3e962c5d	0.29330721
68	0xbea66572	-0.32499272
69	0xbdc0cbd3	-0.094138764
70	0x3f4d0e0e	0.8009957
71	0xbf10c774	-0.5655434
72	0xbf120eac	-0.5705364
73	0x3ed0023c	0.40626705
74	0x3eff7a14	0.49897826
75	0x3e57477c	0.21023363
76	0x3d41e4c2	0.0473373
77	0x3eff3310	0.49843645
78	0xbee509a4	-0.44733918
79	0xbeba8985	-0.36433044
80	0x3f33381b	0.70007485
81	0xbdb036ff	-0.0860424
82	0x3da43d80	0.08019543
83	0xbf53e35a	-0.82768786
84	0x3e97bfb0	0.29638433
85	0xbf2c4020	-0.67285347
86	0x3dc9ccb0	0.09853494
87	0x3ec904cc	0.39261472
88	0x3dff6c8f	0.12471878
89	0xbc6b06da	-0.014344895
90	0x3f87fc0c	1.0623794
91	0xbd90a8a6	-0.07063417
92	0x3ec28315	0.37990633
93	0x3ebf7bd4	0.3739916
94	0xbf1d5e14	-0.61471677
95	0x3f5cbf39	0.8622928
96	0xbee5dcd9	-0.44895056
97	0xbd712526	-0.058873318
98	0xbec98f5f	-0.39367196
99	0xbd7e22dc	-0.062044963
100	0xbe741933	-0.23837738
101	0xbf28dbcd	-0.6596039
102	0xbf3eb455	-0.74493915
103	0xbeb4b931	-0.3529754
104	0x3e33ffa6	0.17577991
105	0x3ef1f85f	0.47259805
106	0xbf0960f5	-0.5366357
107	0x3d9363b8	0.07196754
108	0x3c5eb6e2	0.013593407
109	0xbe89d870	-0.2692294
110	0x3ec3fb5f	0.38277718
111	0xbe4febd1	-0.203048
112	0x3f619584	0.8811877
113	0x3d2b6d1f	0.041852113
114	0xbf371dee	-0.71530044
115	0xbf19994b	-0.5999953
116	0x3ebfffdd	0.37499896
117	0xbf4c4e2f	-0.798068
118	0xbdd44e98	-0.10366553
119	0x3cbaaa4a	0.022786278
120	0xbf593f9f	-0.84862703
121	0xbf5072cd	-0.8142517
122	0xbdb8ccb2	-0.090234175
123	0x3ed39313	0.41323146
124	0xbec4c294	-0.384297
125	0x3e95df86	0.29272097
126	0x3c09bf01	0.008407355
127	0xbe81ec3e	-0.2537555
128	0x3f206592	0.62654984
129	0x3ecec970	0.4038806
130	0xbf0452a7	-0.5168862
131	0x3ea226c6	0.31670207
132	0x3f138165	0.57619315
133	0xbdf61aad	-0.12016807
134	0xbe895df4	-0.26829493
135	0xbf3a59d8	-0.7279334
136	0xbe9b8837	-0.3037736
137	0x3f31f5b7	0.69515556
138	0xbe2ac387	-0.1667615
139	0x3f1103ed	0.56646615
140	0xbf2064c9	-0.62653786
141	0x3e02576c	0.12728661
142	0xbea27369	-0.31728676
143	0xbea37d67	-0.31931612
144	0x3e86401c	0.26220787
145	0xbc099e20	-0.008399516
146	0xbda20bfa	-0.079124406
147	0xbe974c26	-0.29550284
148	0x3f69bf2e	0.9130734
149	0xbe937fad	-0.28808346
150	0xbe9ee34b	-0.31032786
151	0x3f1dc88b	0.6163413
152	0xbe9ab0b7	-0.30212948
153	0xbe90b66f	-0.28264186
154	0xbf1e088d	-0.617318
155	0x3e2d59cc	0.16928786
156	0xbf708c9e	-0.93964565
157	0x3d207223	0.03917135
158	0xbed82899	-0.42218474
159	0x3f1de6e2	0.61680424
160	0xbe9c16b4	-0.3048607
161	0xbe5135b7	-0.20430647
162	0xbebbf223	-0.36708173
163	0xbe8e3678	-0.2777593
164	0xbe800216	-0.2500159
165	0x3dc550a7	0.09634524
166	0xbede28b7	-0.43390438
167	0x3edbc922	0.4292689
168	0xbf2c1058	-0.6721244
169	0x3e895b92	0.26827675
170	0xbea3dee9	-0.32006004
171	0x3cf2d4b9	0.02964245
172	0x3f4330bd	0.76246244
173	0xbe22c1a1	-0.15894176
174	0x3df54e5c	0.119778365
175	0xbd1f2c9d	-0.038860906
176	0x3f07776f	0.52916616
177	0x3c6d86d5	0.0144974785
178	0x3ee02750	0.43779993
179	0x3e2c8c91	0.16850497
180	0x3e24e569	0.16103138
181	0xbe3172ef	-0.17329
182	0x3f69af38	0.9128299
183	0x3c326389	0.010887989
184	0x3f283ba0	0.6571598
185	0x3e0aa5d9	0.13539828
186	0x3f00ae42	0.50265896
187	0x3d6781e3	0.056520354
188	0x3f606253	0.8765003
189	0x3e27eabe	0.16398141
190	0x3e62b675	0.22139914
191	0x3ede4173	0.4340931
192	0x3eb978ab	0.36224875
193	0x3dc6cd58	0.09707135
194	0x3d037866	0.032097243
195	0xbe0fa500	-0.14027786
196	0x3dc6ab2f	0.097006194
197	0x3daf3a9f	0.08556103
198	0xbeade5af	-0.33964297
199	0x3ee0536d	0.4381365
200	0x3e8bbbc5	0.27291694
201	0xbf0b0451	-0.5430346
202	0x3ef0b14f	0.47010276
203	0xbe4a5ba6	-0.19761524
204	0x3d97388a	0.07383831
205	0x3e9f93b5	0.3116738
206	0xbea54e6c	-0.32286394
207	0x3eb540e9	0.35401085
208	0xbe031731	-0.12801816
209	0xbe9da4df	-0.3078985
210	0x3e54e542	0.2079058
211	0xbcf6bbf5	-0.030118922
212	0xbe77c8e9	-0.24197735
213	0xbd990560	-0.07471728
214	0x3eafb585	0.34318176
215	0x3f9730c6	1.181176
216	0xbee90256	-0.45509595
217	0x3c588c89	0.0132171
218	0x3f3dd7ca	0.7415739
219	0xbd9a48aa	-0.07533391
220	0xbc843c27	-0.016141964
221	0xbd81ffc6	-0.06347613
222	0xbef40726	-0.47661704
223	0xbdf5a1d4	-0.11993757
224	0x3e86786a	0.26263744
225	0x3ec62aa8	0.3870442
226	0xbf726844	-0.94690347
227	0xbeab9959	-0.33515432
228	0xbe83ff87	-0.2578089
229	0xbcbfa425	-0.0233937
230	0x3f409e59	0.7524162
231	0x3f73a757	0.95177215
232	0x3ed5c7bb	0.41753945
233	0xbf0edb11	-0.5580302
234	0xbe82b366	-0.25527495
235	0xbf120c2b	-0.57049817
236	0xbe2878fb	-0.164524
237	0x3f1dabf2	0.6159049
238	0xbe44a44f	-0.19203304
239	0xbe4f15a3	-0.20223098
240	0xbe7d4b91	-0.24735858
241	0xbe821844	-0.25409138
242	0x3fac4f36	1.3461673
243	0x3e1b6323	0.15174536
244	0xbeb0dc78	-0.34543204
245	0xbf4a7ea0	-0.79099464
246	0xbef85941	-0.48505595
247	0xbe3e3bf1	-0.18577553
248	0x3d3e5617	0.04646882
249	0x3e34591f	0.17612122
250	0x3d3d2518	0.046177953
251	0x3d9e64c5	0.07734064
252	0xbdf69dea	-0.120418385
253	0x3e1c8824	0.15286309
254	0xbf034b60	-0.5128689
255	0xbe964f60	-0.29357433

network_body._body_endoder.seq_layers.2.bias f4 [256]
0	0x3d1abfb8	0.037780493
1	0xbaa3ad4c	-0.001248756
2	0x3c1077c6	0.008817619
3	0x3d416127	0.047211792
4	0x3d589d82	0.052884586
5	0x3cb12c52	0.021627579
6	0xbd05398e	-0.03252559
7	0xbc8b6edf	-0.01702064
8	0x3d47e913	0.04880626
9	0x3c9a4cfa	0.018835533
10	0x3d0dd568	0.03462735
11	0x3d12d536	0.035847865
12	0xbc90b21a	-0.01766305
13	0x3d034e4e	0.0320571
14	0x3b3c4222	0.0028725942
15	0x3d1a5e2b	0.03768746
16	0xbc403b85	-0.011732941
17	0x3d001df7	0.031278577
18	0xbc061684	-0.008184079
19	0x3d0e0eab	0.034681957
20	0x3cb68c0b	0.022283575
21	0x3c94e09f	0.018173514
22	0xbc114913	-0.00886752
23	0x3cd2f61e	0.025752123
24	0x3d0a025b	0.033693653
25	0x3c369627	0.011144198
26	0xbc5a6707	-0.013330228
27	0x3d8c2842	0.06843616
28	0x3ca377d4	0.0199546
29	0x3c95c8f9	0.018284308
30	0xbc20906c	-0.009800058
31	0xbc8a4059	-0.016876386
32	0x3d5076d7	0.050894585
33	0x3ccc6659	0.024951147
34	0xbc98d61a	-0.01865678
35	0xbc05afac	-0.008159559
36	0xbc93f43e	-0.0180608
37	0xbc8010f5	-0.015633086
38	0xbbde766a	-0.0067890184
39	0xbc892807	-0.01674272
40	0xb87553ff	-5.849078e-05
41	0x3b5041f5	0.0031777595
42	0x3d01a1c6	0.03164842
43	0x3c5d938a	0.013523946
44	0xbcebac0c	-0.028768562
45	0xbc97b944	-0.018520959
46	0x3bdbf6b2	0.006712758
47	0xbd1cdd6d	-0.038297106
48	0xbcadc678	-0.021212801
49	0x3d97445e	0.07386087
50	0x3cb15e10	0.021651298
51	0x3c939e15	0.018019715
52	0x3c232f0b	0.009959946
53	0x3d1c6258	0.038179725
54	0x3a9ce2c1	0.0011969433
55	0xbc8c3d91	-0.0171192
56	0xbbd9d06a	-0.0066471593
57	0xbb762740	-0.0037560016
58	0x3d73f5be	0.05956053
59	0x3d875d99	0.06609649
60	0x3d0dedfc	0.034650788
61	0x3d08e500	0.033421516
62	0x3d33cc53	0.04389603
63	0x3c8c82bf	0.017152188
64	0xbcc11163	-0.023567861
65	0xbc931d75	-0.017958382
66	0x3cbdc329	0.023164349
67	0x3d64fd79	0.055905793
68	0xbc61743a	-0.013760621
69	0x3c942245	0.018082747
70	0x3d79b9d5	0.06096824
71	0x3cd32522	0.025774542
72	0x3d4020c1	0.046906237
73	0x3d65d502	0.056111343
74	0x3d1fadf3	0.03898425
75	0xbb0e46f2	-0.0021709767
76	0xbcea9fe0	-0.028640687
77	0xbc92535b	-0.017862013
78	0xbcbb0948	-0.022831574
79	0xbc57660b	-0.0131468875
80	0x3c16b5fc	0.009198662
81	0xbcba2397	-0.022722049
82	0x3ced4762	0.028964702
83	0xbc5a137b	-0.013310309
84	0xbbfcc747	-0.0077141854
85	0xbcda89f7	-0.026677115
86	0x3c11b86a	0.008894065
87	0x3bbf86d8	0.005844932
88	0x3d99e470	0.07514274
89	0x3d4a62f7	0.049410786
90	0x3c339103	0.010959866
91	0x3c14c699	0.0090805525
92	0x3baaee7b	0.0052164174
93	0xbc12c7e7	-0.008958793
94	0x3c816d44	0.015799172
95	0xbc6adecb	-0.014335345
96	0x3c9d8580	0.019228697
97	0x3d95559d	0.0729172
98	0xbce568fb	-0.02800416
99	0x3d27b979	0.040948365
100	0x3d8fc932	0.07020797
101	0xbac37b3c	-0.0014914046
102	0x3d027ef5	0.031859357
103	0xbbb6cae2	-0.0055783847
104	0x3d12226c	0.03567736
105	0xbc8cf58c	-0.01720693
106	0x3c38c0f3	0.011276471
107	0x3d004d75	0.03132387
108	0x3d7de6cf	0.061987694
109	0x3c491bfe	0.01227474
110	0x3c8e3b02	0.017362121
111	0x3d819c21	0.06328607
112	0x3d698083	0.057007324
113	0xbbd3cd19	-0.0064636585
114	0x3cb899e0	0.02253431
115	0x3c0ac637	0.00847011
116	0xbc36d44b	-0.011159013
117	0x3cd8225d	0.026383573
118	0x3c89170c	0.016734622
119	0xbc1c6952	-0.009546595
120	0x3b3a6cc4	0.0028446177
121	0xbd32f52e	-0.043690853
122	0x3d575e67	0.052580263
123	0x3d42d458	0.047565788
124	0x3cd8cf2f	0.02646598
125	0xbc286f93	-0.010280508
126	0xbad902c4	-0.001655661
127	0x3d1eaf99	0.03874168
128	0x3d81521b	0.063144885
129	0x3d541a94	0.05178316
130	0x3d8ea6b0	0.06965387
131	0x3cc07ea9	0.023497896
132	0x3d0ff877	0.035149064
133	0x3cc31422	0.023813311
134	0xbc0be5b0	-0.0085386485
135	0x3ce9e84b	0.028553149
136	0x3d8333df	0.06406378
137	0x3c0eafc3	0.008708897
138	0x3d57abc2	0.052654035
139	0xbbf51442	-0.0074792216
140	0xbc8966b3	-0.016772604
141	0x3d15337b	0.03642605
142	0x3d2997b2	0.041404434
143	0x3d70b4c2	0.058766134
144	0x3cc34e90	0.023841172
145	0xbc424035	-0.011856128
146	0x3d939d9e	0.072077975
147	0x3ca044fd	0.019564146
148	0x3c105a6a	0.008810619
149	0xbc85bfb8	-0.01632677
150	0x3bd867cb	0.00660417
151	0x3d05b5c2	0.03264404
152	0x3c69ad78	0.01426255
153	0xbbb485e9	-0.0055091274
154	0xbcdd61ed	-0.027024234
155	0x3b6d6f02	0.0036229496
156	0x3d05e2d2	0.032687016
157	0x3cac0129	0.020996647
158	0x3cf4af15	0.029868642
159	0x3c7bd142	0.015369715
160	0xbc786d63	-0.015162799
161	0x3d85d9d1	0.06535686
162	0xbc6b6c17	-0.014369032
163	0x3c2f38e9	0.010694721
164	0xbcf1e589	-0.029528396
165	0x3c04f1a7	0.008114255
166	0x3c95da02	0.01829243
167	0x3d582443	0.052768957
168	0x3d2bd451	0.041950528
169	0x3cf2c3c8	0.029634371
170	0xbc54435e	-0.012955515
171	0xbc640a7e	-0.013918517
172	0x3d116797	0.03549918
173	0x3d0a655f	0.03378808
174	0x39f57dda	0.00046823808
175	0x3d18165b	0.037130695
176	0x3d32f812	0.04369361
177	0x3cbb7bcd	0.022886181
178	0xbc3a12f8	-0.011357062
179	0x3d90953d	0.07059715
180	0x3c25ba3b	0.010115202
181	0xbcc2fab9	-0.023801195
182	0x3cd9744c	0.026544712
183	0x3a63040a	0.00086599647
184	0x3cccf267	0.02501793
185	0xbbf50ae8	-0.0074781068
186	0x3c2ce473	0.010552513
187	0x3d3a9377	0.04555079
188	0x3d906a5c	0.070515364
189	0x3d0fc5b2	0.035100646
190	0x3d8401f4	0.06445685
191	0x3d318721	0.04334176
192	0xbab7261d	-0.0013973151
193	0xbc7e35d9	-0.015515768
194	0xbbe5c784	-0.0070123095
195	0x3d895547	0.067057185
196	0x3d3a19be	0.045434706
197	0x3d785cef	0.060635503
198	0x3cd005b1	0.025393339
199	0x3d979f0c	0.07403383
200	0x3aa8c681	0.0012876542
201	0x3bad0eb2	0.005281293
202	0x3c3cc25e	0.01152095
203	0x3d1a2e18	0.037641615
204	0xbb71f54c	-0.003691989
205	0xbc79005c	-0.01519784
206	0x3c3f9002	0.011692049
207	0x3d6a76ca	0.057242192
208	0x3d36472e	0.044501476
209	0x3bd61dfa	0.006534335
210	0xba621022	-0.000862362
211	0x3c7d0dcf	0.015445187
212	0x3d44fb4b	0.048091214
213	0x3d35f574	0.044423535
214	0x3d556332	0.052096553
215	0x3cd01eee	0.025405373
216	0xbc8de132	-0.017319296
217	0x3db69096	0.08914296
218	0x3d7d39ad	0.061822582
219	0xbceeacea	-0.029135186
220	0x3d2cb53a	0.04216502
221	0x3d5afce6	0.05346384
222	0x3cb9d287	0.022683395
223	0xbbf8a6a3	-0.007588224
224	0xbce37ef1	-0.027770491
225	0x3d4969ab	0.04917304
226	0x3c39e786	0.011346703
227	0x3c89640c	0.016771339
228	0xbbded377	-0.006800111
229	0xbcd5bc50	-0.026090771
230	0x3c05e907	0.008173234
231	0x3d9ac247	0.07556587
232	0x3d1bc9c2	0.038034208
233	0x3d2f1423	0.042743813
234	0xbc41cb8e	-0.011828316
235	0x3c9738bc	0.01845967
236	0x3c92db5b	0.017926862
237	0x3d28af1e	0.04118263
238	0x3ce6e5bb	0.028185716
239	0x3d8f7efc	0.07006642
240	0x3c55b6e5	0.013044094
241	0x3bcb2966	0.0062000034
242	0x3b802c7e	0.003911554
243	0x3d143f33	0.036193084
244	0x3bf11643	0.00735739
245	0x3d30aebc	0.04313539
246	0xba554b9a	-0.00081365707
247	0x3d49ccc9	0.049267564
248	0x3d1281dd	0.03576838
249	0xbd03d17e	-0.03218221
250	0x3c03c02d	0.008041424
251	0xbc5f8bf0	-0.013644204
252	0x3ccea47c	0.025224917
253	0xbbc956fc	-0.0061444025
254	0x3b813567	0.0039431336
255	0x3d8125e1	0.06306053

network_body._body_endoder.seq_layers.2.weight f4 [256, 256]
0	0x3d35b0a9	0.04435793
1	0x3d1ad2d8	0.037798733
2	0x3dea4f66	0.11440925
3	0xbd24ece8	-0.040264994
4	0x3d30bc97	0.043148603
5	0x3ccf09db	0.025273254
6	0xbc65c7dd	-0.014024702
7	0x3d034c64	0.032055274
8	0xbe227c4a	-0.15867725
9	0xbd52bcca	-0.051449575
10	0xbd22a6e2	-0.039709933
11	0x3e132d05	0.14372642
12	0x3dac9e37	0.084286146
13	0x3d52cbd4	0.051463917
14	0xbc2100fb	-0.009826894
15	0x3da84991	0.08217157
16	0xbd84ea62	-0.064900175
17	0xbdc16336	-0.09442751
18	0xbd41692d	-0.047219444
19	0x3d8a0ca9	0.06740696
20	0x3cbcb1c7	0.02303399
21	0xbccc0336	-0.024903875
22	0xbe0cc5ee	-0.13747379
23	0xbdb1f906	-0.086900756
24	0x3d1c8435	0.03821202
25	0x3cb726e5	0.022357414
26	0xbd51de2a	-0.051237263
27	0x3cdab0b5	0.026695589
28	0xbcbff912	-0.023434196
29	0x3b775c81	0.0037744346
30	0x3cb06797	0.02153377
31	0x3d8b17e5	0.06791667
32	0xbd2d94b7	-0.042378154
33	0xbd7a56d4	-0.061117962
34	0x3cfc8339	0.03082429
35	0x3b8a635c	0.0042232703
36	0x3d030094	0.031982973
37	0xbc8fc7e5	-0.017551372
38	0xbd771883	-0.06032611
39	0x3bf98ca0	0.0076156408
40	0x3d8ee938	0.06978077
41	0xbe21b3a6	-0.15791187
42	0xbc358573	-0.01107918
43	0xbc5574ba	-0.013028318
44	0x3c410219	0.011780285
45	0x3dc5b3c9	0.09653432
46	0x3ba2ff77	0.0049743014
47	0xbcacde26	-0.021102022
48	0xbcf67184	-0.030083425
49	0x3d3399cb	0.04384784
50	0xbd95d1c5	-0.07315401
51	0xbdd0fece	-0.1020485
52	0xbc79eb0c	-0.015253793
53	0x3da6163e	0.08109711
54	0x3d3bef7f	0.0458827
55	0x3e4c10b3	0.19928245
56	0xbd8013f2	-0.06253804
57	0xbca4cc88	-0.02011706
58	0xbe078b89	-0.13236822
59	0x3dac0e33	0.08401146
60	0x3d84f16f	0.06491362
61	0xbcb8e7a6	-0.022571396
62	0x3d476113	0.04867656
63	0x3be1ceff	0.006891131
64	0x3d7cf319	0.061755273
65	0x3dccad60	0.09994006
66	0xbd62586a	-0.0552601
67	0x3d80db1f	0.06291794
68	0xbe678531	-0.22609402
69	0x3dc6c57d	0.09705637
70	0xbd8d49ba	-0.06898828
71	0x3e1ff01f	0.15618943
72	0x3b199019	0.0023431836
73	0x3dda0674	0.10645762
74	0x3e03b9f3	0.12863903
75	0x3d37e6d9	0.044897888
76	0x3d52738e	0.051379733
77	0x3cc6c5f2	0.02426431
78	0x3e3b0f8e	0.18267652
79	0xbd863430	-0.06552923
80	0xbda9ebd9	-0.082969375
81	0x3e521597	0.20516048
82	0xbd381172	-0.044938512
83	0xbd4706b3	-0.048590373
84	0x3d49052c	0.049077198
85	0x3dca0866	0.09864883
86	0x3e0451d9	0.12921847
87	0xbe0472c9	-0.12934412
88	0xbe0ae22f	-0.13562845
89	0x3d11554c	0.035481736
90	0x3e12908c	0.14312953
91	0xbd7fdc0f	-0.062465724
92	0xbdcb466b	-0.099255405
93	0x3dccf6cd	0.10008011
94	0x3d1e6c29	0.03867737
95	0x3d2a3d52	0.041562386
96	0x3e191642	0.14949897
97	0x3bcb5c85	0.0062060975
98	0x3cf668c2	0.03007925
99	0xbd22faf4	-0.03979011
100	0x3dd00e33	0.10158958
101	0x3db1a11b	0.086733066
102	0x3c83b19d	0.016075904
103	0xbdecda3c	-0.115650624
104	0x3c9b5616	0.018961947
105	0x3cdcea1b	0.026967099
106	0x3d6537a0	0.05596125
107	0x3d17d312	0.037066527
108	0x3bff3e63	0.0077894195
109	0xbdf9c42b	-0.12195619
110	0xbcf99287	-0.030465377
111	0x3bc3eb85	0.005979004
112	0xbda27d69	-0.07934076
113	0x3d9e59f0	0.07731998
114	0xbd8b4898	-0.068009555
115	0x3dab992b	0.08378824
116	0xbd568959	-0.05237708
117	0xbd14c031	-0.0363161
118	0x3de2a8df	0.11067366
119	0xbe0eb5c0	-0.1393652
120	0xbd16a72f	-0.036780532
121	0xbc97dd7b	-0.018538227
122	0xbd34a20f	-0.044099864
123	0x3d80d8e2	0.06291367
124	0x3bb1fe1a	0.0054319026
125	0xbceaf485	-0.02868105
126	0xbcc60a44	-0.024174817
127	0xbc627835	-0.013822605
128	0xbe02a03e	-0.1275644
129	0xbdd0e5d2	-0.10200085
130	0xbe2d922d	-0.16950293
131	0x3e562247	0.20911513
132	0xbe1fe9ab	-0.15616481
133	0x3cd57f3f	0.026061652
134	0x3db87104	0.09005931
135	0x3d4e2bf5	0.05033489
136	0x3e51a333	0.20472412
137	0xbd58a444	-0.05289103
138	0xbe03c147	-0.12866698
139	0xbd458360	-0.048220992
140	0xbdd4bc36	-0.10387461
141	0x3d85c6b7	0.065320425
142	0x3c9f5dc6	0.019453894
143	0x3bc39ed5	0.005969862
144	0x3ddf43c8	0.109016
145	0xbbdb8707	-0.006699446
146	0x3e3234fc	0.17403024
147	0x3cf24411	0.029573472
148	0xbd26ece7	-0.04075327
149	0x3dc25756	0.09489314
150	0x3d1392e4	0.036028758
151	0x3e81e1e4	0.25367653
152	0x3e37a2ea	0.1793324
153	0xbb1fcb2c	-0.0024382574
154	0xbcc0459b	-0.02347069
155	0x3de4c392	0.111701146
156	0x3d26ca7b	0.040720444
157	0xbcadfa8a	-0.02123763
158	0x3c4a3384	0.012341384
159	0x3dfddc36	0.123955175
160	0x3c933638	0.01797019
161	0xbde16eef	-0.11007487
162	0x3e2fb467	0.17158662
163	0x3e16d335	0.14729007
164	0x3dca3356	0.09873073
165	0xbc726a76	-0.01479589
166	0xbdd22a30	-0.10261953
167	0xbdf5170f	-0.11967289
168	0x3d99595d	0.07487748
169	0xbb216553	-0.0024627044
170	0x3d8b13b3	0.06790867
171	0x3dab58e5	0.08366565
172	0x3d9f1391	0.07767404
173	0x3cafa4a2	0.021440808
174	0xbbb7fdaf	-0.0056149582
175	0xbb2c230c	-0.0026266007
176	0x3e39024c	0.18067282
177	0x3da6d0ea	0.08145316
178	0xbd144bac	-0.03620498
179	0x3dbf313c	0.093355626
180	0x3e36d4f0	0.17854667
181	0x3df1fa6d	0.11815343
182	0x3d93d192	0.07217707
183	0x3c94a29a	0.01814394
184	0xbc43ec07	-0.011958129
185	0x3d46b13a	0.04850886
186	0xbc7aa246	-0.015297478
187	0x3a16ad1c	0.0005747841
188	0xbba80020	-0.005126968
189	0xbe1a2e1c	-0.15056652
190	0x3e7a1316	0.24421343
191	0xbc88423f	-0.016633151
192	0xbb48aa33	-0.0030619025
193	0xbc182ae9	-0.009287574
194	0xbcbf8dee	-0.023383107
195	0x3cfa2eda	0.030539919
196	0xbdb61134	-0.0889
197	0xbd8e5887	-0.06950479
198	0x3c7cb32e	0.015423579
199	0xb9f424a4	-0.00046566606
200	0xbdf70658	-0.12061757
201	0xbdc19071	-0.09451378
202	0x3c284487	0.010270244
203	0xbe502853	-0.20327882
204	0x3d6fffef	0.058593687
205	0x3bca6d52	0.006177583
206	0x3b2cb752	0.0026354385
207	0xbd4266e9	-0.047461424
208	0x3de1e52d	0.1103004
209	0x3d101dc7	0.035184648
210	0x3b413706	0.002948226
211	0x3ded57f6	0.11589043
212	0x3da47ddc	0.08031818
213	0xbc5ce64f	-0.013482644
214	0x3d0dbc99	0.03460369
215	0x3dc715e2	0.09720971
216	0xbd1e690b	-0.038674396
217	0xbdef1df6	-0.116756365
218	0x3c1e96a1	0.009679467
219	0xbd2eba5a	-0.042658187
220	0x3cacfc59	0.021116422
221	0xbdced31b	-0.10098859
222	0x3ccfe0f3	0.025375819
223	0xbd867ffb	-0.06567379
224	0xbd2a5724	-0.04158701
225	0xbc54001d	-0.01293948
226	0xbd888e91	-0.066678174
227	0x3ca60286	0.020264875
228	0xbd1a564b	-0.03767995
229	0xbcb040f4	-0.021515347
230	0x3d9ee0a1	0.07757688
231	0xbdb6276b	-0.08894237
232	0x3b2ce0d3	0.0026379123
233	0xbd94f334	-0.0727295
234	0x3e69bd25	0.22826059
235	0x3dd0f2c8	0.10202557
236	0xbd0a9268	-0.03383103
237	0xbd251f9c	-0.04031335
238	0x3ddc15e5	0.107463636
239	0x3dc95479	0.09830565
240	0xbd3f25a0	-0.04666674
241	0x3e096be2	0.1342006
242	0x3d361458	0.044452995
243	0xbd7b9928	-0.061425358
244	0x3d0a9713	0.03383548
245	0x3de8ee9c	0.11373636
246	0xbe0215f3	-0.12703685
247	0xbe08d27d	-0.13361545
248	0x3ceb26c0	0.028705
249	0x3e891340	0.267725
250	0xbd85f667	-0.06541138
251	0x3d425f49	0.047454152
252	0x3acdf7a7	0.0015714065
253	0xbdfbc921	-0.12294222
254	0x3e0f5764	0.1399818
255	0xbd90680e	-0.07051097
